baseline_models/random-agent-8.pt (torch_old, 595839 bytes, 6 tensors)

weight f4 [256, 294]
-0.038076617 0.03538949 0.016462766 -0.0545284 -0.03712514 -0.05507874 -0.037990756 0.02044259
0.022833481 0.042007923 -0.04499152 -0.037578955 0.043434843 0.015447684 -0.009513192 0.007253088
0.0041468367 -0.04664813 0.05447419 -0.0037474558 -0.009648293 0.020548418 -0.058284402 -0.01828181
-0.024066452 -0.04664792 0.05315677 0.057070933 -0.03896316 -0.014482442 0.05748494 -0.05503095
-0.012409799 0.038324706 0.009699255 0.054221146 0.004851222 -0.0043822415 -0.013355166 0.041558206
-0.021767043 0.034651667 0.0011028275 0.0046491027 0.020667046 -0.02914121 0.011730559 0.026235282
0.036385275 -0.013069041 0.040350296 0.0008283667 -0.030887507 0.038937412 -0.015746266 0.036977574
-0.034729313 0.04840815 -0.040867332 0.051095925 -0.036865946 -0.0050124787 0.009910382 -0.029807912
-0.009290222 0.027041234 0.008825079 -0.04176288 -0.016951632 0.021076389 0.036962517 -0.008842833
-0.04839885 0.035887323 -0.00593777 0.045524523 -0.010943182 -0.049110185 0.057082564 0.051441908
0.020179331 -0.0067911223 -0.039467275 -0.036430553 -0.016405817 0.025316335 -0.057647932 -0.051678155
0.04312723 0.0052858293 -0.036033437 -0.031783577 0.056049705 -0.04926631 -0.01426018 0.03767798
0.009049714 -0.023734465 0.048317924 -0.030943522 0.031785607 0.0024309307 0.012959354 -0.04382655
0.0071372315 -0.05101401 -0.023920331 -0.024222143 0.053830735 -0.015167799 0.016994752 0.038407132
-0.021220177 0.049181707 -0.03135004 0.011972994 0.028615542 0.03323113 -0.016276341 -0.027049683
-0.0483971 0.0026951209 -0.024540141 -0.00069248304 -0.04823388 -0.051204506 -0.017999161 0.03347732
-0.0034726001 0.0022538155 -0.051192597 0.055565685 -0.0072616152 -0.0025179312 0.024963163 0.028066106
0.04875931 -0.008907385 0.025471427 -0.04649668 0.038552843 -0.035135627 -0.040603884 0.014435492
0.0552278 0.045482837 -0.051515594 0.03457775 0.014724158 0.026605263 0.016900629 0.021433614
0.039060026 -0.014369756 0.026932858 -0.038117606 -0.008774616 0.023849137 0.053916298 0.030264266
0.05166264 0.015469752 -0.009220246 -0.047407806 0.04682388 -0.0453081 -0.021242056 0.015314713
0.029305972 0.019548692 0.011288129 0.012416773 0.057467207 0.04005713 -0.057313632 -0.036701374
0.01307562 0.049530648 -0.01925303 0.011607528 0.021981873 0.056503408 -0.03518729 -0.033247374
-0.00022922084 0.0153179765 -0.025008373 -0.022277996 -0.015688695 -0.03707978 -0.034946866 -0.035995387
-0.056617383 -0.003556069 0.023636721 0.03923765 0.05691854 0.05627604 0.037418365 0.00573612
0.028657839 -0.008297369 -0.022579286 0.018545613 -0.038213283 -0.039570615 -0.00027654693 -0.015334494
-0.022888746 0.056529462 0.021700695 0.005147621 0.04097686 -0.018150374 -0.022067506 0.015422434
0.031644724 0.014394738 -0.014254298 0.00082468987 0.042003736 -0.007213399 0.0025269985 -0.00042232499
-0.022973455 0.024081439 0.047014467 -0.00946039 -0.04290235 -0.042930834 0.029295772 -0.004912354
0.051860616 -0.04257985 0.052962735 -0.030671898 -0.0067366175 -0.009781726 -0.011955727 0.047829136
-0.049607784 0.02388864 0.048157677 0.016091093 0.030400656 -0.03252436 -0.026295371 -0.040883377
-0.056080118 0.03796505 -0.010318764 -0.04536459 -0.00414804 -0.05470059 -0.00905966 -0.013027612
00000000: 3af6 1bbd 92f4 103d ecdc 863c 2c59 5fbd
00000010: 8810 18bd 3f9a 61bd 329c 1bbd 3877 a73c
00000020: 480d bb3c 8010 2c3d 0749 38bd 64ec 19bd
00000030: bce8 313d 4818 7d3c 38dd 1bbc 50ab ed3b
00000040: 30e2 873b 1c12 3fbd 5420 5f3d e097 75bb
00000050: e013 1ebc 2855 a83c a0bb 6ebd bcc3 95bc
00000060: 0227 c5bc e411 3fbd eaba 593d 36c3 693d
00000070: d697 1fbd c447 6dbc 5475 6b3d 2268 61bd
00000080: 7852 4bbc 5efa 1c3d a0e9 1e3c fe16 5e3d
00000090: 00f7 9e3b e898 8fbb a0cf 5abc f038 2a3d
000000a0: cc50 b2bc e8ee 0d3d c08c 903a 8057 983b
000000b0: f04d a93c 8cb9 eebc 8831 403c 60eb d63c
000000c0: ba08 153d 881f 56bc 5a46 253d c026 593a
000000d0: cc07 fdbc d67c 1f3d 50fe 80bc cc75 173d
000000e0: 5340 0ebd a047 463d 8164 27bd f649 513d
000000f0: bf00 17bd b83f a4bb 285f 223c b92f f4bc
00000100: 0436 18bc 9485 dd3c 1097 103c 8e0f 2bbd
00000110: 26de 8abc 64a8 ac3c 0266 173d 88e1 10bc
00000120: df3d 46bd 96fe 123d a091 c2bb ec77 3a3d
00000130: 084b 33bc c327 49bd 68cf 693d c0b4 523d
00000140: 204f a53c 1088 debb 70a8 21bd 3438 15bd
00000150: 7e65 86bc 3464 cf3c 3d20 6cbd 79ac 53bd
00000160: 2ea6 303d c034 ad3b cc97 13bd 7f2f 02bd
00000170: 6094 653d 78cb 49bd 88a3 69bc 3a54 1a3d
00000180: 4045 143c c86e c2bc 04e9 453d 457d fdbc
00000190: a031 023d 4050 1f3b 7853 543c 7883 33bd
000001a0: 70df e93b 11f4 50bd 92f4 c3bc 846d c6bc
000001b0: 9e7d 5c3d 5c82 78bc 9438 8b3c cc50 1d3d
000001c0: f0d5 adbc c272 493d e668 00bd 602a 443c
000001d0: 246b ea3c 5e1d 083d f655 85bc 4c97 ddbc
000001e0: 0a3c 46bd a0a0 303b 6808 c9bc c087 35ba
000001f0: e490 45bd d1bb 51bd fa72 93bc 841f 093d
00000200: 9094 63bb c0b4 133b 54af 51bd d898 633d
00000210: d8f2 edbb e003 25bb 8c7f cc3c e4ea e53c
00000220: d8b7 473d 48f0 11bc 74a9 d03c 4d73 3ebd
00000230: 96e9 1d3d 60ea 0fbd 4250 26bd d882 6c3c
00000240: 8c36 623d 364c 3a3d 0402 53bd 66a1 0d3d
00000250: 983d 713c 48f3 d93c 3073 8a3c 8c95 af3c
00000260: 68fd 1f3d 206f 6bbc 4ca2 dc3c 3521 1cbd
00000270: 68c3 0fbc 445f c33c 56d7 5c3d c4ec f73c
00000280: 349c 533d d874 7d3c 8410 17bc b02e 42bd
00000290: 66ca 3f3d fc94 39bd d203 aebc 90ea 7a3c
000002a0: 1413 f03c 9424 a03c d8f1 383c b86f 4b3c
000002b0: bc62 6b3d f212 243d b3c1 6abd 2e54 16bd
000002c0: 203b 563c a6e0 4a3d 88b8 9dbc 802d 3e3c
000002d0: 5413 b43c 1e70 673d 8c20 10bd 662e 08bd
000002e0: 005b 70b9 40f8 7a3c 5cde ccbc 5880 b6bc
000002f0: 9485 80bc f8e0 17bd 7224 0fbd e66f 13bd
00000300: a1e7 67bd f00c 69bb cca1 c13c a8b7 203d
00000310: 6a23 693d b481 663d 0044 193d 10f6 bb3b
00000320: d8c3 ea3c b0f1 07bc 32f8 b8bc f8ec 973c
00000330: 8885 1cbd cc14 22bd 80fd 90b9 883d 7bbc
00000340: 2e81 bbbc 708b 673d a8c5 b13c 60ad a83b
00000350: 5ad7 273d 18b0 94bc eac6 b4bc 60ae 7c3c
00000360: e69d 013d e8d7 6b3c dc8a 69bc 0030 583a
00000370: 1c0c 2c3d 605e ecbb 009c 253b 806b ddb9
00000380: d432 bcbc 7046 c53c 3e92 403d c0ff 1abc
00000390: 60ba 2fbd 3ed8 2fbd b0fd ef3c d0f7 a0bb
000003a0: cc6b 543d 3568 2ebd 74ef 583d a243 fbbc
000003b0: d8be dcbb 8843 20bc f4e1 43bc 7ce8 433d
000003c0: 8831 4bbd 1cb2 c33c fc40 453d 78d1 833c
000003d0: cc0a f93c 4338 05bd 6469 d7bc 5475 27bd
000003e0: 44b4 65bd 3e81 1b3d 0810 29bc 38d0 39bd
000003f0: 48ec 87bb ba0d 60bd f86e 14bc c471 55bc

bias f4 [256]
0.012694746 -0.017402299 0.009054489 -0.02593644 -0.043438047 0.0050230175 -0.00963258 -0.046328012
0.0328018 -0.04753136 -0.031686235 -0.019706696 -0.029654494 0.047751255 0.022179708 -0.05609668
-0.030381557 0.01388485 0.017734833 0.038604505 -0.039097928 -0.05088498 0.048842773 0.03857532
0.05247134 0.04387617 -0.017428443 -0.051588032 0.045295797 0.040015027 -0.036607392 0.020826697
0.057646498 -0.056708425 -0.037621766 -0.019985925 -0.0032473132 -0.041616343 -0.045613416 -0.04637627
-0.033058207 0.045937814 0.012130253 -0.015096452 -0.006960973 -0.0030581653 -0.052919615 0.011227615
0.004728183 -0.034034092 -0.022610668 0.034826875 0.0071630403 0.033187397 0.039150774 -0.01878139
-0.029915001 0.0077481046 0.036480777 0.025141716 0.046247736 0.040077597 -0.0015129298 -0.038374253
-0.00048723444 -0.015174463 0.046179548 -0.0373253 -0.056873344 0.026101574 0.020208806 -0.01827941
-0.011992283 -0.055083726 -0.030989727 0.044144057 -0.03500127 -0.050523233 0.0071969107 -0.027137151
0.051179074 -0.019687884 0.023879185 0.016440071 0.03317786 -0.04187739 -0.0020935014 -0.050099738
0.03147523 -0.04833564 0.0006139539 -0.0025699846 -0.012337118 -0.01164823 -0.050678946 0.018461287
0.003738124 -0.055514928 0.05246114 -0.040983375 -0.039459758 -0.01939217 0.030199036 -0.049781825
0.01567667 0.036427267 -0.0045695193 0.029420495 -0.0330845 0.031877488 0.021592736 -0.012507569
0.043299295 -0.043240413 0.028471462 0.02463027 -0.0081458725 0.05077047 0.02045741 -0.0009988211
0.019208305 -0.008018985 0.052498803 -0.030211104 -0.033316433 0.039273538 -0.055579115 0.021791473
0.02639325 -0.05033028 0.039868683 -0.048085786 -0.038921155 -0.011056624 -0.0041499026 -0.041935302
-0.03932918 0.034795888 0.039465137 -0.037580337 -0.043946188 0.021376051 0.039172314 0.00016749278
-0.052579794 0.039821714 -0.0088039 0.0325535 0.028191477 0.009594895 0.04082778 0.008788958
0.018952183 0.0022956692 -0.013654914 2.3379922e-05 0.04739728 0.04370915 -0.0558867 0.015436433
0.02209694 0.03523913 0.052540593 -0.03227494 0.014073685 -0.013598334 0.054435708 0.03356208
-0.02932761 0.044570222 0.029971354 0.043908216 -0.0282726 -0.0013412833 -0.01873853 0.023157991
-0.024661414 -0.028918495 0.0061547235 -0.0063424334 0.030443452 0.05257064 -0.054237038 -0.010540221
-0.03366018 0.013874173 0.016496569 0.017332047 -0.026371174 -0.008623973 -0.029963125 -0.026068542
-0.049262136 -0.04931677 -0.022397723 -0.025051847 0.037954934 -0.005364001 0.056623727 0.048868537
0.056064762 -0.043224838 0.015704311 -0.023509383 -0.05737404 0.02107577 -0.013117429 0.008346207
-0.016758777 -0.035325326 -0.041677967 -0.02391423 -0.0034095384 -0.041434035 0.028761178 0.013163857
0.04434567 -0.05330312 -0.0069580637 -0.052869134 -0.0036543347 0.038645253 -0.05669569 -0.009937335
0.0043633506 -0.037172824 -0.05308276 -0.017022084 0.020110615 0.035558805 -0.010682106 0.050679103
-0.04147602 -0.011088092 0.002127394 0.001209408 -0.013665788 0.024177678 0.022751682 -0.0056662336
0.049681142 0.023466222 0.014006712 -0.05389659 -0.017115138 -0.026225645 0.014002986 0.03506457
0.006116934 -0.0063678585 -0.04618001 0.015557244 -0.03738737 0.008341804 -0.028733289 -0.044485055
00000000: a0fd 4f3c 448f 8ebc 4859 143c a878 d4bc
00000010: 18ec 31bd 2098 a43b f8d1 1dbc 71c2 3dbd
00000020: 2e5b 063d 3eb0 42bd 6dc9 01bd f06f a1bc
00000030: fbed f2bc d296 433d 38b2 b53c a2c5 65bd
00000040: bee2 f8bc 487d 633c a448 913c c21f 1e3d
00000050: 2625 20bd c56c 50bd 5c0f 483d 2801 1e3d
00000060: 30ec 563d 80b7 333d 18c6 8ebc f94d 53bd
00000070: 1688 393d cce6 233d a2f1 15bd c09c aa3c
00000080: bc1e 6c3d 1847 68bd 4819 1abd 86b9 a3bc
00000090: e0d0 54bb e675 2abd 22d5 3abd 0bf5 3dbd
000000a0: 0b68 07bd 4a29 3c3d f8bd 463c 1c57 77bc
000000b0: e018 e4bb 806b 48bb 3dc2 58bd 08f4 373c
000000c0: e0ee 9a3b 5567 0bbd 023a b9bc a0a6 0e3d
000000d0: f0b7 ea3b 82ef 073d 905c 203d 6edb 99bc
000000e0: 4e10 f5bc d0e3 fd3b de6c 153d 00f6 cd3c
000000f0: 446e 3d3d 6828 243d 804d c6ba 522e 1dbd
00000100: 8073 ffb9 509e 78bc c426 3d3d 6ae2 18bd
00000110: 06f4 68bd f8d2 d53c f08c a53c b4be 95bc
00000120: 487b 44bc 799f 61bd 2bde fdbc 66d0 343d
00000130: 7e5d 0fbd 73f1 4ebd 10d4 eb3b bb4e debc
00000140: 26a1 513d 7c48 a1bc 489e c33c 54ad 863c
00000150: 82e5 073d a087 2bbd 2033 09bb 6235 4dbd
00000160: 2cec 003d 98fb 45bd c0f1 203a 306d 28bb
00000170: a021 4abc 38d8 3ebc ba94 4fbd 203c 973c
00000180: 50fb 743b 9f63 63bd 7ee1 563d 2fde 27bd
00000190: 8ea0 21bd 54dc 9ebc f863 f73c 07e8 4bbd
000001a0: 5c6c 803c c234 153d e8bb 95bb 4003 f13c
000001b0: 9d83 07bd f891 023d 40e3 b03c 8cec 4cbc
000001c0: 9a5a 313d dc1c 31bd fc3c e93c 6cc5 c93c
000001d0: 4476 05bc b2f4 4f3d 4c96 a73c e0ea 82ba
000001e0: bc5a 9d3c 1062 03bc fc08 573d 477d f7bc
000001f0: d076 08bd 4add 203d eda6 63bd 0884 b23c
00000200: a836 d83c 2027 4ebd 584d 233d 9af5 44bd
00000210: ca6b 1fbd d826 35bc e8fb 87bb 5ac4 2bbd
00000220: a217 21bd 2286 0e3d 32a6 213d d7ed 19bd
00000230: eb00 34bd d41c af3c 2673 203d 00a1 2f39
00000240: e95d 57bd 181c 233d 3c3e 10bc d256 053d
00000250: d0f1 e63c e833 1d3c 083b 273d 90ff 0f3c
00000260: 9c41 9b3c f072 163b dcb8 5fbc 0020 c437
00000270: a623 423d 5e08 333d 74e9 64bd 18e9 7c3c
00000280: a404 b53c e856 103d ce34 573d ba32 04bd
00000290: 5095 663c 8ccb 5ebc faf7 5e3d 6478 093d
000002a0: 7540 f0bc 448f 363d 7c86 f53c 1ad9 333d
000002b0: f19b e7bc 00ce afba 8c81 99bc d4b5 bd3c
000002c0: bc06 cabc 7be6 ecbc 90ad c93b 30d4 cfbb
000002d0: 8c64 f93c 5054 573d a827 5ebd e4b0 2cbc
000002e0: 42df 09bd 8050 633c d023 873c f0fb 8d3c
000002f0: 5c08 d8bc 904b 0dbc 3a75 f5bc b28d d5bc
00000300: 18c7 49bd 6200 4abd 6e7b b7bc 8839 cdbc
00000310: a276 1b3d 80c4 afbb 48ee 673d 602a 483d
00000320: 2aa4 653d 870c 31bd 54a6 803c c096 c0bc
00000330: 0b01 6bbd 18a7 ac3c 7cea 56bc 88be 083c
00000340: b449 89bc 4ab1 10bd 84b6 2abd c6e7 c3bc
00000350: 9072 5fbb bcb6 29bd 909c eb3c 38ad 573c
00000360: cea3 353d 5f54 5abd 7800 e4bb 4e8d 58bd
00000370: 907d 6fbb 7c4a 1e3d bd39 68bd 34d0 22bc
00000380: 70fa 8e3b 8842 18bd 4f6d 59bd e671 8bbc
00000390: 04bf a43c 1ca6 113d 0004 2fbc e494 4f3d
000003a0: c2e2 29bd d4aa 35bc c06b 0b3b 0085 9e3a
000003b0: 78e6 5fbc 4410 c63c bc61 ba3c d0ab b9bb
000003c0: 747e 4b3d 3c3c c03c 687c 653c acc2 5cbd
000003d0: 0c35 8cbc 2ad7 d6bc c86c 653c de9f 0f3d
000003e0: 9070 c83b 78a9 d0bb 4027 3dbd d0e3 7e3c
000003f0: 8023 19bd 10ac 083c 1362 ebbc f635 36bd

weight f4 [256, 256]
0.026202872 0.05056671 0.029067002 0.043615595 0.018010274 0.049400203 -0.05926808 0.008347064
-0.0075256526 -0.0040356517 -0.051024035 0.045942016 -0.0010002255 0.0025146008 -0.012915306 0.030426733
-0.056142047 -0.05035562 -0.05482179 0.058663696 -0.027437247 -0.054725163 0.057139084 -0.03995253
-0.04917127 -0.061494887 -0.009385876 0.03880915 -0.013748787 -0.010348603 -0.03554964 0.047840625
0.03310968 -0.02961976 0.056063272 -0.009578258 -0.05893728 -0.00209146 0.036625326 -0.057374187
0.022086732 -0.0251621 0.027968414 -0.04217662 0.006081991 0.028529592 0.041908413 0.037560813
0.035476618 -0.027377352 0.04891683 0.02970761 0.0006644279 -0.010758825 0.053448543 0.014028698
-0.026954323 -0.0014827028 0.061848566 -0.06111455 0.03546056 0.055612832 0.013806604 0.04487016
0.058301568 0.021815464 0.016137578 0.03837475 -0.015353277 -0.022742182 -0.0015456676 -0.009557679
0.036457255 0.037519097 0.058239177 -0.022263095 -0.022447996 -0.061957873 -0.006804824 -0.02562853
-0.048889123 0.050962217 0.014603481 0.027647316 -0.011835381 -0.06160395 -0.021293938 -0.030304782
-0.008901536 0.04846604 0.005377762 -0.030654907 0.011752553 0.005961396 -0.036513 -0.05072493
-0.037931554 0.034585103 0.013471223 -0.05743391 -0.038965516 -0.047641337 0.0016180426 -0.055248223
-0.05006875 0.05914513 0.061616004 0.027427025 -0.027181 -0.0066005737 0.01641529 -0.0277275
0.006428845 -0.03768412 0.018368565 -0.0066506118 -0.00762365 -0.017381266 0.048708297 0.04816319
0.04683955 0.02292268 0.0050209686 0.0436702 -0.054179013 0.04430557 0.00012011081 -0.019724838
-0.010869615 -0.048344694 -0.060334682 -0.014078736 -0.030389778 0.0005167946 0.015573397 0.035684437
0.022122785 0.027132742 0.004884526 0.03300014 0.025084056 0.017386228 0.007318057 0.01953327
-0.009164423 -0.012968279 0.005919777 -0.043244906 0.010841854 0.03592194 0.0147295445 0.028113984
0.052735403 -0.040031433 0.031368725 0.03764376 -0.002503939 0.024179429 0.031669125 0.02274748
-0.06147237 0.0261923 -5.541742e-05 -0.054688998 -0.00785289 0.060793936 0.058840513 -0.022158146
-0.028951012 -0.00423944 -0.053348437 -0.017804548 -0.044970527 -0.008331984 0.032842144 0.026485927
-0.04452879 -0.02248878 0.062003374 0.03885501 0.03961929 0.04358875 -0.022630952 -0.024331741
-0.04460928 -0.0064680055 -0.01374843 0.010367423 -0.04375922 -0.004077539 -0.018859535 -0.0044430047
-0.009364717 -0.013985582 -0.03332466 -0.053172283 -0.043028727 -0.004325561 -0.02823995 0.026172511
-0.05767142 -0.028304882 -0.03013216 -0.007856302 0.049411282 0.04841364 0.03429789 -0.037052833
0.014009044 -0.024954408 0.03457029 -0.053520635 0.0014627576 0.0082699135 -0.059220128 -0.05863431
0.054043815 0.020861581 0.037952654 0.04251349 -0.0064282343 -0.061962858 0.048755273 -0.01808253
-0.020964839 0.052055962 0.0097176805 0.046799473 0.030225016 -0.030664489 0.030479655 0.052749805
0.01914405 0.00019405037 0.021595858 -0.059523597 0.018672422 0.05934266 -0.022663988 -0.026084162
0.011391148 0.019807167 0.03740272 -0.04087992 -0.023016095 0.04562003 0.016823135 -0.0047560334
0.017960183 -0.03539472 0.02192045 0.03579337 0.018642746 -0.049394965 -0.0074440017 0.04745478
00000000: 68a7 d63c 0a1f 4f3d ec1d ee3c 44a6 323d
00000010: 488a 933c de57 4a3d 16c3 72bd 20c2 083c
00000020: c099 f6bb 803d 84bb 94fe 50bd b22d 3c3d
00000030: 001a 83ba 00cc 243b b89a 53bc 7c41 f93c
00000040: 34f5 65bd b241 4ebd d08c 60bd 5849 703d
00000050: 14c4 e0bc 7e27 60bd ac0a 6a3d 44a5 23bd
00000060: d067 49bd 10e2 7bbd 38c7 19bc 58f6 1e3d
00000070: 9842 61bc 308d 29bc 809c 11bd 88f4 433d
00000080: 049e 073d 24a5 f2bc 9aa2 653d 20ee 1cbc
00000090: 3868 71bd e010 09bb 7004 163d 3201 6bbd
000000a0: 3cef b43c c020 cebc 041e e53c 64c1 2cbd
000000b0: 704b c73b e4b6 e93c 28a8 2b3d 5ed9 193d
000000c0: ee4f 113d 7846 e0bc 045d 483d 605d f33c
000000d0: 002d 2e3a c845 30bc dcec 5a3d a0d8 653c
000000e0: 50cf dcbc 4057 c2ba ec54 7d3d 4053 7abd
000000f0: 183f 113d 48ca 633d 1835 623c c6c9 373d
00000100: a0cd 6e3d 58b6 b23c f432 843c d82e 1d3d
00000110: 508c 7bbc d04d babc 0098 caba d097 1cbc
00000120: 3454 153d a0ad 193d 348c 6e3d 1861 b6bc
00000130: dce4 b7bc 8ac7 7dbd 00fb debb ecf2 d1bc
00000140: f63f 48bd c2bd 503d 7043 6f3c a07c e23c
00000150: 30e9 41bc 6c54 7cbd a070 aebc bc41 f8bc
00000160: c0d7 11bc 5484 463d f037 b03b 0020 fbbc
00000170: c88d 403c d057 c33b a88e 15bd f2c4 4fbd
00000180: 1e5e 1bbd 1ca9 0d3d 68b6 5c3c d23f 6bbd
00000190: 4e9a 1fbd 9023 43bd 8014 d43a f64b 62bd
000001a0: e414 4dbd 2a42 723d 1061 7c3d a4ae e03c
000001b0: b0aa debc a049 d8bb 5c79 863c c824 e3bc
000001c0: 10a9 d23b aa5a 1abd ac79 963c 60ed d9bb
000001d0: d0cf f9bb 2863 8ebc 5a82 473d c446 453d
000001e0: d4da 3f3d 58c8 bb3c f086 a43b 86df 323d
000001f0: d0ea 5dbd c279 353d 00e4 fb38 fc95 a1bc
00000200: 7816 32bc 1605 46bd 8021 77bd 80aa 66bc
00000210: fcf3 f8bc 8079 073a 9027 7f3c d829 123d
00000220: d83a b53c 7c45 de3c 600e a03b 282b 073d
00000230: 147d cd3c 906d 8e3c 50cc ef3b 3c04 a03c
00000240: 6026 16bc e878 54bc b0fa c13b 9221 31bd
00000250: 08a2 313c e222 133d 3054 713c 4c4f e63c
00000260: 1401 583d 00f8 23bd 7e7c 003d 5830 1a3d
00000270: 2019 24bb f013 c63c 7cb7 013d ec58 ba3c
00000280: 74ca 7bbd 3c91 d63c 0070 68b8 9201 60bd
00000290: 68a9 00bc 1003 793d c002 713d 0085 b5bc
000002a0: ac2a edbc 00eb 8abb e483 5abd d8da 91bc
000002b0: 0433 38bd e082 08bc 7c85 063d 04f9 d83c
000002c0: d263 36bd 643a b8bc 40f7 7d3d 6e26 1f3d
000002d0: d647 223d 1e8a 323d 8c64 b9bc 5c53 c7bc
000002e0: 38b8 36bd 90f1 d3bb 1841 61bc 20dc 293c
000002f0: de3c 33bd e09c 85bb 507f 9abc a096 91bb
00000300: 786e 19bc c823 65bc 707f 08bd 2ecb 59bd
00000310: e43e 30bd 70bd 8dbb 7857 e7bc bc67 d63c
00000320: de38 6cbd a4df e7bc b8d7 f6bc b8b7 00bc
00000330: 7c63 4a3d 624d 463d f27b 0c3d b6c4 17bd
00000340: 3086 653c 306d ccbc 9499 0d3d 7438 5bbd
00000350: 00ba bf3a 887e 073c ce90 72bd 882a 70bd
00000360: 0c5d 5d3d e8e5 aa3c 3e74 1b3d a022 2e3d
00000370: f0a3 d2bb c4cc 7dbd 9cb3 473d d021 94bc
00000380: 74be abbc a238 553d e836 1f3c ceb0 3f3d
00000390: 749a f73c 1834 fbbc 78b0 f93c 2e10 583d
000003a0: fcd3 9c3c 007a 4b39 cce9 b03c 04cf 73bd
000003b0: e8f6 983c 4a11 733d d4a9 b9bc 74ae d5bc
000003c0: f0a1 3a3c a442 a23c 9833 193d b471 27bd
000003d0: 408c bcbc 12dc 3a3d acd0 893c 80d8 9bbb
000003e0: 3c21 933c 0efa 10bd 8492 b33c 129c 123d
000003f0: acb8 983c 6052 4abd d0ec f3bb f25f 423d

bias f4 [256]
-0.05084583 0.007530041 -0.034912072 -0.04106126 0.05546193 0.016980045 0.049584337 -0.025937237
-0.061222486 0.04687193 -0.010827161 -0.05409266 0.036474034 -0.0077116713 0.044965066 -0.006464176
0.025100335 -0.03715942 0.053249277 -0.019633412 0.019808903 -0.050625175 -0.042900927 -0.042089105
0.0560352 -0.054487586 0.02003973 -0.012151271 -0.046581313 -0.0430208 -0.025933564 0.011835463
-0.012273952 -0.05104316 0.0034959763 0.059543133 -0.05239194 0.012171127 0.051753618 -0.059715815
-0.0408092 -0.04317157 -0.021118544 0.035110556 0.0061748177 0.0138974115 0.0036121607 -0.042081453
-0.026407078 -0.019820057 -0.005668767 0.048195705 0.012630895 -0.0006740764 0.019962229 -0.015333869
0.0045679063 0.047815785 0.00071880966 -0.041490704 0.053624757 -0.03210207 -0.05879484 -0.05246616
0.037939474 0.039880335 0.01782582 0.025727056 0.05502627 -0.051739708 0.05781465 -0.059933946
-0.027374439 0.060749255 0.00548701 0.026645988 0.05248598 0.027051933 0.02341061 -0.03011787
-0.022680953 0.016598105 -0.015097432 0.053029016 0.0033782497 0.059330158 0.029665507 -0.012363143
0.03362368 0.021839589 0.03417997 -0.025976188 -0.013620652 0.056466058 0.03178916 0.05713448
-0.035881728 0.005526766 -0.04918831 0.05213193 -0.01814939 0.024639033 -0.011479117 -0.03835067
0.04413517 0.032165214 -0.038890272 -0.015983216 -0.038122542 0.0037977025 0.029909767 0.009413801
0.03710813 0.015953563 0.04978641 0.0042155758 -0.050561428 -0.041301608 -0.003910519 0.0068766773
0.057444714 -0.003564313 0.005836472 0.046970703 -0.053705752 0.029700935 -0.056340627 0.01680392
0.04806739 0.02861727 -0.03575263 0.015205301 -0.0058613345 -0.051414937 0.048968494 -0.007407248
0.060759254 0.05016017 -0.029699177 -0.03436771 -0.039699353 -0.0040314347 -0.03684798 0.043465607
-0.017238177 -0.02052407 0.045341164 -0.013444006 0.011531934 0.006350495 -0.016533792 -0.06075851
-0.031283252 0.05128611 -0.0009959936 0.021443695 0.039298818 -0.05990149 -0.010179773 0.03955123
-0.022526532 -0.022450224 -0.05087228 0.017114177 -0.037554994 0.00843405 -0.041734137 -0.016206495
-0.034966983 -0.0013474971 0.05945795 0.02242431 0.05860477 0.037853926 -0.021894038 0.04990367
-0.015378863 0.0047427565 0.022384286 -0.029949605 -0.0230904 0.03708075 -0.042536773 0.017133728
-0.031129614 -0.06034995 0.047634877 -0.048922323 0.013015009 0.029143356 -0.060838968 -0.014694147
0.05928 -0.04206994 0.0018043816 0.040888302 0.04764703 0.032034047 -0.01438003 -0.0038621053
-0.052836172 -0.05915101 0.0054820254 -0.012951836 -0.017246053 0.0046591014 0.044992648 0.032291666
-0.04737769 0.052392006 -0.03682355 -0.02097366 0.009199306 -0.039719842 0.035962604 0.013777502
0.02227848 0.027924642 -0.035836093 -0.019554876 0.023904763 0.03376194 0.007833704 -0.05131077
-0.0101665035 -0.041146718 0.005323522 0.014168151 -0.043880895 -0.056166336 0.026957862 0.050338246
-0.049920194 -0.029546082 0.032590993 0.043627426 0.02469699 -0.042226806 -0.013797171 -0.03362014
-0.05490806 -0.006116025 -0.04959976 0.017540574 0.045729637 0.025796965 -0.05029378 -0.045473002
-0.058422163 0.047352687 0.021773398 -0.032166615 0.010429703 0.008424915 0.010467142 -0.011444807
00000000: b843 50bd 90be f63b f6ff 0ebd da2f 28bd
00000010: 0c2c 633d bc19 8b3c f218 4b3d 547a d4bc
00000020: 6ec4 7abd c8fc 3f3d 6864 31bc 4490 5dbd
00000030: cc65 153d 30b2 fcbb 4a2d 383d 70d1 d3bb
00000040: 389f cd3c 7a34 18bd ea1b 5a3d 40d6 a0bc
00000050: 4846 a23c 585c 4fbd e2b8 2fbd a065 2cbd
00000060: 2a85 653d 602e 5fbd 5c2a a43c 2016 47bc
00000070: 0ccc 3ebd 9436 30bd a072 d4bc 88e9 413c
00000080: b018 49bc a212 51bd c01c 653b 80e3 733d
00000090: ee98 56bd 6869 473c 9afb 533d 9298 74bd
000000a0: 8c27 27bd acd4 30bd cc00 adbc 16d0 0f3d
000000b0: 2056 ca3b f8b1 633c 00ba 6c3b 9a5d 2cbd
000000c0: a853 d8bc ac5d a2bc 10c1 b9bb dc68 453d
000000d0: d0f1 4e3c 80b4 30ba d487 a33c e83a 7bbc
000000e0: 60ae 953b 7cda 433d 806e 3c3a 28f2 29bd
000000f0: a2a5 5b3d 767d 03bd dcd2 70bd c2e6 56bd
00000100: 6c66 1b3d 9059 233d 7407 923c 8cc1 d23c
00000110: 3a63 613d 04ed 53bd 0ecf 6c3d 4c7d 75bd
00000120: 5c40 e0bc 36d4 783d 60cc b33b b048 da3c
00000130: 8afb 563d 049c dd3c 9cc7 bf3c c0b9 f6bc
00000140: 68cd b9bc c0f8 873c 385b 77bc f434 593d
00000150: a065 5d3b 2e04 733d 1405 f33c c88e 4abc
00000160: fcb8 093d f0e8 b23c 4c00 0c3d 04cc d4bc
00000170: 2829 5fbc f448 673d 5a35 023d d805 6a3d
00000180: b8f8 12bd e019 b53b ae79 49bd 4a88 553d
00000190: 08ae 94bc ccd7 c93c e812 3cbc 9815 1dbd
000001a0: 14c7 343d acbf 033d 684b 1fbd 3cef 82bc
000001b0: 6226 1cbd e0e2 783b 5405 f53c 583c 1a3c
000001c0: b2fe 173d 0cb1 823c d6ec 4b3d d022 8a3b
000001d0: 8019 4fbd e02b 29bd d023 80bb c055 e13b
000001e0: 264b 6b3d 4097 69bb e03f bf3b 5a64 403d
000001f0: 90fa 5bbd 604f f33c 6ec5 66bd 60a8 893c
00000200: 50e2 443d c46e ea3c 5a71 12bd a81f 793c
00000210: 7010 c0bb 7898 52bd 3093 483d 80b8 f2bb
00000220: b2de 783d c074 4d3d b04b f3bc 28c5 0cbd
00000230: ca9b 22bd 201a 84bb e8ed 16bd fe08 323d
00000240: 1437 8dbc 1822 a8bc a8b7 393d 4044 5cbc
00000250: 70f0 3c3c d017 d03b e071 87bc eadd 78bd
00000260: de22 00bd 6211 523d 008c 82ba b0aa af3c
00000270: ccf7 203d 445b 75bd 10c9 26bc 7800 223d
00000280: 9089 b8bc 88e9 b7bc 745f 50bd 0833 8c3c
00000290: 44d3 19bd f82e 0a3c 6af1 2abd 7cc3 84bc
000002a0: 8a39 0fbd 809e b0ba 2e8a 733d 30b3 b73c
000002b0: 8e0b 703d b80c 1b3d 205b b3bc ca67 4c3d
000002c0: a0f7 7bbc 2069 9b3b 405f b73c e058 f5bc
000002d0: 1428 bdbc fce1 173d 0a3b 2ebd 085c 8c3c
000002e0: 8803 ffbc 8231 77bd ca1c 433d c662 48bd
000002f0: e83c 553c 0cbe ee3c 4832 79bd b8bf 70bc
00000300: 96cf 723d 8851 2cbd 0081 ec3a 7e7a 273d
00000310: 8829 433d 2236 033d 389a 6bbc 601b 7dbb
00000320: be6a 58bd 5448 72bd 90a2 b33b f033 54bc
00000330: 9847 8dbc 60ab 983b 364a 383d 4444 043d
00000340: 1c0f 42bd 0099 563d 4ad4 16bd f4d0 abbc
00000350: b0b8 163c 46b1 22bd 864d 133d 08bb 613c
00000360: 5c81 b63c 38c2 e43c dec8 12bd 8c31 a0bc
00000370: ecd3 c33c f649 0a3d f058 003c 3e2b 52bd
00000380: 6891 26bc 7689 28bd f070 ae3b 8821 683c
00000390: 74bc 33bd ac0e 66bd bcd6 dc3c 7a2f 4e3d
000003a0: 1e79 4cbd a00a f2bc 227e 053d acb2 323d
000003b0: 5851 ca3c 04f6 2cbd 880d 62bc 46b5 09bd
000003c0: 46e7 60bd f068 c8bb 1e29 4bbd 40b1 8f3c
000003d0: 004f 3b3d 2854 d33c da00 4ebd e641 3abd
000003e0: 144c 6fbd e4f4 413d 205e b23c 24c1 03bd
000003f0: 58e1 2a3c a808 0a3c 607e 2b3c 0083 3bbc

weight f4 [5, 256]
0.060307056 -0.005225733 -0.031516053 0.016215332 -0.0128557235 0.005136654 -0.033265717 -0.014164247
-0.02689892 -0.02821327 0.011044353 -0.026752718 -0.054086067 0.010686986 0.047860213 0.03400997
0.028460115 -0.00212536 -0.04954558 0.03728176 0.024732426 0.055141196 -0.051279612 -0.016346075
-0.001871571 0.035737917 -0.014693335 0.007987313 -0.0151219815 -0.002714932 -0.0265515 0.010732055
0.03534986 0.044006437 0.051338956 -0.027077138 0.031604998 0.038178742 -0.027075008 -0.012308463
0.038932145 0.00488279 -0.010781363 -0.014029525 0.03647828 0.05304712 -0.04701574 -0.007138811
0.00047738105 -0.030041821 -0.043441616 -0.033575684 -0.037603952 0.04800506 0.012300819 0.045988567
0.048036404 0.04905121 0.038690872 -0.04111027 0.05900518 -0.055126674 -0.028469458 0.0009821132
0.034703 -0.0073921382 0.06158454 -0.05692459 -0.035242684 -0.06088219 0.018275172 -0.017238155
0.054013856 -0.047056913 0.031691425 0.042994954 -0.048839733 0.034789823 -9.5404685e-05 0.008135371
0.0187594 -0.025745958 -0.033125587 -0.032443225 -0.058502108 0.0070240423 -0.0345468 -0.02349317
-0.026972517 -0.010440104 0.048084795 0.017801613 -0.027158216 0.033273093 -0.027268 0.007840708
-0.032081664 0.050611213 0.004178636 -0.048688002 -0.033700302 0.050331205 -0.04860989 -0.007654667
0.033605784 -0.05277974 -0.04948885 -0.043292083 0.037373886 -0.03746564 0.05281067 -0.0313515
0.009797215 0.05716894 0.055873536 0.025658965 0.0535435 0.008148 -0.002794318 0.02569674
0.05068461 -0.04768216 0.0066871867 0.0014922321 0.044508375 -0.03350815 0.053668194 0.033092275
-0.026309006 0.05414238 -0.035771824 -0.012920268 0.04505311 0.04105667 0.0139174685 0.059269883
-0.033902593 0.013853312 0.007696688 0.03241594 -0.009500563 0.0238268 0.03848625 -0.023902684
-0.021049038 -0.013587914 -0.057336465 0.01833994 -0.017126203 -0.053058058 -0.017051645 0.057228997
-0.060998917 -0.053075798 0.055501893 -0.020736434 0.021383114 -0.015879333 -0.060756594 -0.041148864
0.041038148 0.057983905 0.051408663 0.0040875077 -0.058354393 0.048445113 -0.03286519 -0.016031295
-0.05757425 -0.011319123 0.019511558 -0.007358916 0.0405251 0.055102475 0.03992098 0.020704977
-0.013527788 -0.027563192 -0.058440216 -0.061503887 -0.019438624 -0.04565583 -0.054003768 -0.04490997
0.008344255 0.017863609 -0.03781657 -0.047220215 0.04857251 -0.02752351 -0.018386476 -0.00012996793
-0.0572348 0.0522772 -0.02632413 0.024366438 0.025922872 0.031747654 -0.027995512 0.018962465
-0.034832485 -0.036517367 -0.060630977 0.027122892 0.03533151 -0.04999829 -0.0042253733 0.039617643
-0.00157056 -0.035945103 -0.056120887 -0.009312063 -0.03060294 0.029329695 0.06240876 -0.054360278
-0.033533506 -0.01734811 -0.035114802 0.007828452 0.010909386 -0.03399998 0.06053202 0.026727445
0.0040825084 -0.015913345 -0.038507156 -0.006741628 0.00232175 0.05369179 -0.016680814 -0.026317798
0.033460446 -0.003096059 -0.020932697 0.053642944 0.008987263 0.021999568 0.042464353 0.042096935
-0.032597154 -0.04344807 -0.035701342 0.0078083575 0.025885627 -0.035704672 0.044629976 -0.010842741
-0.0045694187 -0.014924258 -0.005234532 -0.056501366 0.015544891 -0.032119222 0.039043024 0.047702223
00000000: 8804 773d a03c abbb fa16 01bd 04d6 843c
00000010: d0a0 52bc 6051 a83b a241 08bd 2811 68bc
00000020: 205b dcbc 841f e7bc 60f3 343c 8428 dbbc
00000030: 5a89 5dbd 7818 2f3c 1209 443d 0a4e 0b3d
00000040: 3025 e93c a049 0bbb 4ef0 4abd c2b4 183d
00000050: a89b ca3c bcdb 613d 920a 52bd 34e8 85bc
00000060: 804f f5ba ec61 123d 50bc 70bc 38dd 023c
00000070: 30c2 77bc 00ed 31bb 8882 d9bc 80d5 2f3c
00000080: 04cb 103d 1840 343d cc48 523d e0d0 ddbc
00000090: 3e74 013d 5061 1c3d 68cc ddbc 70a9 49bc
000000a0: 5077 1f3d d0ff 9f3b 50a4 30bc 18dc 65bc
000000b0: 406a 153d f047 593d 9493 40bd b0ec e9bb
000000c0: 0049 fa39 441a f6bc d6ef 31bd a886 09bd
000000d0: 9a06 1abd f4a0 443d 6089 493c 825e 3c3d
000000e0: d2c1 443d ece9 483d 527a 1e3d 3e63 28bd
000000f0: 6aaf 713d 82cc 61bd c838 e9bc 40ba 803a
00000100: bc24 0e3d c039 f2bb 1240 7c3d c229 69bd
00000110: a25a 10bd 9a5f 79bd d0b5 953c 0837 8dbc
00000120: a23d 5d3d c0be 40bd dece 013d 7a1b 303d
00000130: 2c0c 48bd c67f 0e3d 0014 c8b8 384a 053c
00000140: 50ad 993c 30e9 d2bc b2ae 07bd 30e3 04bd
00000150: e89f 6fbd f029 e63b f280 0dbd c074 c0bc
00000160: 78f5 dcbc f80c 2bbc 90f4 443d b0d4 913c
00000170: e87a debc 5e49 083d 2461 dfbc 5076 003c
00000180: 1068 03bd b44d 4f3d f0ec 883b 126d 47bd
00000190: 5409 0abd 1828 4e3d 2a1b 47bd 00d4 fabb
000001a0: 38a6 093d 922f 58bd d2b4 4abd 0a53 31bd
000001b0: 5c15 193d 9275 19bd 0050 583d 6e6a 00bd
000001c0: 8084 203c fa29 6a3d a6db 643d c032 d23c
000001d0: 6e50 5b3d 307f 053c e020 37bb f881 d23c
000001e0: aa9a 4f3d 5e4e 43bd 3020 db3b 0097 c33a
000001f0: 6a4e 363d d83f 09bd 2ed3 5b3d c48b 073d
00000200: fc85 d7bc 66c4 5d3d 7a85 12bd 88af 53bc
00000210: 9c89 383d 0a2b 283d 1806 643c fac4 723d
00000220: 72dd 0abd 00f9 623c 8034 fc3b 94c6 043d
00000230: 40a8 1bbc 6c30 c33c c2a3 1d3d 90cf c3bc
00000240: 086f acbc d89f 5ebc a4d9 6abd a43d 963c
00000250: 404c 8cbc 6853 59bd e4af 8bbc f468 6a3d
00000260: 00da 79bd 0266 59bd f455 633d 74df a9bc
00000270: a42b af3c 6015 82bc e8db 78bd b68b 28bd
00000280: 9e17 283d 8880 6d3d e491 523d 80f0 853b
00000290: 0405 6fbd 626e 463d a69d 06bd 1054 83bc
000002a0: fad2 6bbd d873 39bc b4d6 9f3c 1023 f1bb
000002b0: a6fd 253d 22b3 613d 2e84 233d 7c9d a93c
000002c0: a8a3 5dbc 34cc e1bc 025f 6fbd 80eb 7bbd
000002d0: c03d 9fbc 9c01 3bbd 0e33 5dbd 84f3 37bd
000002e0: 58b6 083c b456 923c 8ce5 1abd fc69 41bd
000002f0: f8f3 463d fc78 e1bc 3c9f 96bc 0048 08b9
00000300: 0a6f 6abd 9e20 563d b4a5 d7bc 209c c73c
00000310: 345c d43c d409 023d d856 e5bc 2c57 9b3c
00000320: 82ac 0ebd 3c93 15bd 3058 78bd d430 de3c
00000330: c6b7 103d 02cb 4cbd 0075 8abb 1c46 223d
00000340: 40db cdba 2c3b 13bd 04df 65bd a091 18bc
00000350: 04b3 fabc d444 f03c 54a0 7f3d e2a8 5ebd
00000360: 6e5a 09bd a01d 8ebc 8ad4 0fbd e842 003c
00000370: 48bd 323c 9043 0bbd 6cf0 773d 84f3 da3c
00000380: 90c6 853b b45c 82bc aeb9 1dbd e0e8 dcbb
00000390: 8028 183b eceb 5b3d 34a6 88bc 6c98 d7bc
000003a0: d20d 093d 40e7 4abb 0c7b abbc b4b8 5b3d
000003b0: 503f 133c 7038 b43c 1aef 2d3d d66d 2c3d
000003c0: 9884 05bd 9af6 31bd 923b 12bd 40dd ff3b
000003d0: 180e d43c 103f 12bd eccd 363d c0a5 31bc
000003e0: 10bb 95bb e084 74bc 7086 abbb fa6d 67bd
000003f0: 00b0 7e3c 728f 03bd 94eb 1f3d 6863 433d

bias f4 [5]
-0.02221246 0.034915857 0.05656188 0.009311847 -0.030515544
00000000: e8f6 b5bc ee03 0f3d 6ead 673d b890 183c
00000010: bcfb f9bc
