baseline_models/random-agent-2.pt (torch_old, 595830 bytes, 6 tensors)

weight f4 [256, 294]
000000 54 48 6b 3d 54 94 5c bc 8f 2c 1e bd 38 19 52 3d
       0.057442024 -0.013463099 -0.038616713 0.05129358
000010 94 d9 b7 3c fa d4 07 3d c0 72 6e ba 72 62 bd bc
       0.022442617 0.033162095 -0.00090960786 -0.023118231
000020 18 47 7a bc 99 98 1b bd 40 dc ce 3b 40 8e 50 3d
       -0.015275739 -0.037987325 0.006312877 0.05091691
000030 ee 07 0c 3d 4e c9 a9 bc 00 bf 5c 3c 90 20 05 bb
       0.03418725 -0.020725872 0.013473272 -0.0020313598
000040 c2 9d 3e 3d f4 8c f2 3c 26 f5 17 bd 06 1b 4a 3d
       0.04653717 0.029608227 -0.037099026 0.049342178
000050 ee ed a7 bc c4 e0 0d bc f3 15 e7 bc 90 f6 0f 3b
       -0.020499196 -0.008659545 -0.028208708 0.002196703
000060 08 74 46 bd 70 30 d2 3c 80 d1 8e b9 f4 6f 44 3d
       -0.0484505 0.025657862 -0.0002724044 0.04795833
000070 46 6e 6b bd 5c 30 ed 3c 20 7d 36 3d d8 bd 0d bd
       -0.05747821 0.028953724 0.044552922 -0.034604877
000080 44 e8 bc bc 8d 8b f5 bc 3e 0c 43 bd 5c 6b 5e 3d
       -0.023059972 -0.02997377 -0.047619097 0.054301605
000090 6a 57 54 bd b4 ef e0 3c 14 d1 4a 3d b6 99 39 3d
       -0.051841177 0.02745805 0.0495158 0.045312606
0000a0 e2 ea 0f bd fa 86 47 bd 86 1e 2e bd f6 cc 56 3d
       -0.03513611 -0.048712708 -0.04250958 0.05244156
0000b0 1e 34 5a bd b8 8d 3c 3c 1a 03 24 3d 98 fb 02 3c
       -0.05327236 0.011508398 0.04004202 0.007994555
0000c0 42 8c 68 3d 78 30 24 3c 22 d6 48 bd 2c 6a 8d 3c
       0.056774385 0.0100213215 -0.049032338 0.01726254
0000d0 70 f6 bb 3c 70 a1 25 3d 90 96 4f 3c 70 31 06 bd
       0.022944659 0.040437162 0.012670174 -0.03276199
0000e0 70 87 ad 3c 00 7c 21 bd 6c d9 d2 3c 00 69 65 3d
       0.021182746 -0.039424896 0.02573844 0.05600834
0000f0 00 b2 c3 38 44 58 ab 3c b4 4c a1 3c d6 61 15 3d
       9.33148e-05 0.020916112 0.019689895 0.036470257
000100 e0 84 3c bc d6 4d c3 bc c8 ca 46 bd 40 8f 05 3b
       -0.011506289 -0.023840826 -0.04853323 0.0020379573
000110 ae c7 49 bd f9 d6 6c bd f0 b0 b8 bb a0 c6 a5 3b
       -0.049262695 -0.0578222 -0.005636327 0.0050590783
000120 02 6e 10 3d d2 bd 2e bd ec 50 26 bd 4c 2a 45 bc
       0.03526116 -0.042661496 -0.040604517 -0.01203401
000130 a8 55 a5 bc 18 15 69 3d 9e 00 56 bd 58 55 9c 3c
       -0.020182446 0.056904882 -0.052246682 0.019083664
000140 7c ba 33 bc 5d 84 0f bd 90 96 c4 bb fd e7 63 bd
       -0.010969754 -0.03503834 -0.0059993938 -0.055641163
000150 66 e4 47 bd 20 86 2d bd 50 06 8c 3b f0 ce c7 bb
       -0.048801802 -0.04236424 0.0042732134 -0.006097667
000160 01 a9 29 bd b0 ff 62 3b 1f 44 6a bd d0 c2 87 3c
       -0.04142094 0.0034637265 -0.05719387 0.016572386
000170 06 fe 28 bd 38 31 93 3c 20 07 5f 3c 4e 1c a3 bc
       -0.04125788 0.017967805 0.013612539 -0.019910958
000180 50 c3 f8 3b f2 11 22 bd 4c 7b 8e bc ca fe 3c bd
       0.0075916424 -0.039567895 -0.017392777 -0.046141423
000190 f6 07 00 bd 90 b4 14 3d 70 ee c1 bc 20 70 b5 ba
       -0.031257592 0.03630501 -0.023673266 -0.001384262
0001a0 38 59 35 bd 8e 69 52 3d cc 26 c3 3c c0 d9 a8 3b
       -0.04427454 0.051370196 0.02382221 0.005152911
0001b0 80 cd 98 3c 70 06 98 bb f6 58 03 bd 8c d0 40 bc
       0.018652678 -0.0046394393 -0.03206726 -0.011768471
0001c0 6d fd 67 bd 20 0d 94 3a dc 65 04 3d ee b5 0b 3d
       -0.05663817 0.0011295415 0.032323703 0.03410905
0001d0 e2 d7 3f 3d ee 79 1e bd 20 bd 75 3c 09 99 35 bd
       0.04683674 -0.0386905 0.014998704 -0.0443354
0001e0 84 57 14 3d 58 ef eb 3c a0 59 4c 3d e0 85 09 3c
       0.036216274 0.028800651 0.04989016 0.008393735
0001f0 f4 1f 9c 3c 00 16 47 bd 84 2b ba bc 38 67 34 3d
       0.019058205 -0.048604965 -0.022725828 0.04404375
000200 80 04 93 b9 82 d2 28 3d 16 a9 25 bd b4 5e 09 bd
       -0.00028041378 0.04121638 -0.040444456 -0.03353758
000210 84 73 3a bd 36 6c 12 3d 4b 69 eb bc 50 d6 3b bd
       -0.04552032 0.03574773 -0.028736731 -0.04585868
000220 aa e2 62 3d 18 eb 73 3c f0 52 2e 3c 63 59 4b bd
       0.055391945 0.014887594 0.010639891 -0.049645793
000230 18 94 bf bb 94 ae 8a 3c 80 42 ff 3c 78 d8 1e 3c
       -0.0058465116 0.016928948 0.03115964 0.009695165
000240 b0 cf 8d 3b 70 05 a4 3b 84 44 b1 3c 80 09 0c 3d
       0.004327737 0.005005531 0.021639116 0.034188747
000250 c0 76 47 bd 74 e1 64 3d 54 5d 64 bc e0 f0 dd 3b
       -0.048697233 0.05587907 -0.013938267 0.0067730993
000260 28 b5 b1 3c e8 49 79 bc d8 30 bc bc 78 25 00 bd
       0.021692827 -0.0152153745 -0.02297251 -0.031285733
000270 b0 13 c8 3b ca c9 25 3d 96 0f 50 bd be 48 0b 3d
       0.0061058626 0.040475644 -0.050796114 0.03400492
000280 34 7f 99 3c 6a 4d eb bc e0 98 7e bc 28 6c ac bb
       0.018737413 -0.028723437 -0.015539378 -0.0052619167
000290 f8 50 ec 3c 40 73 59 ba e2 2a 09 3d ba f2 3f bd
       0.028847203 -0.00082950667 0.03348816 -0.04686234
0002a0 80 d7 06 bb 20 0c a1 ba b0 17 83 3b 45 29 1b bd
       -0.0020575225 -0.0012286939 0.0040006265 -0.037881155
0002b0 60 94 f7 bc c2 cd 38 3d 3e b5 2e 3d 3b cc f9 bc
       -0.030222118 0.0451181 0.042653315 -0.030492892
0002c0 80 46 5d 3d bc d3 9e bc f0 3e 32 bc a6 fa 6c 3d
       0.054022312 -0.019388072 -0.010879263 0.057856224
0002d0 e0 d3 ed 3a 4a ab 24 bd 7c b1 3d bd e4 0c 74 bc
       0.0018144809 -0.040202416 -0.04631184 -0.0148956515
0002e0 e8 42 fe bc 62 11 33 bd 3e fb 22 3d 30 4f 24 3c
       -0.031037763 -0.04371775 0.039790384 0.010028645
0002f0 c0 5e 55 3a a8 1b 60 bd a0 77 31 3d 5a 4b ac bc
       0.0008139424 -0.054713875 0.043326974 -0.021032024
000300 4e df f9 bc 1c 3e 42 bd 1c e7 18 bd 48 55 36 3c
       -0.030501988 -0.047422513 -0.037329778 0.011128731
000310 a6 94 40 3d 6b 76 3a bd 56 77 56 bd 90 42 da bb
       0.047016762 -0.04552309 -0.0523599 -0.006660767
000320 fe ec 51 3d 8c a6 98 bc 9a 8a 30 3d 04 09 17 bd
       0.051251404 -0.018634103 0.04310093 -0.036873832
000330 ba 35 67 3d 20 e4 0a bd e0 ab fd bb 04 01 bb 3c
       0.056447722 -0.033908963 -0.0077414364 0.022827633
000340 0e 64 24 3d 84 60 f7 3c 64 18 44 bd 1f ca 6d bd
       0.040134482 0.03019739 -0.047874823 -0.058054086
000350 ea de 07 bd b0 65 b6 bb 5d 60 37 bd 68 bb 1d 3c
       -0.03317157 -0.0055663213 -0.044769634 0.009627201
000360 a4 c4 6c bd d4 d5 14 bd 02 93 44 3d 20 50 e8 3b
       -0.05780472 -0.036336735 0.04799176 0.00708963
000370 6e c1 05 3d 94 a5 1a 3d 90 b4 f8 3c 54 a9 42 3d
       0.032655172 0.037755564 0.030359536 0.047524765
000380 da 0d af bc 6c 09 4a 3d 6b ab fe bc c0 9f b5 3a
       -0.02136891 0.04932539 -0.031087598 0.0013856813
000390 fc 14 01 bc 6a 58 1b bd f0 c3 12 bb 1a 64 21 3d
       -0.007878538 -0.037926115 -0.002239462 0.039402105
0003a0 6e 15 37 3d 3d 7c 2d bd 20 8a 4b 3d 52 aa 57 3d
       0.04469817 -0.04235481 0.049692273 0.052652664
0003b0 70 49 34 3d 80 47 07 3a d8 f3 60 3d de 8c b3 bc
       0.044015348 0.00051604956 0.054920048 -0.021917757
0003c0 66 4f 85 bc d8 cc 9d 3c 30 55 65 bd 80 df fc b9
       -0.016273212 0.019262716 -0.055989444 -0.00048231706
0003d0 d8 51 90 3c 5b fb 08 bd dc be e8 3c 40 b3 e9 3b
       0.017617151 -0.033442836 0.028411321 0.007131964
0003e0 a0 2a c2 3b 40 fa 44 3a 0c d6 47 bd e4 f9 ca bc
       0.0059254915 0.0007514097 -0.048788115 -0.02477736
0003f0 98 91 49 3d 96 e3 35 3d f8 4e 95 3c 80 2e 1e ba
       0.049211115 0.044406496 0.018226132 -0.0006034151

bias f4 [256]
000000 96 8e 0b 3d 8c 99 c0 3c d8 3b 18 3c 08 91 3a bc
       0.034071527 0.023510717 0.009291612 -0.011387117
000010 40 ae 80 3b 24 10 e1 3c b5 c2 1e bd a4 0a 06 3d
       0.003927022 0.027473517 -0.038759906 0.03272499
000020 00 d6 a0 39 44 ad 3b 3d 34 7d 3f 3d fe 24 16 3d
       0.0003067702 0.045819536 0.046750262 0.036656372
000030 40 a2 4f 3b e0 b0 ed ba df 19 55 bd e0 67 39 bb
       0.0031682402 -0.0018134378 -0.052026626 -0.0028290674
000040 30 35 4c bc 02 44 33 bd 59 7a 0f bd 30 43 9f 3b
       -0.012463853 -0.04376603 -0.03502879 0.0048603043
000050 24 2a 73 bc 50 25 b6 bb 48 94 8d bb fc de 11 bd
       -0.01484159 -0.005558647 -0.004320655 -0.035613045
000060 a8 f8 0c 3d e6 0c db bc e0 34 f5 3b 20 bb 89 bb
       0.034416825 -0.026739549 0.00748311 -0.0042032152
000070 d4 5d 1d bd 74 bd 50 3d 70 d8 e0 bb 4c 06 45 bd
       -0.03841956 0.050961927 -0.006861739 -0.04810171
000080 00 99 11 3d fe 7a 36 3d d0 1b 37 3c 9f 16 35 bd
       0.035546303 0.04455089 0.011176065 -0.044211026
000090 e6 b2 43 3d 30 70 10 bd 00 7a 3f 3d ea d3 0b 3d
       0.047778033 -0.03526324 0.046747208 0.034137644
0000a0 4c aa d8 3c 22 35 48 bd b0 84 03 3c 4f 3a 62 bd
       0.026448391 -0.048878796 0.008027241 -0.05523139
0000b0 7f 0a 66 bd d0 57 3d 3b 56 b3 5c 3d 34 8a 23 bd
       -0.056162354 0.0028891452 0.053881966 -0.039926723
0000c0 2c b8 2a bc c0 3b 38 ba 4a 43 ad bc c0 fa 50 3a
       -0.010419887 -0.00070279464 -0.02115025 0.0007971935
0000d0 b5 8d 0c bd d8 ca 8a bc a0 ad 15 3c 97 05 fa bc
       -0.03431483 -0.016942427 0.009135634 -0.030520244
0000e0 f0 11 c5 3b 58 24 cb 3c 26 82 6e 3d 0e 61 cb bc
       0.006014101 0.024797603 0.058229588 -0.024826553
0000f0 f0 1d 34 3c 10 51 41 bd c0 11 b3 bc 24 cf 5e bd
       0.010993466 -0.047196448 -0.02185905 -0.054396763
000100 78 fa c0 3c b8 36 f0 bc 82 42 18 3d 2c a1 cf 3c
       0.023556933 -0.029322967 0.0371728 0.025345407
000110 e0 d9 5e 3c 48 58 1e 3c 24 f1 24 3d 10 ab 50 bb
       0.01360175 0.009664603 0.040269032 -0.0031840242
000120 80 97 1b 3a de ec 30 3d f0 e9 40 bd 70 31 52 bd
       0.0005935356 0.043194644 -0.0470981 -0.05131668
000130 40 ac fe bb 30 e6 ab 3b 28 2f 84 3c 90 b2 aa bb
       -0.0077719986 0.0052459463 0.016135767 -0.0052092746
000140 37 c0 16 bd 52 9a 54 3d 27 af f0 bc 40 55 2b 3b
       -0.036804404 0.051904984 -0.029380394 0.0026143342
000150 ea df 05 bd c2 73 02 bd dc f1 a0 bc c8 14 1f 3d
       -0.032684244 -0.031848677 -0.019646578 0.038838178
000160 68 48 6e 3c 61 64 60 bd dc 7e 64 bd 38 d7 c5 bb
       0.01454363 -0.05478323 -0.055785045 -0.006037619
000170 98 3e 00 bc 4e 5c 34 3d 62 34 9a bc 26 e9 54 bd
       -0.0078274235 0.04403334 -0.018823806 -0.05198016
000180 50 c4 7e bc 21 c4 30 bd 90 40 28 bd cc 49 ff 3c
       -0.015549734 -0.043155793 -0.041077197 0.031163119
000190 40 c3 26 3c 36 77 33 3d fe c0 0a bd 21 75 1a bd
       0.010178387 0.04381486 -0.033875458 -0.03770936
0001a0 20 40 ec 3c b8 91 cf bb 44 a4 87 3c e0 f2 d5 3a
       0.028839171 -0.0063345097 0.01655782 0.0016322993
0001b0 e3 1d 0f bd a8 ee e7 3c e4 5a 83 3c 13 0a ef bc
       -0.03494061 0.028312042 0.016034551 -0.029179608
0001c0 1f 9f 08 bd 15 7a 58 bd b9 4e 06 bd 18 9a 86 3c
       -0.033354875 -0.0528508 -0.03278992 0.0164309
0001d0 81 10 11 bd 98 89 16 3d 8e a8 17 3d c0 29 1b ba
       -0.03541613 0.036752313 0.03702598 -0.0005919002
0001e0 e2 6a 1d 3d 10 4d 46 bc fc 65 3f 3d 4c 83 cd 3c
       0.03843201 -0.012103334 0.04672812 0.025087021
0001f0 68 94 0c 3c e1 4c 2a bd ec cf 14 bd 84 f8 48 3d
       0.008580305 -0.041577224 -0.036331102 0.049065128
000200 00 08 31 bc c8 4b 13 3c 68 99 11 3c a0 fb b2 3c
       -0.01080513 0.008990236 0.008886673 0.0218485
000210 2e f6 24 3d 60 87 e0 bb 18 a1 4e 3d a6 13 2d bd
       0.040273838 -0.0068520755 0.0504466 -0.042255066
000220 34 24 28 3d a4 11 1b bd b8 9c f3 bb 80 64 80 3c
       0.04105015 -0.03785862 -0.007434454 0.015672922
000230 a0 82 8f ba 9d 71 0e bd fc 6b 3c 3d e0 18 f2 3b
       -0.0010948963 -0.03477632 0.04600142 0.0073882192
000240 e8 d9 66 3c 4a 56 19 bd c0 66 80 bc e3 15 14 bd
       0.014090039 -0.037435807 -0.015673995 -0.036153685
000250 c4 c7 00 3d 74 ec d4 bc 8e 5e 31 3d d4 d9 64 3d
       0.03144051 -0.025991656 0.043303065 0.0558718
000260 48 59 af bb a0 47 1a bc 58 88 e9 3c b0 b4 02 3d
       -0.0053512193 -0.009416491 0.028507397 0.0319106
000270 7c 0b 3b bd 50 20 13 3c b6 96 43 3d 9a ab 46 bd
       -0.04566525 0.008979872 0.04775115 -0.048503496
000280 00 6e dc 3b 8e d6 93 bc 40 49 c1 bc ec ac 6a bd
       0.00672698 -0.018046644 -0.023594499 -0.057293817
000290 62 65 c3 bc 9c 4c 1c 3d 84 37 dd 3c f8 f5 68 3c
       -0.023852054 0.038158998 0.027004011 0.0142188
0002a0 f0 8e 44 bc c8 3f e2 3c 4c 2e 5f bc b4 33 0a 3d
       -0.01199697 0.027618304 -0.013621878 0.033740714
0002b0 e4 76 03 bd 3c e7 24 3d bc b0 e1 3c 22 21 4e bd
       -0.032095805 0.040259585 0.027550094 -0.050324567
0002c0 70 a5 5d bc 30 c8 a6 3c d0 6a 11 3c 00 e2 81 b8
       -0.013528213 0.020359129 0.008875564 -6.193295e-05
0002d0 64 a0 d7 3c 00 bc 35 b9 1e ba 67 bd 80 f6 0a bb
       0.026321597 -0.0001733154 -0.05657398 -0.0021204054
0002e0 8c db 29 3d 44 a9 f2 3c 50 e7 67 bd 1d f3 4a bd
       0.04146914 0.029621728 -0.05661708 -0.049548257
0002f0 04 54 b1 3c 88 28 4d 3c 59 75 f9 bc 6a 54 5a 3d
       0.021646507 0.01252187 -0.030451464 0.05330316
000300 e8 ad 3f bd 41 34 6e bd d0 b7 74 3c 58 04 06 3c
       -0.04679671 -0.058155302 0.014936402 0.008179747
000310 fc ec 92 3c dc 1e e9 bc fc 25 6e 3d 1f 6f 3a bd
       0.017935269 -0.028457098 0.058141693 -0.04551613
000320 b2 d7 dc bc 7e 36 3d bd da 3a 2d 3d 00 63 cb 3b
       -0.02695832 -0.046194546 0.042292453 0.00620687
000330 be 75 f9 bc 78 33 18 3d 6a cb 8d bc ca bb 6d 3d
       -0.030451652 0.03715846 -0.01730891 0.058040418
000340 f4 ad 5a bc e2 39 2c 3d bb 2a 4c bd d0 b3 eb bb
       -0.013347138 0.04204739 -0.04984544 -0.007193066
000350 71 3b e0 bc 12 7d 3e 3d c0 d1 6d ba 40 db b6 bc
       -0.027372094 0.046505995 -0.00090720877 -0.022321343
000360 46 2b 27 3d 0c 55 a4 3c 30 83 68 bb b8 d5 b9 3c
       0.040812753 0.020060085 -0.0035478584 0.022684917
000370 96 76 8c bc 35 c6 e4 bc fc 14 66 3d f8 0b 96 bc
       -0.01714639 -0.027926544 0.056172356 -0.018316254
000380 00 e0 42 bd c4 e6 dc 3c ea 38 40 bd d0 db b8 3b
       -0.047576904 0.026965506 -0.046929277 0.005641438
000390 30 00 19 3b 1e 51 59 bd 3c ee a8 bc 4c 7a 16 bd
       0.002334606 -0.053055875 -0.020621412 -0.036737725
0003a0 60 f1 e8 ba 30 ea 4c 3b 30 7a 54 bd d2 f9 1d 3d
       -0.0017772131 0.0031267516 -0.05187434 0.038568325
0003b0 43 cb 45 bd 28 f5 bd 3c 4d 1b 67 bd 92 e4 0d 3d
       -0.04828955 0.023188189 -0.05642252 0.03464181
0003c0 46 b5 5f 3d 8c 7a 55 3d e0 4e 28 3d 28 d0 3d bd
       0.054616235 0.052118823 0.041090846 -0.04634109
0003d0 cc 3b 66 3d e8 4b 1b bd da 67 1b 3d 90 7e 2d bd
       0.05620937 -0.037914187 0.037940837 -0.042357028
0003e0 40 e5 02 3c 90 c9 05 3c 96 e6 9b bc 14 0f 36 bd
       0.007989228 0.008165732 -0.01903085 -0.044447973
0003f0 20 be 45 bc a4 c0 23 3d ca c4 29 bd 9a 02 68 3d
       -0.012069255 0.03997864 -0.04144744 0.056643106

weight f4 [256, 256]
000000 bc f1 0e 3d 94 22 b5 bc 20 73 3f 3c 00 1b 97 3a
       0.034898505 -0.022111215 0.011685163 0.0011528432
000010 ca ff 26 bd 40 33 b9 3b 4c b9 c8 3c 8c ab 7a 3d
       -0.040771283 0.0056518614 0.024502419 0.061198756
000020 e0 64 5a bd 8c c8 19 bd c4 de ec bc 00 a9 14 3b
       -0.05331886 -0.037544772 -0.028914817 0.002268374
000030 06 a9 61 3d 38 c0 93 bc d0 93 6b 3d 62 d5 40 bd
       0.055092834 -0.018035993 0.05751401 -0.047078498
000040 c6 dc 40 3d 04 d2 d5 3c b6 d3 1f bd 0a 0d 55 3d
       0.047085546 0.02610112 -0.039020263 0.05201439
000050 34 1e b5 bc 64 89 cb 3c 40 29 69 bb 98 2f 53 3d
       -0.022109129 0.024845786 -0.0035577565 0.05155906
000060 72 1e 15 bd 60 67 a6 bb bc d1 79 bd e8 21 33 bd
       -0.036405988 -0.005078241 -0.060991034 -0.043733507
000070 f4 25 7b bd 14 7c 32 bd 00 b1 14 3a d4 1b fe 3c
       -0.06131549 -0.04357536 0.0005672127 0.031019129
000080 a6 f8 46 3d ec 46 93 3c 74 f5 11 bd e0 e3 c4 3c
       0.048576973 0.017978154 -0.035634473 0.02403444
000090 be cd 77 3d 40 22 c9 3a 4c a7 9d 3c 90 ad 85 bb
       0.060498945 0.001534529 0.019244812 -0.004079528
0000a0 c4 8d af 3c 46 99 25 bd 7e 5f 3e 3d 9c cf 20 3d
       0.021429904 -0.040429376 0.046477787 0.03926049
0000b0 9a 51 59 3d 28 75 3f 3d da 8d 5a bd 02 bf 13 3d
       0.053056337 0.04674259 -0.053357936 0.03607083
0000c0 a0 85 4c bd 68 03 25 bd d0 7c f1 3b c4 ff a6 bc
       -0.049932122 -0.04028645 0.007369615 -0.02038563
0000d0 1a 26 58 bd 9a d0 7c 3d 1e ba 56 3d 6c d3 dc bc
       -0.05277071 0.061722375 0.05242359 -0.026956283
0000e0 10 88 c2 3b c2 b5 4c bd 68 57 f4 bc 0c 65 d8 3c
       0.00593663 -0.049978025 -0.029826835 0.02641537
0000f0 0a f9 20 bd e0 fa 20 bc 00 ae a8 39 ec 2f c5 3c
       -0.039300002 -0.009825438 0.00032173097 0.024070702
000100 7a a0 24 3d 20 43 66 3c da 01 75 3d b8 a0 25 3c
       0.040192105 0.01405409 0.05981622 0.010109119
000110 74 de fd 3c 6a 78 1c 3d 60 3a 5b bc 58 f6 67 3d
       0.030989863 0.038200773 -0.013380617 0.056631416
000120 24 5e 09 bd f0 62 9a bc 58 1c 4c bc 52 6c 08 3d
       -0.033537045 -0.018846005 -0.01245793 0.033306427
000130 7c 12 42 bd 50 97 35 3c ec 9c f5 bc 08 86 b7 bc
       -0.04738091 0.011083439 -0.029982053 -0.022402778
000140 68 12 6c 3d 5a ea 42 bd a0 92 17 bc 96 cb 2b bd
       0.05763474 -0.047586776 -0.009251267 -0.0419422
000150 a0 5a e4 bb 92 c7 68 3d 5c 8f 62 bd 30 fd 7c 3c
       -0.006968811 0.05683095 -0.0553125 0.015441224
000160 d0 08 d0 bc 68 24 a8 bc 90 7e ff bb c0 89 2f 3c
       -0.025394827 -0.020525172 -0.00779707 0.0107139945
000170 e8 9b a3 bc 30 89 d0 bb 88 fc 7a 3d 30 29 ac 3b
       -0.019971803 -0.0063640103 0.06127599 0.0052539334
000180 40 4f f1 bc 80 6d c6 3b b0 cc 1f 3c 9c f8 a3 3c
       -0.029456735 0.006055534 0.009753391 0.020016007
000190 3a 73 47 3d 98 2a 20 3d 50 8c 5f 3d 4e 91 57 3d
       0.048693873 0.03910312 0.05457717 0.052628808
0001a0 66 64 37 3d b8 ab d1 3c ac ed 10 3d 76 7d 31 bd
       0.04477348 0.025594577 0.03538291 -0.04333254
0001b0 00 93 5d 3c 5a 07 16 bd d0 dc f3 bc f2 23 33 3d
       0.013523817 -0.036628105 -0.029768378 0.043735452
0001c0 c4 65 08 bd 32 7c 6b bd e2 09 08 bd d4 f8 d5 bc
       -0.033300176 -0.05749149 -0.03321255 -0.026119627
0001d0 4e a0 42 bd 64 d7 f0 3c 40 44 3d 3b 8c 33 88 3c
       -0.04751616 0.029399581 0.0028879791 0.016626142
0001e0 a0 62 b4 bb b0 8f 40 bd e0 59 f0 bc 68 a7 47 3c
       -0.005504921 -0.04701203 -0.02933973 0.012185909
0001f0 f8 d4 de bc 16 19 33 bd c0 7a 8e 3b 4c 67 33 3d
       -0.02720116 -0.043725096 0.004348129 0.043799683
000200 2a 21 41 3d 3e 2c 21 bd 7e b6 54 3d 34 ff 00 3d
       0.04715077 -0.039348833 0.05193185 0.03149338
000210 00 ec c0 38 f0 6f 19 3c 7a 1c 74 bd 86 20 72 3d
       9.199232e-05 0.009365067 -0.05959747 0.059113048
000220 bc 56 50 3d 28 da 38 3c 82 4b 3f 3d fc 7c 13 bd
       0.050863966 0.011282481 0.04670287 -0.036007866
000230 28 62 3b 3c a0 be 2a 3c ce 19 51 bd f4 b6 0e bd
       0.0114369765 0.010421425 -0.05105 -0.034842446
000240 a0 ce 44 bb 1a e2 71 3d 40 10 f9 bc c8 dc 46 bc
       -0.0030030385 0.059053518 -0.030403256 -0.012137599
000250 08 5f 7a 3d 10 0e e4 3c 58 58 60 bd 5e 51 7d 3d
       0.061125785 0.027838737 -0.05477175 0.061845176
000260 36 1d 71 3d e0 80 9d 3c 40 41 74 bc 90 1a e5 bb
       0.05886575 0.019226491 -0.014908135 -0.006991692
000270 80 94 f1 3c be 99 21 3d 56 fd 0e bd 00 51 01 3a
       0.029489756 0.03945326 -0.03490957 0.00049330294
000280 0c 87 50 3d 14 80 84 3c 12 06 66 3d 38 61 30 3c
       0.05091004 0.016174354 0.056158133 0.010765366
000290 1a ff 31 3d 8c 62 33 bd 82 d6 64 3d ca 78 4f bd
       0.043456174 -0.043795153 0.055868633 -0.050652303
0002a0 b0 d6 b4 3c 54 ed 77 bd 30 60 43 3c ee 28 43 3d
       0.022075027 -0.060529068 0.011924788 0.047646455
0002b0 38 9e 6d 3d 98 f4 db 3c 1a ed 7c 3d 48 b3 6a bc
       0.058012217 0.02685003 0.061749555 -0.014324971
0002c0 20 36 88 bc 20 6a 4f bd 48 1c cd bc d0 a8 36 3c
       -0.016627371 -0.050638318 -0.0250379 0.0111486465
0002d0 de 65 1a bd 8c 44 f0 bc 38 a9 8f bc 58 5c 40 3c
       -0.037694804 -0.02932956 -0.017536744 0.0117407665
0002e0 cc 71 75 bd 98 cd d8 bc 74 7d 0b bd 40 88 b0 3b
       -0.05992298 -0.026465222 -0.03405519 0.005387336
0002f0 80 a1 73 ba 8c b3 34 bd e0 25 25 bd 7c 10 e1 bc
       -0.000929378 -0.04411654 -0.040319324 -0.02747368
000300 06 06 67 3d 10 1a 10 bd c4 a8 12 3d c2 09 45 bd
       0.05640223 -0.035181105 0.03580548 -0.04810501
000310 38 eb 01 3c c8 16 f1 bc 08 19 99 3c d0 b4 04 3c
       0.007929616 -0.029429808 0.018688694 0.00809975
000320 f8 9f 64 bd d8 3b 7d 3d 08 78 5f 3d a4 c6 15 bd
       -0.05581662 0.06182465 0.05455783 -0.03656639
000330 50 27 df bc a8 2c 04 3c 50 f3 ee 3c 38 95 eb 3c
       -0.027240425 0.0080672875 0.029168755 0.028757676
000340 9c 69 a7 3c 58 0f 42 3c cc b5 83 3c fe 01 57 3d
       0.0204361 0.011844479 0.016077898 0.052492134
000350 78 5f a8 bc 64 70 b3 3c 98 f5 e5 3c 38 a9 78 bd
       -0.020553336 0.021904178 0.02807121 -0.060708255
000360 22 7f 43 3d b6 68 44 bd e8 8c 6d 3d d8 7a c2 bc
       0.047728665 -0.047951423 0.057995707 -0.023740217
000370 50 86 f2 bc 50 4d 03 bc c0 5e f0 bc 30 6f 04 3c
       -0.02960506 -0.008014038 -0.029342055 0.00808315
000380 68 f6 65 3d 88 de c5 bc 54 c5 49 3d ac b3 7b bd
       0.056143194 -0.024153963 0.049260452 -0.061450645
000390 78 3a 1f bc c0 23 ae 3b 00 fd ab 39 04 06 98 3c
       -0.00971853 0.0053143203 0.0003280416 0.018557556
0003a0 10 f2 6c bd 30 38 8c 3c 60 9f e3 bc 58 7b e4 3c
       -0.057848036 0.017116636 -0.027785957 0.027890846
0003b0 00 35 ee bc cc e2 61 bd b0 05 1f bd 10 7d 07 bd
       -0.029078007 -0.05514793 -0.038823783 -0.033078253
0003c0 5c 61 b3 3c ce 6b 75 bd 34 9e 4a 3d 64 51 32 bd
       0.02189701 -0.059917264 0.04946728 -0.04353465
0003d0 c8 24 6c 3d 0e b1 3b bd b2 1d 00 3d fe b4 2e bd
       0.057652265 -0.04582315 0.03127832 -0.042653076
0003e0 bc 65 56 bd bc ee 72 bd 00 c2 29 bb 4c 1f 42 3d
       -0.052343115 -0.059309706 -0.0025902987 0.04739313
0003f0 78 15 6a bc c0 49 2b 3b 84 32 44 bd 80 c3 a8 3a
       -0.014287345 0.0026136488 -0.047899738 0.0012875646

bias f4 [256]
000000 00 8d 55 3a 98 68 20 3d 14 1d 0e 3d 28 aa ae 3c
       0.0008146316 0.03916225 0.0346957 0.021321371
000010 d0 c0 64 bd b6 cd 6f bd 5c 09 1f 3d 16 3a 46 3d
       -0.055847943 -0.05854579 0.038827285 0.04839524
000020 48 f9 c3 3c 50 47 25 3c a8 70 20 bc 5e 1c 68 3d
       0.023922578 0.010087803 -0.009792484 0.056667678
000030 ca ba 66 3d f0 18 61 bc 56 2c 29 3d 44 f8 64 3d
       0.05633048 -0.013738856 0.041302048 0.055900827
000040 bc 8d a0 bc f2 f5 0f bd be fb 2d 3d 60 4e 3e 3d
       -0.019598834 -0.03514666 0.04247641 0.046461463
000050 9c db ba 3c 44 37 ef 3c 00 43 a8 bc 04 7b 99 3c
       0.022809796 0.029201157 -0.02053976 0.018735416
000060 a4 86 54 3d 2c e9 68 bd c0 96 6a bc e4 83 9a bc
       0.051886216 -0.056862995 -0.014318168 -0.018861718
000070 a0 92 3c 3d 2c 1a 58 bd 6c 58 a8 3c c0 eb 4e bd
       0.04603827 -0.052759334 0.020549975 -0.050517797
000080 20 16 22 3d 00 2e 53 bb ec 49 d6 bc 40 f0 f4 ba
       0.03957188 -0.0032223463 -0.026158296 -0.0018687323
000090 9a 0b 72 bd 68 b0 80 3c f2 b5 0e bd ec 19 84 3c
       -0.059093095 0.015709117 -0.034841485 0.016125642
0000a0 b0 ae 43 3c be df 12 3d b4 b8 a9 3c d0 01 b3 3b
       0.011943504 0.03585791 0.020717956 0.0054628626
0000b0 8c 0b fd 3c 50 c6 08 3c 00 ef f1 bc 00 06 a9 3b
       0.030889295 0.008348063 -0.02953291 0.005158186
0000c0 26 ed 15 bd 02 5c 0f 3d ce a9 5f bd e0 7e 32 bb
       -0.036603115 0.034999855 -0.054605298 -0.0027236268
0000d0 c8 6d 2c 3d 6e aa 76 3d 04 8f 56 bd 4c 52 d4 bc
       0.042096883 0.06022113 -0.052382484 -0.025918148
0000e0 30 0d 02 3d b8 13 0a 3d c8 7d 23 bc 38 0f 76 3c
       0.031750858 0.03371021 -0.009978719 0.015018277
0000f0 30 4d 12 bd 10 e8 58 3c 32 da 39 3d aa 5a 1b 3d
       -0.035718143 0.013238922 0.045374103 0.03792826
000100 3c 1c 51 bd 56 7f 76 bd 7a 40 04 3d c6 70 61 bd
       -0.051052317 -0.06018003 0.032288052 -0.05503919
000110 22 3e 50 bd 70 7d 87 3c a4 ae bd 3c 7a 4f 05 bd
       -0.050840504 0.016539305 0.023154564 -0.032546498
000120 92 d6 72 bd 96 4c 57 bd 86 f6 00 bd 98 77 fc 3c
       -0.05928666 -0.052563272 -0.031485103 0.030818745
000130 c8 65 b0 bc 5e b6 45 3d 48 61 a9 3c 4c c6 13 bd
       -0.021532908 0.048269622 0.02067627 -0.036077783
000140 e8 64 b2 3c c0 3b 68 bc ac 27 2a bd 02 78 36 bd
       0.021776631 -0.014174402 -0.04154174 -0.044548042
000150 90 fa 99 3b 30 ca 3c 3d a0 e2 c8 bc e2 f3 5b bd
       0.004699059 0.04609126 -0.024522126 -0.05369938
000160 04 c3 cc bc 40 44 a5 3b 18 b3 5c 3d 0e 4d 6f 3d
       -0.024995334 0.0050435364 0.053881735 0.058423094
000170 58 8f 4d 3c 48 17 fd bc 56 e1 2e bd d8 01 6c bd
       0.012546383 -0.03089489 -0.042695366 -0.057618946
000180 f8 4d ed 3c 30 bb 95 bb 48 b8 d6 bc 7e fb 58 3d
       0.028967842 -0.0045694336 -0.026210919 0.052974217
000190 a2 db 3e 3d c0 0d c7 3c 52 cc 1c bd 9a f4 1a bd
       0.046596177 0.024298549 -0.038280793 -0.037830926
0001a0 da b7 6e 3d d8 7a 39 bd aa 50 34 3d 2e f0 5a bd
       0.058280803 -0.04528317 0.04402224 -0.05345171
0001b0 a6 19 59 bd aa 3f 40 bd 30 57 5b bc 90 dc ba bb
       -0.053002976 -0.046935715 -0.013387486 -0.0057025626
0001c0 00 8a 2e 39 f4 cc 71 bd 7c 47 7a 3d 62 8a 5d 3d
       0.00016645342 -0.05903335 0.06110333 0.05408705
0001d0 d0 03 be 3b ba f7 7b 3d 8c 9c d3 3c bc be 30 3d
       0.0057987943 0.061515547 0.025831483 0.04315065
0001e0 16 fb 12 bd dc de 24 3d 00 2f b8 bb c0 5e 4c 3b
       -0.035883985 0.040251598 -0.005620837 0.0031184405
0001f0 c0 e5 71 bd fa 92 4d bd 58 5d 57 bd 3e 96 4a 3d
       -0.059056997 -0.050188996 -0.052579254 0.04945969
000200 2c 73 c6 bc 08 f9 76 3c 90 16 fb 3c aa 0f 02 3d
       -0.02422484 0.015074022 0.030650407 0.03175322
000210 5e ad 36 bd 06 03 50 3d 90 60 85 bc 20 e3 35 3d
       -0.04459893 0.050784133 -0.016281396 0.044406056
000220 d8 8d b0 3c 30 37 51 3c 90 e8 bd bb f4 c1 25 3d
       0.021552011 0.012769505 -0.005795546 0.04046817
000230 a4 42 0c 3d e2 71 72 bd d0 7f 03 bc dc 7e 40 3d
       0.03424324 -0.05919064 -0.008026078 0.046995983
000240 b8 60 52 3d 2e 7b 70 bd 42 81 0d 3d 94 ba b6 3c
       0.05136177 -0.058711223 0.034547098 0.022305764
000250 98 61 3c bd d6 30 33 3d bc dd d0 bc 30 79 3c 3d
       -0.04599151 0.043747745 -0.025496356 0.04601401
000260 0c e4 d8 3c aa d3 78 bd 06 2f 7d 3d a0 0a c1 bb
       0.026475929 -0.060748734 0.061812423 -0.005891159
000270 10 5f b0 3c 50 0e b2 3b 30 72 98 3b 94 d6 0d bd
       0.021529704 0.005433835 0.004652284 -0.034628466
000280 f4 e4 37 bd c0 03 e9 3a 72 66 45 3d 72 62 44 3d
       -0.04489608 0.0017777607 0.048193403 0.047945447
000290 ac d6 88 3c 94 c1 13 3d d2 be 43 bd c8 2e 09 bc
       0.016703926 0.036073282 -0.047789402 -0.00837297
0002a0 80 79 e3 bb d8 08 5a bd b8 09 63 3c 7c 13 93 bc
       -0.006941974 -0.05323109 0.013857298 -0.017953627
0002b0 d4 65 c5 3c 38 49 79 3c 58 0f a8 3c 70 42 34 3d
       0.024096407 0.015215211 0.020515129 0.044008672
0002c0 06 21 3d bd 90 9d 04 bc 1a 34 1a 3d 74 03 ca 3c
       -0.04617407 -0.008094206 0.037647344 0.02465985
0002d0 44 05 33 3d fe cc 2d 3d aa 5f 5e bd c8 f4 7c 3c
       0.043706194 0.042431824 -0.05429045 0.01543922
0002e0 c0 54 7e 3c 40 a1 07 bd 22 cf 08 bd c4 9d be 3c
       0.015523136 -0.033112764 -0.033400662 0.023268588
0002f0 f2 6d 3f bd 24 60 6e bd e0 b5 81 bb 34 b7 a6 3c
       -0.04673571 -0.058197156 -0.003958449 0.02035103
000300 b0 db 95 bb a0 b3 f9 bc f8 69 35 bc 20 48 12 bd
       -0.004573308 -0.03048116 -0.011072628 -0.035713315
000310 ac 68 19 3d 00 c6 fa 3a b8 9c ac bc a4 1e ba 3c
       0.03745334 0.0019132495 -0.021070823 0.022719689
000320 20 d5 af bc 10 ea 2e bc a6 37 58 3d 90 5d 38 bd
       -0.02146393 -0.010675922 0.052787445 -0.045011103
000330 b4 c7 c3 3c 00 e7 7b 3b 00 41 b1 3c e8 19 11 bd
       0.023898937 0.0038437247 0.02163744 -0.035425097
000340 00 45 f9 bc 80 5f 7a ba 88 e5 12 3c 28 64 11 3d
       -0.03042841 -0.0009550974 0.008965857 0.035495907
000350 1e d4 5e bd a0 aa 40 bd 28 70 da bc e0 a8 5a bc
       -0.05440151 -0.04703772 -0.026664808 -0.013345927
000360 b0 ed 6d 3c ca a5 35 bd fc f2 2f bd 3c 27 1a bd
       0.014522001 -0.044347562 -0.042956337 -0.037635073
000370 88 c9 da bc 50 9d e6 bb 38 77 e4 bc 80 75 17 3c
       -0.026707426 -0.007037796 -0.02788888 0.009244323
000380 58 a1 40 3d 20 e2 bf bc dc ba 2f 3d 7e e0 7f bd
       0.04702887 -0.023423254 0.042902812 -0.06246995
000390 d0 7e 70 3d 28 66 89 3c 78 9c a5 bc b4 98 5b bd
       0.058714688 0.016772345 -0.020216212 -0.053612426
0003a0 58 72 3f 3c a0 56 ff bb 58 aa d6 3c 80 d8 e5 3c
       0.0116849765 -0.007792309 0.026204273 0.028057337
0003b0 04 6a 1b 3d 52 9b 52 3d 24 f6 ef 3c c4 71 3b bd
       0.0379429 0.051417656 0.029292174 -0.045762792
0003c0 c0 b1 a4 bc 0a 05 26 bd 60 5c d3 bb 1c 3a 1e 3d
       -0.020104289 -0.04053215 -0.006450221 0.038629636
0003d0 a4 0f 2e bd 1c 47 54 3d e0 a7 be 3c 88 5c 89 bc
       -0.042495385 0.051825628 0.023273408 -0.016767755
0003e0 1c fd 5c 3d 24 68 62 bd d4 69 94 bc 00 29 a2 ba
       0.05395232 -0.055275097 -0.018116869 -0.0012371838
0003f0 f2 8f 0e bd 4e 07 6f 3d f8 0c 8a 3c b8 fe 0b 3c
       -0.034805246 0.058356576 0.016851887 0.008544616

weight f4 [5, 256]
000000 78 06 54 bd 86 c6 63 bd a8 d8 eb bc 00 74 9b ba
       -0.05176398 -0.05560925 -0.028789833 -0.0011860132
000010 ee 5d 06 3d 48 7f d0 3c b8 b5 48 bc 22 a6 2f bd
       0.032804422 0.025451317 -0.012250356 -0.042883046
000020 08 29 54 3c c8 50 20 bd 90 7a 54 bd 9a 4e 6a 3d
       0.012949236 -0.03913954 -0.051874697 0.057203867
000030 4e e4 36 3d 94 6e 7d bd 9c 8c 9c bc 5c 2b 99 bc
       0.044651322 -0.061873034 -0.019110017 -0.018697433
000040 00 9e 11 bb d2 dc 2f bd 60 fb 17 bb 90 b8 54 bd
       -0.002221942 -0.0429352 -0.0023190603 -0.051933825
000050 40 4e e0 3a c4 c0 d1 3c b0 12 ab 3b 2c bd 96 bc
       0.0017113164 0.025604613 0.0052207336 -0.018400751
000060 58 55 5c bd 3c 6a 88 3c 7c 27 72 bd 70 52 e2 3c
       -0.053792328 0.016652219 -0.059119686 0.0276272
000070 d8 a4 54 3c bc 8d e2 bc d2 c9 7f bd 10 3b 41 3c
       0.012978755 -0.027655475 -0.06244833 0.011793867
000080 18 f1 30 bc 7c ed 38 bd c0 c0 fd 3b d8 b9 fe 3c
       -0.010799669 -0.045148358 0.007743925 0.031094477
000090 64 80 ec bc 02 72 3b 3d 7c f4 8e 3c 04 1a 09 bd
       -0.028869815 0.045763023 0.017450564 -0.033472076
0000a0 20 ba 7c bb 2c 30 7c 3d d0 98 2d 3c e4 69 29 bd
       -0.0038563088 0.061569378 0.010595515 -0.04136075
0000b0 b6 82 61 3d e0 85 62 3d 90 cc ff bc 64 24 d1 bc
       0.055056296 0.055303454 -0.031225473 -0.025530048
0000c0 b0 e7 1b bd fc c8 36 3d 44 43 c0 bc 1c f5 16 bd
       -0.03806275 0.044625267 -0.023469575 -0.03685485
0000d0 98 56 a2 bc 80 f9 23 ba b4 43 b8 3c ea 8e 07 3d
       -0.019816682 -0.0006255135 0.02249322 0.033095278
0000e0 28 30 c2 3c 40 e1 93 3c 9c 62 c7 3c b8 78 b5 bc
       0.023704603 0.018051744 0.024339013 -0.02215229
0000f0 20 c8 15 3d be db 4b 3d 80 7a 6c ba d8 15 f8 3c
       0.036567807 0.04977011 -0.00090209395 0.030283853
000100 48 99 34 3c 02 10 04 3d 40 f3 7f 3d 12 ed 18 bd
       0.011022873 0.03224183 0.06248784 -0.037335463
000110 f6 4d 27 3d c0 b9 09 bd a4 a9 26 bd 46 7d 60 3d
       0.040845834 -0.03362441 -0.040689126 0.05480697
000120 ee be 7e bd a8 b8 cc bc 72 da 61 3d 40 c7 e0 3a
       -0.062193803 -0.024990395 0.055139966 0.0017149225
000130 88 45 86 bc 00 fe 6c bc ba b1 2d bd f0 42 e1 3b
       -0.016390577 -0.014464855 -0.04240582 0.0068744346
000140 b0 aa a7 3b f0 5f 3e 3c 68 0b de bc a0 28 51 bd
       0.005116783 0.011619553 -0.027105048 -0.051064134
000150 6a d7 57 bd 1a cc 63 3d e0 dc cd 3c 58 6a 01 bd
       -0.05269567 0.05561457 0.025129735 -0.031595558
000160 90 0b 67 bd 8a 2b 48 bd e2 f5 0c 3d 88 07 5b bd
       -0.05640751 -0.048869647 0.03441418 -0.05347398
000170 b0 a2 e6 3b 80 da 68 3d 4e 42 0a 3d 58 50 05 bd
       0.007038437 0.056849003 0.03375464 -0.032547325
000180 4e 17 52 bd 1c 30 1c bd 8a ef 3b bd 80 cc 37 bc
       -0.051291756 -0.03813182 -0.04588274 -0.01121819
000190 60 a2 20 bb 16 e6 7f bd 30 0e d9 bb 30 d2 82 3b
       -0.0024510846 -0.062475286 -0.0066240057 0.0039923415
0001a0 70 6f 80 bc 3a a5 76 3d 74 ae c7 bc e0 23 4d 3c
       -0.015678138 0.060216166 -0.024375178 0.01252076
0001b0 ca 90 63 bd 78 ed 00 3c ec 8c a2 bc 80 8f b9 ba
       -0.055558003 0.007869117 -0.019842587 -0.0014157146
0001c0 80 4d c2 ba b8 d7 f5 bc 32 36 2f 3d 30 50 09 bc
       -0.0014824122 -0.03001009 0.042776294 -0.008380935
0001d0 a0 3b 15 3c c0 66 e7 bc b4 50 ca bc c0 a2 d3 ba
       0.009108454 -0.028247237 -0.024696685 -0.0016146526
0001e0 e6 7d 59 bd 80 fd 64 bd de 3f 3e 3d b4 3b c1 3c
       -0.05309858 -0.05590582 0.046447627 0.023588039
0001f0 14 00 c7 bc 7a 52 71 bd 98 f6 35 3c 30 5f f1 bb
       -0.02429203 -0.058916546 0.011106156 -0.0073660836
000200 78 89 87 3c 78 a1 ef bc ec e9 1b bd 26 ff 23 3d
       0.016545042 -0.029251799 -0.038064882 0.04003825
000210 50 59 a1 3c 7e eb 15 3d 86 f2 49 bd 0a 98 67 3d
       0.019695908 0.036601536 -0.049303554 0.05654148
000220 b8 33 c1 3c 40 56 fe ba 0c 39 2b 3d fc a4 c7 bc
       0.023584232 -0.0019404367 0.04180245 -0.024370663
000230 78 a5 d9 bc 6a c6 48 3d 60 20 15 3c ee 89 1e bd
       -0.02656816 0.049017347 0.009101957 -0.03870576
000240 8a a2 22 3d 00 f0 3c 3a d2 bf 24 3d c0 c9 8c bc
       0.03970579 0.00072073936 0.040221997 -0.017186046
000250 ba 5e 22 bd d6 ea 6f 3d e8 5c 84 3c e4 8e e5 bc
       -0.03964112 0.058573566 0.016157582 -0.028022237
000260 fe 91 25 bd da 10 17 3d a0 2e 92 3b 00 3a 18 3c
       -0.040422432 0.036881305 0.0044611245 0.009291172
000270 5c 30 32 3d f4 87 14 bd 40 49 9a 3b 2c 82 7f bd
       0.04350315 -0.036262468 0.004708439 -0.06238
000280 ae 20 51 bd 00 3f 48 ba 90 8d 4c bc 98 cb e7 3c
       -0.051056556 -0.0007638782 -0.012484923 0.028295323
000290 96 a1 27 bd 24 ae 4d 3d a8 04 0d bd f2 b3 05 bd
       -0.040925585 0.0502149 -0.03442827 -0.032642312
0002a0 58 c8 7c bd 2a df 2e 3d 78 a8 9a 3c b4 5c 69 bd
       -0.0617145 0.042693295 0.01887916 -0.056973174
0002b0 96 13 2f bd 00 52 e9 3b 48 18 05 bc a0 55 28 3b
       -0.042743288 0.007120371 -0.008123465 0.0025685802
0002c0 3c 25 46 bd 92 e2 27 3d 14 e1 c9 3c 60 1b fa 3b
       -0.048375353 0.04098756 0.024643458 0.007632658
0002d0 24 04 e4 bc a4 7e 94 bc 34 17 a0 bc 60 19 19 bc
       -0.027834006 -0.018126793 -0.019542314 -0.009344429
0002e0 98 c6 46 3d 8c f2 2e bd 92 2d 1f bd dc 2b 56 3d
       0.048529238 -0.04271178 -0.03886182 0.05228792
0002f0 08 c6 a5 bc 70 c8 38 bd b4 98 b6 3c 66 03 5a bd
       -0.02023603 -0.045113027 0.022289611 -0.053225897
000300 ea 12 66 3d c0 38 b6 bb 7a 9d 28 bd e0 c6 f0 3c
       0.05617038 -0.0055609643 -0.041165806 0.029391706
000310 d8 eb fe 3c d0 d4 fa bb e8 7d 5f bc 84 cc bd 3c
       0.031118318 -0.0076547638 -0.013640858 0.02316881
000320 c4 81 47 bd ac 1c 34 bd 76 79 6f bd c4 9e 6d bd
       -0.04870774 -0.043972656 -0.058465444 -0.05801274
000330 04 e9 3e bd 2e 60 74 3d 6c 47 77 bd 98 9b 0f bc
       -0.04660894 0.059662037 -0.060370848 -0.008765124
000340 60 20 25 3d c8 ab 4d bd 98 b4 4f 3c c8 dd e9 3c
       0.04031408 -0.05021265 0.012677334 0.028548136
000350 c2 a7 6a 3d d8 31 84 3c ae dd 71 3d da 36 3b 3d
       0.057288893 0.016137049 0.0590493 0.045706607
000360 c4 04 c1 bc fe c0 11 bd 8e a4 1c 3d 80 4d ea 3a
       -0.023561843 -0.035584442 0.03824287 0.001787588
000370 b8 25 b9 3c 28 ba 3f 3c 40 5a f6 ba b2 a9 24 3d
       0.022600994 0.011702098 -0.0018795207 0.040200897
000380 20 f5 3b 3c b4 6e 2b 3d dc 26 72 bd 3c f7 bb 3c
       0.011472017 0.04185362 -0.05911909 0.022945039
000390 86 4b 67 3d 60 6f e8 bc b4 36 a2 bc 6c 6d 47 bd
       0.05646851 -0.02837342 -0.019801475 -0.048688337
0003a0 00 b1 74 3c 64 3b 31 3d 84 ee 81 3c d8 7e 41 3d
       0.014934778 0.04326953 0.015860803 0.04724011
0003b0 dc 30 0b bd 60 5f 98 bc 02 90 0a 3d 08 d2 0e 3c
       -0.033982143 -0.018600166 0.033828743 0.008717068
0003c0 a8 83 94 3c 3c 1b 4d 3d 30 48 73 3c a8 d8 36 bc
       0.018129185 0.0500748 0.014848754 -0.011160053
0003d0 14 74 20 bd d4 45 f6 3c e0 f0 d0 3b c0 93 ec ba
       -0.0391732 0.030062594 0.006376371 -0.0018049404
0003e0 00 e6 02 bd ec 21 6b bd b6 cd 7a 3d 00 07 16 3a
       -0.031957626 -0.057405397 0.061231337 0.0005723089
0003f0 2c b4 4e bd 54 d6 70 3d c8 2b 20 3d fe 28 24 3d
       -0.050464794 0.05879815 0.039104253 0.040078156

bias f4 [5]
000000 3e 46 39 3d c4 d3 4c 3d 98 8a 8b 3c 6e 27 18 bd
       0.045233004 0.050006643 0.01703386 -0.037146978
000010 10 76 61 bc
       -0.013761058
