baseline_models/random-agent-3.pt (torch_old, 595825 bytes, 6 tensors)

weight f4 [256, 294]
00000000: a0e6 cb3c 18b6 1ebd e2f4 6d3d 9060 083d
00000010: 442e d43c 98b4 18bd 4cc5 d83c 9fe3 02bd
00000020: 60ad 963a c835 053d a402 b23c 2854 aabc
00000030: b803 733c 4857 09bd 0a7b 84bc 9839 74bc
00000040: d8d0 323d 3260 98bc 02e7 4ebd eaed 01bd
00000050: f2ef 86bc 70d4 bc3c 24be d23c 1687 5c3d
00000060: 9ed9 073d 90ad 54bd 6006 b3bb ae3d 0ebd
00000070: 6863 903c ad7a debc 7e84 c1bc ec57 9e3c
00000080: 5450 1b3d 2c15 943c 86ca 223d 78f9 14bd
00000090: 28fd 933c a8e5 52bd b82c e43c 2738 6cbd
000000a0: 94ce f43c 4d09 12bd d6e3 333d 60f8 01bc
000000b0: 34e1 bc3c 8614 193d a00f adba 3668 083d
000000c0: 298d 37bd 863e bebc b024 eb3b d464 92bc
000000d0: ea8b 8cbc dced acbc 700e d3bb 682c c6bc
000000e0: b2a5 20bd 703a ed3b b027 0a3d 0cbc 67bd
000000f0: 9aa9 33bd 84bb 853c 0c70 f73c 2f7b 6ebd
00000100: c863 453c 4037 003d a484 22bd 29d9 49bd
00000110: 0852 39bd 684b 46bc 1817 143c f44a 43bd
00000120: f041 6b3c 8c3c 38bc dc5d e63c e0cd 15bd
00000130: 0655 fbbc 70cb 9cbc 8db7 f2bc 66f6 a3bc
00000140: 0045 1fb9 f8ae 0e3d d1b3 56bd 7fa9 f0bc
00000150: 01d8 f0bc c261 053d 88af 2a3c 5463 cbbc
00000160: a886 6e3d 2068 213d 09b5 5fbd 008b d2ba
00000170: c62e 573d e4bc a83c eeca 5f3d 8673 9cbc
00000180: a467 d6bc 0ff0 30bd 0305 42bd 6082 d73c
00000190: e006 13bb bc19 a73c a617 513d 680e f83c
000001a0: 7415 ce3c ac5d 84bc baf9 98bc e83c 833c
000001b0: d4b5 18bc 4089 303c 80dc d13c 0aea 2f3d
000001c0: 4034 6ebc 1861 a3bb f8c5 ad3c 40cc cf3c
000001d0: 00e8 4c38 7c7b e83c 88d6 673d 20f3 133d
000001e0: d029 db3b a8e0 90bb cc2a 4cbd a517 0ebd
000001f0: 8880 7e3c 4238 1bbd 6c89 0ebd f4a9 343d
00000200: 701c 0e3d 1edd 15bd c6c7 623d 14ef 103d
00000210: 20d8 323b a069 13bc 2020 e5ba 926b 1d3d
00000220: 8ee7 a1bc 350a 36bd 6238 28bd b8ab 1a3c
00000230: ea86 113d 0202 49bd 6884 9abb e068 243b
00000240: d507 26bd e0d8 4f3d 049f 483d 7881 1e3c
00000250: 7506 5dbd b0bc 04bd 20f1 3a3c b242 403d
00000260: b8fb 083d 0c6e aabc f281 08bd b8d3 643d
00000270: 9c40 c63c 809c 92b9 4c30 e73c 5913 46bd
00000280: 366d 043d 68b3 f63c 8ec7 193d ba91 8abc
00000290: 9862 4f3d 4422 1fbd cc41 3abd 87f2 60bd
000002a0: 84eb cb3c 1c35 6bbd e0f6 90bb 7ab7 0bbd
000002b0: ea46 a6bc 00c1 0f39 20ec 1ebc 80b2 b1b9
000002c0: d0dd 40bb 98f2 a63c dacc d1bc 9265 3c3d
000002d0: c040 b63b eafa 4b3d 0845 8bbb dc4e a9bc
000002e0: 702a 313c ce64 64bd 5c5a 343d 9025 24bb
000002f0: 4498 6c3d 6262 b9bc c84d 0fbd 257b 2dbd
00000300: 6c30 c1bc 9a97 5b3d 1880 ca3c 004d 833c
00000310: 1c37 11bd d07e cb3b 0067 f1bb 5ce9 0cbd
00000320: f86b d33c b099 3fbc 5029 563c 4cf9 0f3d
00000330: b926 10bd de97 5c3d 0a07 3abd 0890 80bc
00000340: 7ce5 623d e033 803a 3c4d acbc a4fd 52bd
00000350: 6615 223d 2c2c 6bbd 103a 2cbc 248c ccbc
00000360: be45 233d 10f7 443c a0cb 483c e23e 4b3d
00000370: a0f9 ec3b 34ac 1dbd 80ee eeb9 fc48 19bd
00000380: 2093 2d3b 7a0d 17bd 8974 ecbc 387c 81bc
00000390: 10bd da3c aab1 4d3d 2dc9 febc 601e 1ebd
000003a0: 9844 24bd 4320 eebc 60d4 873b b8b7 3cbc
000003b0: e865 9c3c 9089 443d 7262 063d 084f 3cbc
000003c0: 6465 ca3c 40e1 5b3c 02aa f5bc 7039 09bd
000003d0: bebd 47bd 3823 94bc c896 22bc 8c8b 4cbd
000003e0: 986c 203d ec7b 8e3c bfaa 31bd 9ae7 4d3d
000003f0: f003 703b 5e61 05bd 909c fe3c 50c6 173c
0.024890244 -0.038747877 0.058094867 0.033295214 0.025900967 -0.037281603 0.026461266 -0.031955358
0.0011495762 0.032521993 0.021729775 -0.020792082 0.01483243 -0.033530504 -0.01617195 -0.01490631
0.0436562 -0.018600557 -0.050513275 -0.031721033 -0.016471837 0.023050517 0.025725432 0.053839765
0.03316652 -0.051923335 -0.0054634064 -0.03472679 0.017625526 -0.027158106 -0.023622748 0.019329034
0.037918404 0.018076502 0.039743923 -0.036370724 0.01806505 -0.05148855 0.027853355 -0.05767074
0.02988366 -0.0356534 0.043918453 -0.007932752 0.023056604 0.03737309 -0.0013203509 0.03330251
-0.044812355 -0.023223173 0.0071760044 -0.017870344 -0.01715656 -0.021109514 -0.00644093 -0.024191096
-0.03922052 0.0072396323 0.033729255 -0.05657582 -0.043862917 0.016324766 0.030204795 -0.058222946
0.0120477155 0.03130269 -0.039677277 -0.049279366 -0.045244247 -0.012102939 0.009038709 -0.047678903
0.014358982 -0.011244904 0.028120928 -0.03657329 -0.03068019 -0.019139975 -0.02962854 -0.020014953
-0.00015189126 0.034834832 -0.05241758 -0.029377697 -0.029399874 0.032563932 0.0104178265 -0.024827637
0.058233887 0.039405942 -0.054616008 -0.0016063154 0.05253484 0.020597883 0.05463689 -0.019098055
-0.026172467 -0.043197688 -0.04736806 0.026307285 -0.0022434518 0.020398013 0.051047944 0.030280307
0.025156714 -0.016157947 -0.018673766 0.016020253 -0.009320695 0.01077491 0.025617838 0.042947806
-0.014538825 -0.0049859397 0.021212563 0.025365949 4.8853457e-05 0.028379194 0.056601077 0.036120534
0.006688334 -0.0044213124 -0.0498455 -0.034690518 0.015533574 -0.03789545 -0.034799024 0.044107392
0.03469509 -0.036587827 0.0553663 0.035384253 0.0027289465 -0.008997351 -0.0017480887 0.038432665
-0.019763734 -0.044443328 -0.041069396 0.009440355 0.035529055 -0.04907418 -0.004715491 0.0025086924
-0.040534813 0.050743937 0.048979774 0.009674422 -0.053961236 -0.03240651 0.011410028 0.046938606
0.033443183 -0.020804428 -0.03332705 0.055865973 0.02420073 -0.00027963892 0.028221272 -0.048358295
0.032330714 0.030114844 0.037543826 -0.016915191 0.050631136 -0.038851038 -0.045472905 -0.054918792
0.024892576 -0.057423696 -0.004423961 -0.034110524 -0.020297486 0.00013709441 -0.009699851 -0.00033893064
-0.0029429086 0.02037935 -0.025610376 0.045995302 0.005561918 0.049799837 -0.0042501725 -0.020667486
0.010813341 -0.055760197 0.044031486 -0.0025046803 0.0577624 -0.02262992 -0.034986287 -0.042353768
-0.02358266 0.053611375 0.024719283 0.016027927 -0.035452947 0.0062101856 -0.007367015 -0.034402236
0.02580832 -0.011694357 0.013071373 0.035149857 -0.03519318 0.05385577 -0.04541687 -0.01569368
0.055394635 0.0009781085 -0.021032922 -0.05151142 0.03957119 -0.057415172 -0.01051189 -0.024969168
0.039861433 0.012021795 0.012255579 0.049620517 0.007231906 -0.038494304 -0.00045572594 -0.03742312
0.0026485398 -0.036878087 -0.028864162 -0.015806302 0.02670148 0.05021826 -0.031101787 -0.038603187
-0.04010448 -0.029068118 0.00414519 -0.011518411 0.019091561 0.047982752 0.03280873 -0.011493452
0.02470655 0.013420403 -0.029988293 -0.033502042 -0.048764937 -0.0180832 -0.009923644 -0.04993777
0.039166063 0.017393075 -0.043375727 0.0502697 0.003662344 -0.03256356 0.031080514 0.00926359

bias f4 [256]
00000000: 7e12 d1bc ce75 5b3d 5894 2fbd b0fc b23c
00000010: 0e3d d5bc d891 3bbd f366 e0bc ba98 443d
00000020: 18df 3c3c ccca c43c 9a64 2f3d ba1d 3b3d
00000030: a009 edbb 606d 64bd 6885 7b3c ba4b 1dbd
00000040: 0759 f2bc 64cc 06bc 3a20 1e3d 3c3a 8abc
00000050: d023 f03b 4816 c23c 9e46 45bd 387e 743c
00000060: d8a6 17bd 98d7 c9bc ecd4 563d c060 64bc
00000070: e414 943c 5ce8 d23c 2464 0ebc af5a 25bd
00000080: 8231 38bd 54d8 19bc 6b82 29bd 9622 663d
00000090: f8b5 33bc 8025 9f3c 62f0 133d 2806 53bd
000000a0: a978 ecbc a864 143c 7816 3abc c0a7 1e3a
000000b0: fea0 c9bc 42d4 aebc ea04 c0bc 44da de3c
000000c0: 80b7 1cbc dc22 d13c 289d cdbb a83c 343c
000000d0: fada 1b3d a4e7 aa3c ea32 58bd 1c30 86bc
000000e0: d0db ab3b 1e27 efbc 4e34 e7bc 50d8 1ebd
000000f0: 24af dd3c b4ca 5a3d 241f 2fbc 809d f4bb
00000100: a223 663d 008b a33c c254 05bd f0e0 203d
00000110: c02d 7c3a dae5 183d 360c 0a3d 94cd e83c
00000120: 10fc 0bbb c447 6c3d f2ce 5c3d 5a76 b1bc
00000130: 04f5 31bc 2ef9 5b3d 28fd 09bd b076 f3bb
00000140: 10a7 673d f6d6 14bd e6f9 393d d2ba 5dbd
00000150: fb05 40bd c076 7c3c a057 47bb 5a22 5e3d
00000160: b0ce 0abc a2a4 403d 7899 12bd 2872 37bd
00000170: 1c74 8fbc f0c4 26bd d000 42bd e0c4 9a3b
00000180: 3c9c 3ebd a4ec 12bc 244c 943c 9d1c 62bd
00000190: 0592 dfbc 3c7f 90bc 40fb fd3c 9229 f2bc
000001a0: 7c3c 70bc 1662 243d 4842 193c 96ec 383d
000001b0: 7686 553d 60c5 113d c08f 7f3b ae98 d7bc
000001c0: 2457 d53c 0b9c 07bd 48da 5e3c d2bb 603d
000001d0: 804c 5f3c 9ed4 fdbc 04be 00bd c085 51bb
000001e0: 2c76 d93c c07b ef3a 0831 743c 3c62 6e3d
000001f0: 2090 babc 6875 6c3d fcb2 e53c dcd5 153d
00000200: 181d 6fbc 403c 6a3d 18e6 8b3c 0805 563c
00000210: 0a24 0c3d 4a9a aabc 2c06 cc3c 0469 103d
00000220: 086f 6abc ce86 0bbd 7389 4fbd f0b7 403c
00000230: c248 e4bc 6cf8 c43c c406 963c b268 b7bc
00000240: 4019 c83b 8481 aabc e2dd 3cbd 4a0b d7bc
00000250: ca60 01bd 6a27 523d 5071 e53b 001d 6039
00000260: 3243 a3bc 2447 e93c 2ca3 9fbc cb4c 3dbd
00000270: 9e86 44bd 04e5 603d 8c4c 433d b165 eabc
00000280: 7047 fbbc d034 5abc cefd f7bc 185d 583d
00000290: a75a 01bd bc70 6dbc a8d1 ebbb 54d9 5f3d
000002a0: cbfa 42bd d002 34bd 4e19 363d 62b7 0b3d
000002b0: f0aa 29bc c469 1c3d 00b2 11ba 44ba ea3c
000002c0: 5a18 483d dae2 3e3d a01c 613d 3889 3abd
000002d0: f0f7 6f3c b2fd 43bd 30ce be3c d5c2 49bd
000002e0: 18a1 adbb 148c ef3c 60f5 8fba f066 2e3d
000002f0: 8059 d039 728b babc 12d5 27bd c0f8 f33b
00000300: 3cf4 173d c06b 6fba 571d 67bd beee f6bc
00000310: c0ce a53b a09f 0e3c c460 fa3c 33d0 58bd
00000320: 8c91 b53c 14f8 3c3d 18b3 1f3d 5d7c fbbc
00000330: 2056 73bb 9402 da3c 78cb 3d3d 5e17 b7bc
00000340: ec47 cb3c c030 b53a 8071 b63a 6975 41bd
00000350: 0074 f438 2424 353d 40d7 b5ba f89f 5abd
00000360: 9a65 0fbd e933 2abd dcf2 513d 246a 6abc
00000370: 00b7 633c 80e9 f0ba 30d0 2b3d 9430 6cbd
00000380: 480a 26bd fc63 483d 769f 213d fb74 28bd
00000390: 3800 9fbc f6a9 003d 4882 ccbb a21f 85bc
000003a0: 0686 c3bc d8dd 4e3c aa29 5c3d 3c1c b2bc
000003b0: 68b0 6d3d 68de 513c c42b fdbc adae 42bd
000003c0: facf 6c3d 685d 813c a821 593c 328e 2d3d
000003d0: 7cb2 b4bc a0e7 8fbb 26b2 00bd e0c1 ccbc
000003e0: de1e 52bd 78c5 163c afcc 46bd 80c6 b33b
000003f0: 305d 603d 90c2 b03b b377 30bd a825 9abc
-0.025521513 0.053579144 -0.04286608 0.021849006 -0.02603009 -0.045793384 -0.02739284 0.047997214
0.011527799 0.024022482 0.04282055 0.045682646 -0.0072338134 -0.05576837 0.015351631 -0.038402297
-0.029583467 -0.008227441 0.038604952 -0.016873471 0.007328488 0.023692265 -0.04816305 0.014922671
-0.03702435 -0.024638936 0.052449152 -0.013939083 0.018076368 0.025745563 -0.008690868 -0.040369686
-0.04496909 -0.009389956 -0.041384142 0.056185327 -0.010968678 0.019427061 0.03611792 -0.051519543
-0.028866129 0.009057201 -0.011357896 0.00060522184 -0.0246129 -0.021341447 -0.023439843 0.027203687
-0.009565234 0.025529318 -0.006274838 0.01100079 0.03805063 0.020862408 -0.05278293 -0.016380362
0.0052447096 -0.029193457 -0.028223183 -0.03878051 0.027061053 0.05341597 -0.010688577 -0.0074650645
0.056186326 0.019963741 -0.032551534 0.039277017 0.00096198544 0.03732858 0.03370305 0.02841834
-0.0021359958 0.05768563 0.053908296 -0.02166288 -0.010861639 0.053704433 -0.033688694 -0.00742992
0.056555808 -0.036337815 0.045404337 -0.054133244 -0.046880703 0.015409172 -0.0030417219 0.05423198
-0.00847213 0.047032006 -0.03579089 -0.044786602 -0.01751142 -0.040715158 -0.047364056 0.0047231764
-0.046535715 -0.008967552 0.018102713 -0.05520307 -0.027291307 -0.017638795 0.031003594 -0.029560838
-0.014662858 0.040132605 0.009354182 0.0451475 0.052130185 0.035588622 0.0038995594 -0.02631792
0.026042528 -0.0331078 0.013601847 0.05486662 0.013629079 -0.030985173 -0.031431213 -0.003197059
0.026545607 0.0018271133 0.014904268 0.058199152 -0.022773802 0.057729155 0.028039448 0.036580905
-0.014594339 0.057186365 0.01707749 0.013062723 0.034214057 -0.020825524 0.024905287 0.0352564
-0.0143086985 -0.034064107 -0.05066819 0.011762604 -0.027866725 0.024044238 0.018313773 -0.02238879
0.0061065257 -0.020813711 -0.04611004 -0.0262505 -0.031586446 0.05130712 0.0070020333 0.00021373108
-0.019929502 0.028476305 -0.019486986 -0.046215814 -0.047979943 0.054905906 0.047680423 -0.028612943
-0.030673712 -0.013318256 -0.03027239 0.052823156 -0.031580593 -0.01449221 -0.007196624 0.05465062
-0.047602456 -0.043947995 0.044457726 0.034110434 -0.010355696 0.038186803 -0.0005557835 0.028653271
0.04885135 0.04660306 0.05495894 -0.04554102 0.014646515 -0.047849365 0.023291677 -0.049258072
-0.005298745 0.0292416 -0.0010983162 0.042578638 0.00039739534 -0.02277157 -0.040974684 0.007445425
0.037098154 -0.00091331825 -0.056424465 -0.030143138 0.005060047 0.00870505 0.03056372 -0.05293293
0.022164129 0.046135023 0.038989156 -0.03069895 -0.0037130192 0.026612557 0.04633662 -0.02235001
0.024814568 0.0013823733 0.0013919324 -0.04723111 0.00011656433 0.04422392 -0.0013873354 -0.053375214
-0.035009004 -0.04155341 0.051257 -0.014307532 0.013898611 -0.0018380135 0.04194659 -0.057663515
-0.04053715 0.048923478 0.039458714 -0.041127186 -0.019409284 0.031412087 -0.0062411167 -0.016250435
-0.023867618 0.012626134 0.05375067 -0.021741979 0.058029562 0.012809373 -0.030904658 -0.047529865
0.05781553 0.01579161 0.013252653 0.042371936 -0.022057764 -0.0043916255 -0.031419896 -0.02499479
-0.05129897 0.009202354 -0.048535045 0.0054863095 0.05477637 0.0053942874 -0.043082904 -0.018816784

weight f4 [256, 256]
00000000: 2a8c 753d fcc8 bebc 0038 c738 f8d0 22bd
00000010: 263c 3f3d 24af 50bd 1c40 f5bc 0084 9939
00000020: a0d7 e6bb 70db e1bb 00a5 73bb 703a ef3b
00000030: e038 95bc e021 433c 3493 a43c 10fa 9a3c
00000040: c03a 013b 4008 42bd 2e64 3bbd a0bf 013c
00000050: 6453 bebc 22b3 6ebd 18f3 5e3c 3e70 76bd
00000060: 6419 d83c 0a8c 183d 0cb1 5abd 722f 0d3d
00000070: 0077 84b9 eac5 303d e818 b0bc 20f5 86bc
00000080: 7ec5 4cbd fe02 633d a0b3 333b 4aac 5c3d
00000090: 7074 5cbc f447 a4bc 6883 07bd daad 3c3d
000000a0: 0041 3b3d 9c4c 00bd 7efe 373d a097 753b
000000b0: 54ba 06bd 7ccb 1cbd d0a6 2c3d e095 6f3b
000000c0: 5610 0bbd 2059 95bc 783e 46bd 9667 2f3d
000000d0: be95 443d 9664 4e3d a4e8 953c a898 f93c
000000e0: e8f6 4d3d 5018 f1bb 28ed 513d e407 443d
000000f0: d082 b33c 8064 b2ba bc9a d7bc 3036 7cbc
00000100: f0c9 523c 00ae be3b e8af 413d 869c 093d
00000110: 2cbc 913c 2888 04bc e05f 773d d203 6dbd
00000120: fc33 3ebd 00a0 01b9 f0b2 bebb f6b1 71bd
00000130: a21c 4ebd 2a26 6d3d c032 853b bc37 19bd
00000140: 8449 ce3c 3431 253d b059 063c 5234 753d
00000150: c0e8 4cbc 58d7 563c 4050 e23c 1e8e 2d3d
00000160: 9c3a 9bbc 48af 56bc 98c4 17bc 68d3 0dbd
00000170: ac52 f73c 7cc0 d2bc 5609 003d 3269 62bd
00000180: 1051 b63b eecb 293d 885a 913c 4825 04bc
00000190: 208a 813b 54ff 513d f8d3 f83c 46c8 1ebd
000001a0: 18ed 763c 00e9 3fbb 789d 1e3c e0be 61bb
000001b0: 74e2 613d b493 593d f0a4 09bd ac20 303d
000001c0: 0872 75bd 0092 debc e096 20bd be27 58bd
000001d0: 9e45 6fbd fc91 25bd 8cb9 78bd 4cc5 65bd
000001e0: 00c7 b03a a614 303d d2c0 753d 7e1c 4cbd
000001f0: 782a d5bc 3892 6cbd 2c64 d83c a68d 03bd
00000200: f0e0 8ebc e0b8 783c d0ef a83b 0064 883c
00000210: c07d 493c 2cff 07bd 9250 443d 6cd7 463d
00000220: f05a 303d cc35 163d 98e0 933c 9079 323c
00000230: 1056 f7bb 446b 873c 401c 013d 6c75 e9bc
00000240: 583f da3c f08f 01bd 60a9 2a3d 301f b0bc
00000250: a4c9 1fbd a07e b8bb 102e 103c e44f b63c
00000260: 4c26 a5bc 0012 593c a884 a33c 4c41 e83c
00000270: e875 493c 6ece 55bd 183e 1c3d 66be 323d
00000280: 24dd 6ebd bcd4 bd3c 4c0b 0ebd 9e37 77bd
00000290: 9af6 1d3d 0288 643d 4ae3 463d 2c70 f53c
000002a0: ca54 783d 3049 4cbc 2c60 0d3d c8d0 6dbd
000002b0: 0002 70bc ea21 7abd 902d 4cbd 507d fabc
000002c0: 4e00 5e3d f813 183d 9079 a93b f0e2 9fbb
000002d0: 307a 0a3d 8012 ab3a 7499 5cbd 1823 d4bc
000002e0: f4c6 15bd 5e2d 1d3d 84e1 c83c f259 40bd
000002f0: b06b 5a3d 9675 7c3d e8de 673c b47a 5fbd
00000300: c06e c4ba 2a97 6f3d 901d 9b3c 86c5 3c3d
00000310: a84d 0ebd c0fe 593b 6e72 7ebd 2492 083d
00000320: 747b 583d e4d9 073d 2c0d 393d 74ea 63bd
00000330: 1042 3f3c 764b 323d de5a 433d d06e 0dbc
00000340: 9094 30bd c0c7 523b b068 2d3d 1467 b53c
00000350: e0a8 453d 30a1 f23c 94a3 a2bc 2409 da3c
00000360: b011 573c e4c4 00bd 70be 2c3d b474 04bd
00000370: 8831 6f3d a808 5fbc 605d 7e3d 6aa2 693d
00000380: 4664 503d 34bc 9f3c 5a02 5ebd 646a 8bbc
00000390: 80c0 bfba 28ee 41bc 5ead 133d 6861 7d3c
000003a0: 9819 0cbc ba0e 123d 2cb7 8a3c e4bd 633d
000003b0: f431 dcbc 08cb cf3c 689a 013d b0b9 e8bb
000003c0: ac57 97bc a070 db3b 00ed 953b 563e 513d
000003d0: 5c94 5bbd 3ab8 4cbd 8471 4a3d 504e f83c
000003e0: e0b7 1a3d 6c9b 203d e091 2b3b 3caf 58bd
000003f0: 1429 a3bc 52af 003d b013 afbc a8e1 24bc
0.059948124 -0.023289196 9.49949e-05 -0.03975007 0.04668822 -0.050948277 -0.029937796 0.00029280782
-0.0070447475 -0.006892614 -0.0037177205 0.0073006675 -0.018215597 0.011909932 0.020089723 0.018918067
0.0019718856 -0.04737115 -0.045749836 0.007919222 -0.023233123 -0.058276303 0.013607763 -0.060165636
0.026379295 0.037242927 -0.0533915 0.034469076 -0.00025265664 0.043157496 -0.021496251 -0.016474307
-0.04999303 0.055422775 0.0027420297 0.053875245 -0.013455495 -0.020053841 -0.033084303 0.046064235
0.045716286 -0.03132306 0.044920437 0.0037474409 -0.03289254 -0.038279995 0.042151272 0.0036557838
-0.033951126 -0.018230975 -0.04839942 0.042823397 0.047994368 0.050388895 0.018299408 0.0304683
0.050284296 -0.0073576346 0.05125156 0.047859088 0.021912962 -0.0013610274 -0.0263189 -0.015393779
0.012865528 0.0058190823 0.047286898 0.033596538 0.017789923 -0.008089103 0.060394168 -0.05786497
-0.046436295 -0.00012362003 -0.005819671 -0.059007607 -0.050320275 0.057897724 0.0040648878 -0.037406668
0.02518154 0.040330127 0.008200094 0.05986435 -0.012506664 0.013112865 0.027626157 0.04237186
-0.018948846 -0.013103314 -0.00926318 -0.03462544 0.030190788 -0.02572655 0.031258903 -0.055276103
0.0055638626 0.041454248 0.017743364 -0.008065529 0.0039532334 0.05126889 0.030374512 -0.038765214
0.015071176 -0.0029283166 0.009681098 -0.0034446046 0.055147603 0.053119376 -0.033604562 0.04299991
-0.0599232 -0.027169228 -0.039206386 -0.052772276 -0.058416 -0.040422425 -0.060723826 -0.05609636
0.0013487041 0.042988442 0.05999834 -0.04983186 -0.026021227 -0.057756633 0.026414953 -0.03211751
-0.017441243 0.015180796 0.005155541 0.016649246 0.012298048 -0.033202335 0.0479284 0.048545286
0.043055475 0.0366724 0.01805143 0.010893241 -0.0075481012 0.01653064 0.031521082 -0.028498374
0.026641533 -0.03163141 0.041665435 -0.021499246 -0.03901066 -0.0056303293 0.008800045 0.022254892
-0.020159863 0.01324892 0.019960716 0.028351448 0.012296177 -0.05219882 0.038145155 0.04363861
-0.058316365 0.023172729 -0.034678742 -0.060355775 0.038565256 0.05579377 0.048556603 0.029960714
0.060627736 -0.012468621 0.034515545 -0.058060437 -0.014648914 -0.0610675 -0.04984814 -0.030577332
0.05419951 0.03712842 0.005171962 -0.004879348 0.033807933 0.0013051778 -0.05385728 -0.02589564
-0.03656669 0.038373344 0.024521597 -0.04696078 0.053325355 0.061635576 0.014152266 -0.05456038
-0.0014986619 0.05849377 0.018934995 0.04608681 -0.034742028 0.0033263415 -0.062120847 0.033342496
0.05285211 0.03316678 0.045178577 -0.055643514 0.011673465 0.043528996 0.04769408 -0.008632377
-0.04311043 0.0032162517 0.042336166 0.022143878 0.048256755 0.029617876 -0.01985339 0.026615687
0.013126776 -0.03143777 0.042173803 -0.03233786 0.058396846 -0.013612904 0.062100768 0.057039656
0.05087688 0.019498922 -0.05420146 -0.017018504 -0.0014629513 -0.011836566 0.036054008 0.015465118
-0.008551024 0.035658576 0.016933046 0.055601016 -0.026879288 0.025365368 0.031641394 -0.007102214
-0.018474422 0.0066967756 0.0045753717 0.05108484 -0.053608283 -0.04998038 0.049424663 0.03031078
0.037773013 0.03921072 0.0026179478 -0.05290149 -0.019917049 0.0314172 -0.021371692 -0.010063566

bias f4 [256]
00000000: 6a20 483d 8678 293d 9407 ccbc 0498 7e3d
00000010: 6409 203d 3c0c 0cbd 741a f23c b8f0 bb3c
00000020: d43b 313d 3cde e7bc c231 09bd 7a46 393d
00000030: b443 fbbc 183d ba3c 6040 be3b 1488 d8bc
00000040: fe9a 163d 44e2 083d f095 4cbd 8cb7 c0bc
00000050: 684c 8e3c 465c 1c3d d494 e5bc 40c3 d7bb
00000060: 86d2 4b3d aac3 233d 76b1 0fbd 80a3 dc3c
00000070: f6a8 573d 6079 193c b8c3 cd3c da61 1bbd
00000080: f8bb 5bbc 00b2 a0ba 6a89 6dbd e05b 68bb
00000090: 3041 95bc a223 393d 46cf 15bd 4629 153d
000000a0: cc4a f13c 2a96 6dbd 4026 df3b 4c7c 3e3d
000000b0: 780d efbc e862 183d 503d cabb c89e 493d
000000c0: 844f 063d ba34 0e3d 4038 b5ba b08e a03c
000000d0: 70b2 44bd f046 403d 6824 02bc 8856 d63c
000000e0: f4d4 4a3d 4ef1 35bd 8c88 6d3d f287 313d
000000f0: 3e46 4e3d 88d1 323c 10ab 59bd 8890 183d
00000100: 10be 123d f4da d1bc 6229 03bd 18d1 1d3d
00000110: c0a9 8b3a 16a5 71bd e8a7 423c d461 313d
00000120: 6427 b33c 7818 2f3d 1e6d 0dbd 6cee 04bd
00000130: 9880 7c3c bc77 df3c 08ee 67bd e222 4bbd
00000140: 4cfd 35bd 2839 25bc ca1d 683d d489 9abc
00000150: 40f6 833b e665 173d f0f4 243d 981c 35bd
00000160: 6062 16bb 340e 1a3d b835 133c 00c0 acb7
00000170: 3015 5d3d a09d d5bb c20e 333d 1000 29bc
00000180: 02c4 42bd e67b 033d b0b4 443d 782c 1d3d
00000190: f8e3 f83c 90aa cc3b 8492 d9bc 7856 393c
000001a0: d821 67bd 58a1 593c 40c8 91ba 6ab1 75bd
000001b0: fcd6 86bc 0051 35bb 384b 65bd a0de 11bc
000001c0: dcb3 ff3c c26d 5bbd 70c4 d53c 001d 953c
000001d0: 6003 b6bc 3afc 023d bcf3 f2bc f078 423d
000001e0: 4ec7 2ebd 0ce9 5e3d a487 3e3d e834 48bd
000001f0: 0062 09ba 5096 f5bc 98ac 65bc b8b8 693c
00000200: daf7 353d 500b 5b3d c0f7 b2bc e4b5 2e3d
00000210: 6c0e ae3c 0816 2bbd c891 1c3d 6c10 e23c
00000220: 30f1 b93b 500c 163d 88d9 09bd b80a 2b3c
00000230: a8a6 eebc 2044 02bd bed9 2fbd a68b 00bd
00000240: 14fe bfbc d038 243d 3cf2 cdbc 38aa a5bc
00000250: 02d3 20bd 74d9 01bd 1c1c 853c 7c7f 3e3d
00000260: 5ee0 333d 08f8 573c 1004 553d 46d6 1abd
00000270: 5076 8a3c 4642 043d 7808 853c f69f 123d
00000280: 0030 5d3a ce6c 0bbd 801c cdba c064 333d
00000290: fc51 ecbc 1277 443d 72a6 0bbd da8b 5c3d
000002a0: bcc5 483d 8a3b 59bd 821f 773d 48b5 32bc
000002b0: 8ce1 72bd 34af c1bc 96fd 2fbd d090 aabb
000002c0: 5a47 0a3d d074 d3bc 5801 373d 624c 23bd
000002d0: ce2c 073d b0a4 423c d479 ba3c 48d2 6a3c
000002e0: 84d6 febc 307f 7dbd e07f f23c f26b 543d
000002f0: 407b 84ba 28da a2bc 40eb bbbb 262f 12bd
00000300: aed2 2bbd 30b4 353d 4060 f9bc 8ecf 1cbd
00000310: 5aa1 483d 28fe e03c 2064 d7bb 869e 693d
00000320: aeb0 1dbd 40fe 01bd 76f5 0abd 2c20 913c
00000330: eaa5 713d 78f9 4d3d b41a e3bc 7c0a 03bd
00000340: 94f3 6c3d 04da de3c e058 01bc e834 59bd
00000350: b62b 6b3d 08f0 ff3c 64ac d83c 60af d8bc
00000360: 82dd 0bbd 346d 04bd 6ec9 55bd c20b 28bd
00000370: 9010 73bd 483e 1dbd bee1 713d 2a19 58bd
00000380: 182a b5bc f40f 24bd 9c15 3b3d c211 003d
00000390: 70d5 653c 207c 96bb 80f3 053d 68b4 98bc
000003a0: 2819 58bc 88f4 d4bc 268d 573d 0066 31ba
000003b0: 5053 90bc 18d1 2fbd f6b7 663d 38dd b7bc
000003c0: 80a8 edbc ced6 0abd 30f9 eabc 40f3 f1ba
000003d0: 440c 1d3d 8092 283d 1cd1 51bd e0dc 5abd
000003e0: 2c3d 99bc 743c 73bd 00c4 b23c 000d 57bd
000003f0: fec8 5fbd 8c0c 20bd 6c62 6c3d 8427 92bc
0.048859037 0.041374706 -0.024905957 0.062156692 0.039071456 -0.034191355 0.02955363 0.022941932
0.043269947 -0.028304212 -0.03349472 0.045233227 -0.030671932 0.02273421 0.005806014 -0.026432075
0.036768906 0.03341891 -0.04994768 -0.023525022 0.017370418 0.038173936 -0.028025068 -0.006584555
0.049761318 0.03998152 -0.03508135 0.026933432 0.052651368 0.009367317 0.02511774 -0.037935115
-0.013411514 -0.0012260079 -0.057992376 -0.0035455152 -0.01821956 0.045199998 -0.036574624 0.036416315
0.029454611 -0.058004536 0.0068099797 0.046505257 -0.029181227 0.0372037 -0.00617186 0.04922369
0.032790676 0.034718253 -0.0013825968 0.019599289 -0.048021734 0.04694265 -0.00794325 0.026164308
0.049519494 -0.04441958 0.05799155 0.04334254 0.050359957 0.010914214 -0.053141654 0.03724721
0.03582579 -0.0256171 -0.032021888 0.038529485 0.0010655448 -0.05899533 0.011880852 0.043306187
0.021869369 0.042747945 -0.03452789 -0.03245394 0.0154115185 0.027278773 -0.05662349 -0.049593814
-0.044431016 -0.010084428 0.056669034 -0.01886455 0.004027158 0.036962412 0.040272653 -0.044216722
-0.002294682 0.0376112 0.0089849755 -2.0593405e-05 0.053975284 -0.0065190345 0.043715246 -0.010314956
-0.04755021 0.03210058 0.04802388 0.038372487 0.030382141 0.0062459186 -0.026559122 0.01131212
-0.05642876 0.013283096 -0.0011122301 -0.05998365 -0.016459934 -0.0027666688 -0.055979937 -0.008903176
0.031213693 -0.05357147 0.026094645 0.018202305 -0.022218406 0.031978823 -0.029657237 0.047478616
-0.04267054 0.05442147 0.046516076 -0.04887858 -0.00052407384 -0.029978901 -0.0140182 0.014265232
0.044425823 0.053477585 -0.021846652 0.042653933 0.021247111 -0.041769058 0.038224965 0.027595721
0.0056745037 0.036632836 -0.03365472 0.010439567 -0.029132202 -0.03180325 -0.042932265 -0.03138318
-0.023436584 0.040093243 -0.02513992 -0.020222768 -0.039263733 -0.03170152 0.016248755 0.046508297
0.043915145 0.013181694 0.052005827 -0.037802003 0.016902119 0.032289766 0.01623939 0.035797082
0.00084376335 -0.03403931 -0.0015648752 0.043797255 -0.028847687 0.047965117 -0.03409428 0.05384431
0.0490167 -0.053035296 0.060332783 -0.010907479 -0.05929713 -0.023643114 -0.042966448 -0.0052052513
0.033759452 -0.025812536 0.044679016 -0.039867766 0.033001713 0.011880085 0.02276317 0.0143323615
-0.031108148 -0.061888874 0.029601991 0.051860757 -0.0010107532 -0.019879416 -0.005734831 -0.035689496
-0.041948967 0.044361293 -0.030441403 -0.038283877 0.048982 0.027464941 -0.006573215 0.057035945
-0.038498573 -0.031736612 -0.033925496 0.017715536 0.05899612 0.05028674 -0.027722694 -0.03199242
0.05784948 0.027203567 -0.007894725 -0.05302897 0.057414733 0.031242386 0.02644939 -0.026450813
-0.034146793 -0.032330707 -0.05219405 -0.041026838 -0.059341967 -0.038389474 0.059053175 -0.052758373
-0.022114798 -0.040054277 0.045674905 0.031266935 0.014027938 -0.0045924336 0.032702923 -0.018640712
-0.0131895915 -0.025995508 0.052624844 -0.00067672133 -0.017617851 -0.042924017 0.056327783 -0.022444353
-0.029011011 -0.03389626 -0.028683275 -0.0018459335 0.038341776 0.04115534 -0.051224813 -0.0534333
-0.018705927 -0.059383824 0.021821976 -0.052502632 -0.05463504 -0.039074466 0.05771105 -0.017841108

weight f4 [5, 256]
00000000: 8e34 323d 749e cebc 926c 4dbd 8010 333c
00000010: 5c71 c13c be2e 6c3d e021 3f3d c202 383d
00000020: c0d4 4bbb 14f9 a7bc 3cd5 a9bc 1079 cb3c
00000030: 627d 113d 12d6 463d a49e c53c 54c8 7d3d
00000040: 66f3 6dbd c06e d1bb 5807 6f3c 187f 72bd
00000050: 80a1 6eba 2079 193d a0ff 59bc 0023 663d
00000060: a0f4 ffbc 00c5 ae3b d8eb b93c a00a 4f3b
00000070: 304f fd3b 447c a9bc 88c7 94bc b412 b7bc
00000080: 9414 9e3c d2e5 743d 9422 f4bc 7036 5ebd
00000090: 6884 2dbd e0f3 25bb e842 acbc 6c4c f3bc
000000a0: 3441 1e3d 208b e3bc ccd1 353d 5c86 c83c
000000b0: 2466 993c 18e9 e0bc aebc 1ebd e8ec 663d
000000c0: 0077 89bc 0ea2 083d 1edf 703d 9029 1abd
000000d0: 880f 813c 9ea2 46bd a8c4 c83c aeaf 0abd
000000e0: 7011 d6bc 70ce fcbb f40c 4ebd cc02 383d
000000f0: f06e 9abc 3c84 e0bc b85c 9c3c d0c2 b13c
00000100: e88d 293d 505c fb3c a09a 5b3c 5aac 0a3d
00000110: 70a3 773c 580e 42bc 62cd 683d a81a 1bbd
00000120: 5c15 26bd 7c92 f4bc a4fa 353d c089 51bb
00000130: 80f1 223b 70f4 973b 5c62 d53c 0024 9d3b
00000140: 468d 37bd 643d 0dbd 7814 fb3c 08b3 403c
00000150: 9877 403d d639 3e3d a82d 3c3c 327b 673d
00000160: c081 5abb b4e8 adbc 1481 e93c cc56 2e3d
00000170: b0d0 5fbc 9e7e 30bd a456 5a3d ba6b 7c3d
00000180: ce82 08bd 949e a8bc a8f5 c0bc 60f5 ed3b
00000190: 0420 36bd eeab 48bd 38a3 333d f85b 13bc
000001a0: 625c 523d dec6 3e3d c651 243d 4e32 33bd
000001b0: 6666 58bd 00a9 343a 9696 6fbd 8a97 4bbd
000001c0: 908f e1bc e24b 7f3d 6063 44bb 08b4 0d3d
000001d0: d097 893c 3c01 14bd c0cf 403d 9444 4bbd
000001e0: 5c83 443d 3c3d fcbc 90c4 27bc 4405 193d
000001f0: 2061 86bc c8a9 b8bc 1471 f53c 1c46 cfbc
00000200: 08d2 a23c c4d4 d63c bc4f b63c 3ece 6a3d
00000210: bc8a 393d f03f 853b dc2f 27bd 24c7 34bd
00000220: d2d6 533d b8fb b8bc 3092 f9bc f255 293d
00000230: 804b 2d3a b04b 5bbc f85a 943c aecf 65bd
00000240: 349c 2dbd 5087 dbbb 1cdc 43bd f22c 253d
00000250: ccea ac3c 281f 20bc 4c5b e63c c22c 73bd
00000260: 782e 21bc f6b7 57bd 387a 76bd 9c5d 5f3d
00000270: c4d6 dbbc fc8f 883c 2c21 56bd 5cd8 02bd
00000280: 5e8c 17bd 9035 fe3b 9c69 6cbd 6415 77bd
00000290: 50ca 2ebd e8e9 553d 3ae1 713d dc5b 4abd
000002a0: d893 b1bc e25e 63bd 58b9 a93c a085 1cbb
000002b0: d0b9 5f3c 5a0c 353d 3048 e8bb 52d8 26bd
000002c0: 20f3 d9bb 9633 66bd f8f2 d9bc 6a47 2abd
000002d0: 70d0 38bd 9ce7 c6bc 2443 eb3c 14d6 cf3c
000002e0: 8275 0bbd c0c1 7fbc 101e bdbb b815 283c
000002f0: fe3d 6fbd 80e6 05ba 8c55 cf3c 9ad3 293d
00000300: 0aad 7ebd 9880 593c cc05 9e3c 4c67 28bd
00000310: ec6d 463d 7606 1e3d 08c3 7bbc e6e8 56bd
00000320: 10af dabc 70f8 a2bc 14b6 8dbc 40a7 45bc
00000330: 883a 65bc cc46 d93c c03a 82ba 24ae c13c
00000340: c6bb 12bd 3c3b 8e3c f87f e53c 44f5 96bc
00000350: b2cc 1c3d cc8d 5f3d 4cd2 63bd 3c33 743d
00000360: c089 39bd fc33 f5bc ba73 14bd 3cd3 8ebc
00000370: a068 613d a0b6 38bb 3426 053d d091 f53b
00000380: 92b0 093d 8c9d 5fbd 92cf 58bd b870 1f3c
00000390: b4e8 19bd 9652 15bd 5803 27bd 00c3 463a
000003a0: c0c7 fabb 9a39 79bd f2ec 3b3d d026 ee3b
000003b0: 84a6 ab3c 2035 883b 504e a8bc 2882 373d
000003c0: 589d 323c f499 8d3c 1468 7c3d c44c 0ebd
000003d0: 741d 713d 9034 63bd 7eb2 293d 442a dfbc
000003e0: d4f0 f7bc a01a 3a3c fcea d9bc b89b 5c3c
000003f0: cc1f 823c 10e8 71bd 820f 133d d669 66bd
0.04350715 -0.02522204 -0.05015237 0.010929227 0.023613624 0.057661764 0.046663165 0.044924505
-0.003110215 -0.020504512 -0.02073156 0.024838 0.035519965 0.048543997 0.024123497 0.061958626
-0.05809345 -0.0063913763 0.014589153 -0.059203237 -0.0009103045 0.03746903 -0.013305575 0.056185722
-0.031244576 0.005333543 0.022695467 0.0031592026 0.007730387 -0.020689137 -0.01816155 -0.022347786
0.019296922 0.059789486 -0.029801644 -0.054251134 -0.0423626 -0.0025322363 -0.021027997 -0.029699527
0.0386364 -0.0277763 0.04438953 0.02447813 0.018725462 -0.027454898 -0.038754158 0.056378275
-0.016780376 0.033357672 0.05880653 -0.037637293 0.015754476 -0.048494928 0.024507836 -0.033858947
-0.026131362 -0.007715039 -0.05030532 0.044924542 -0.018851727 -0.027406804 0.01908718 0.02169934
0.041395098 0.030683666 0.013403565 0.033855774 0.01511465 -0.01184424 0.056836493 -0.03786722
-0.040547714 -0.029855005 0.044428483 -0.0031972975 0.0024863183 0.0046372935 0.026047878 0.0047955513
-0.044812463 -0.034482375 0.030649409 0.011761434 0.046989053 0.046441875 0.011485495 0.056513973
-0.0033341497 -0.021229126 0.028503932 0.042563245 -0.013660595 -0.0430895 0.053305283 0.061626174
-0.03332787 -0.020583428 -0.023554638 0.007261917 -0.044464126 -0.04899209 0.04385683 -0.008994095
0.051357634 0.046576373 0.040117048 -0.043749146 -0.05283203 0.0006891638 -0.05849322 -0.049705066
-0.027534276 0.062328227 -0.0029966459 0.03459552 0.016796023 -0.03613399 0.047073126 -0.049625948
0.047976837 -0.030790918 -0.010239735 0.037358537 -0.016403735 -0.022541896 0.029961146 -0.025301985
0.019875541 0.026224501 0.022254817 0.057325594 0.045298323 0.00406646 -0.040817127 -0.044135228
0.05171854 -0.022580966 -0.030465215 0.04134173 0.00066106766 -0.0133847445 0.018109784 -0.056106262
-0.042385295 -0.00669948 -0.047817335 0.040326066 0.021108054 -0.009773053 0.028119706 -0.059368856
-0.009837739 -0.052665673 -0.06017515 0.054532632 -0.026835807 0.01667022 -0.05227773 -0.031944618
-0.0369991 0.00775785 -0.057717904 -0.060323134 -0.04267341 0.052225024 0.059052683 -0.04940401
-0.021676943 -0.05551041 0.020718262 -0.0023883358 0.013655141 0.044201232 -0.0070886835 -0.040733643
-0.006651297 -0.05620154 -0.026605114 -0.041572012 -0.045120656 -0.024280362 0.028718539 0.025370635
-0.03404761 -0.015610158 -0.005771406 0.010259084 -0.05840873 -0.00051078945 0.025309347 0.041461565
-0.06217674 0.013275288 0.019289874 -0.041114137 0.048444673 0.03858038 -0.015366323 -0.052468203
-0.026694804 -0.019893855 -0.017298736 -0.012063801 -0.013991006 0.026523016 -0.0009935722 0.023642607
-0.035823606 0.01736223 0.028015122 -0.018427499 0.03828115 0.054578587 -0.055620477 0.059619173
-0.045297384 -0.029932015 -0.036243178 -0.017434709 0.05503142 -0.0028185025 0.032507136 0.007494189
0.033615656 -0.054593608 -0.05293233 0.009731464 -0.03757544 -0.036455713 -0.040774673 0.0007582158
-0.0076532066 -0.06084595 0.045880266 0.0072678104 0.020953424 0.0041567236 -0.020545155 0.04480186
0.0109017715 0.017285325 0.061622694 -0.03474118 0.05886598 -0.05547005 0.04142999 -0.027241834
-0.030266203 0.011358887 -0.026601307 0.013464861 0.015884303 -0.059059203 0.03590346 -0.056253277

bias f4 [5]
00000000: 5639 2cbd 6032 4ebd 10b5 223d 58c1 76bd
00000010: 18e9 113d
-0.042046867 -0.05034101 0.039723456 -0.06024298 0.035622686
