baseline_models/random-agent-9.pt (torch_old, 595811 bytes, 6 tensors)

weight f4 [256, 294]
00000000: d893 fa3c b89f 1abd 60a1 e83c 0814 5d3d
00000010: b4b8 2cbd 30fb d93c d0ec 433d 3ebf 373d
00000020: 207e 13bd 239f 37bd ae56 3f3d c8c5 1bbd
00000030: 84f1 0cbd c98c 11bd 4668 99bc 6e13 5c3d
00000040: 1ad4 2e3d b488 08bc 513e e3bc 6821 483d
00000050: ca32 5dbd 1075 4c3c 48cd 133c 566a 2f3d
00000060: d22a 95bc e822 f83c 984d 053c ec0b 4f3d
00000070: 1a82 1bbd b8fd 1ebd d41a c33c 840f 0ebc
00000080: a881 b5bc ab74 28bd c016 a2bc 3c60 173d
00000090: 5c83 d13c be66 c7bc 9541 50bd 5408 3c3d
000000a0: 5e0c 1f3d a004 fc3b 08a2 653d 481e 853b
000000b0: 7cdf 9f3c f448 493d 2072 91bc 0a34 403d
000000c0: 5856 ddbc 26f3 1ebd 4443 2a3d a6ec 063d
000000d0: 60ac eb3a cea7 cdbc 3e2c 82bc 23f8 ecbc
000000e0: 7cf9 c33c dcc6 60bd 1219 3cbd 6095 003c
000000f0: 86f4 363d 3aaf 25bd d014 c9bc 51f3 68bd
00000100: 3830 14bd 9e11 533d 1cfc c0bc e448 5d3d
00000110: e069 5abd 040f 493d 9c49 3b3d 4033 3e3c
00000120: 8096 6a3b 98d9 abbb a814 2e3c 1009 4a3b
00000130: 816e 4fbd 66b5 08bd 923b 07bd 00eb 98bb
00000140: 1529 3fbd 6691 663d 000e 3b3a be35 9fbc
00000150: 1168 02bd 7603 54bd 44a0 45bd dbc0 26bd
00000160: 0cc2 53bd 5053 0d3d 79ef 46bd 044f 6cbc
00000170: 5c06 ae3c 10fc dd3c 4812 a73c a887 a5bb
00000180: 9e40 2f3d 62c3 3d3d 0041 793c a0ef bebc
00000190: 202a 00bb ae1f 603d 2159 61bd 80fb 793c
000001a0: 1284 62bd ee8c 5fbd a0e4 3c3c 89be 25bd
000001b0: ee36 2d3d 2e2e 53bd 5cda 31bc 10db 14bd
000001c0: eaa2 91bc feb0 3e3d d4de 85bc a08d 6abd
000001d0: d067 30bb 5600 583d 4cd2 a73c 98aa 6a3d
000001e0: ccb8 1b3d abd6 49bd 5079 35bd acd4 28bd
000001f0: f8d3 a63c c235 1fbd 8009 abba 67d9 3abd
00000200: 36ea 38bd c06f 743a d42b 173d 9dcc 37bd
00000210: 2027 213c 540d 323d 4cf5 023d b07b 853c
00000220: 7ccf 0dbc d621 b7bc 00ee f338 b04e c83b
00000230: 5888 8c3c 2ad2 49bd 9077 783c ba9b 46bd
00000240: f0bc 413d f471 083d 1fd7 30bd 2842 c6bc
00000250: 7641 31bd b0d9 8d3c f63f b7bc 7068 ce3c
00000260: dc96 e03c 80ac efb9 72ac f8bc a786 4cbd
00000270: 8223 80bc d881 67bc 9681 56bd 0654 f1bc
00000280: e44a ad3c be6a 99bc 2cca 173d b09b a43b
00000290: 28d9 493d 4ed3 613d d4ad a33c c8ad acbc
000002a0: 6a87 373d 3248 a8bc b4b1 58bd 307c 37bd
000002b0: 600e 083c 6a25 453d 7839 8fbc 932e 45bd
000002c0: 807f c1ba b878 5bbd 4897 d33c 18db 54bc
000002d0: b8d5 cfbb 90bd 9abb d4a7 f03c 6a25 22bd
000002e0: 8c3c 283d d05c 61bb 2527 54bd d6d9 293d
000002f0: 68f0 7cbc 40ec 9c3c 1b70 45bd 9a99 0fbd
00000300: f840 b43c c679 3e3d 74c1 063d 6832 2f3d
00000310: 4e2f c5bc b409 6fbc 7eb6 e5bc a17f 46bd
00000320: 2e6f b1bc 9556 5cbd 8040 5d3b 5793 2cbd
00000330: e87a e23c 7cf8 ad3c a81f 1dbc 5410 373d
00000340: 48bb 5e3c 84bb 58bd e8f4 30bd b8f5 83bc
00000350: aa80 2e3d 064e 34bd e6be 473d a02d af3b
00000360: 2076 26bc 3e3e 4e3d dc36 31bc 95a3 3ebd
00000370: 60a7 003c 280e 043c 600c 3e3d ee79 403d
00000380: 60f8 49bd d4cb ddbc 00f2 dfba 3094 02bc
00000390: 30aa 09bb 70ed 8abb c88f 11bd 48d5 02bc
000003a0: b410 473d 18a9 5c3c 4071 a7bb 0005 8e39
000003b0: 0817 cebb 6898 df3c e05c 723c 3405 8a3c
000003c0: 10aa b23c 4a7a 423d 106f 57bd 7679 313d
000003d0: 9298 2a3d 2c13 e73c 28be d3bb 266d acbc
000003e0: a022 f93a 608b 3d3c 3eec 363d e012 d43b
000003f0: 9b9e 13bd aa64 143d 601e 933b e4fc 563d
0.030588076 -0.037749976 0.028397262 0.05397418 -0.042168334 0.026609033 0.047833264 0.044860117
-0.036008954 -0.0448295 0.046713524 -0.038030416 -0.034410015 -0.035534654 -0.01872648 0.053729467
0.042682745 -0.008333374 -0.027739676 0.048859984 -0.054003514 0.012479082 0.009021111 0.04282602
-0.018208895 0.030290082 0.008136176 0.05054848 -0.03796587 -0.038816184 0.023816504 -0.008670691
-0.022156551 -0.04112689 -0.019786239 0.03695701 0.025575332 -0.024340983 -0.050843794 0.04590638
0.038830154 0.007690981 0.05606273 0.0040624477 0.019515745 0.04914184 -0.017754614 0.04692463
-0.027018711 -0.038806103 0.041568056 0.03294053 0.0017980449 -0.02510443 -0.015890237 -0.028926915
0.023922674 -0.054877147 -0.045922346 0.007848114 0.04466679 -0.040450312 -0.024546057 -0.05687267
-0.036178797 0.051530473 -0.023557715 0.054024592 -0.053323627 0.049086586 0.045724496 0.011608899
0.0035795271 -0.005244445 0.010625042 0.0030828156 -0.050642494 -0.03337612 -0.033015795 -0.004666686
-0.04667004 0.056291007 0.000713557 -0.019434806 -0.031837527 -0.051761113 -0.048248544 -0.040711265
-0.05169873 0.03450328 -0.048568223 -0.014423136 0.021243267 0.027097732 0.02039446 -0.005051572
0.042786233 0.04632891 0.015213251 -0.023307621 -0.0019556358 0.054717712 -0.05501664 0.015257716
-0.055301733 -0.05457776 0.011529118 -0.04046491 0.042288713 -0.051557712 -0.010855284 -0.036341727
-0.017777879 0.04655551 -0.016341604 -0.05726397 -0.0026917346 0.052734695 0.02048602 0.057291597
0.038018033 -0.04927699 -0.044305146 -0.041218445 0.020364746 -0.038869627 -0.0013049096 -0.045617487
-0.045145236 0.00093245134 0.036907032 -0.04487287 0.009835988 0.043469742 0.031972215 0.01629433
-0.008655425 -0.022355001 0.00011631474 0.006112896 0.017154858 -0.049272694 0.015165225 -0.048488356
0.047299325 0.0333118 -0.043173905 -0.024201468 -0.04327532 0.017315716 -0.022369366 0.025196284
0.027415685 -0.00045714155 -0.030355666 -0.049933102 -0.015641931 -0.014130078 -0.052369677 -0.02945901
0.021153875 -0.018727656 0.03705804 0.005023442 0.049279362 0.055133156 0.019980349 -0.02107896
0.044806875 -0.020542238 -0.052903846 -0.04479617 0.0083042085 0.048131384 -0.017483458 -0.04814012
-0.0014762729 -0.053581923 0.025828972 -0.012991689 -0.006342616 -0.0047223046 0.029376902 -0.039586462
0.041073367 -0.0034387596 -0.051795144 0.04146751 -0.015438177 0.019155622 -0.048202615 -0.035058595
0.022003636 0.04650285 0.032899335 0.04277268 -0.024070408 -0.014589716 -0.02804112 -0.04846156
-0.02165946 -0.05379351 0.0033760369 -0.0421327 0.027646497 0.02123665 -0.009590067 0.044693306
0.013594456 -0.052913204 -0.04320231 -0.016108379 0.042603172 -0.04401972 0.04876604 0.005346015
-0.010159999 0.050352328 -0.010816302 -0.046542723 0.007852405 0.008060016 0.04639852 0.04699128
-0.049309134 -0.027074732 -0.0017085671 -0.007969901 -0.002100598 -0.0042397305 -0.03553751 -0.0079854205
0.048599914 0.0134680495 -0.005109936 0.00027088076 -0.0062893666 0.027294353 0.014792651 0.016848184
0.021809608 0.047479905 -0.05259615 0.043328725 0.04164941 0.028207384 -0.0064618774 -0.02104814
0.0019007511 0.011568874 0.04465889 0.0064719766 -0.03603993 0.036228813 0.004489705 0.05248727

bias f4 [256]
00000000: d806 69bc a01c 92bc 4ecd 533d 2a82 2d3d
00000010: da61 3f3d 3255 2d3d ed50 3cbd e03a be3b
00000020: b6f1 17bd dc4d e3bc a066 423c 14dd 263d
00000030: bdc9 5dbd 9e47 153d 5360 3cbd c485 5fbd
00000040: a68a 8cbc 5af6 6dbd 74bd 5cbd 40b9 b2ba
00000050: 88fa c43c d8e1 993c 109c afbb 3f9c e5bc
00000060: ec81 443d 2ef4 3bbd c01d 9cbb 94b6 853c
00000070: 3655 1b3d 1e07 073d 3850 bfbc c668 8abc
00000080: fc78 923c c00f a03b 487c eb3c 3c64 6ebd
00000090: 7cfa e93c c874 763c 103a 283c c865 293d
000000a0: fa9d 22bd b83b a63c 2a04 61bd b2a9 62bd
000000b0: 40e5 5fbd a45c 72bc f099 ab3c 93ae 54bd
000000c0: 2c98 fe3c ccea 39bd c003 4cba e0fc 2fbc
000000d0: d048 87bc 3fa7 66bd 9ce8 fdbc 8e21 6b3d
000000e0: 54a9 a4bc e0b7 123b 6c7e 453d d4e4 623d
000000f0: 6cbf a23c a050 f83b 8c4c 51bd 10d8 ba3b
00000100: e0f4 1bbc d807 81bb 3207 273d c998 4cbd
00000110: 9c2f ca3c ba2d 653d 783f 9ebb 203f 6dbb
00000120: da62 54bd b449 2b3d 6bdb 4fbd 0020 f4ba
00000130: 132a 39bd 70d0 cabb 9a99 473d d214 16bd
00000140: 5abb 0fbd f4c7 2b3d 10d7 48bd 327b 2f3d
00000150: e857 81bb 461b 4abd 50ba 723c 1817 32bd
00000160: 3834 92bc c0d4 eb3a 00c2 223d 28f0 46bd
00000170: d0ea c5bb e076 ab3b 24b9 583d 6456 453d
00000180: 2ac2 dfbc c41a 4ebc 98b6 b2bc 9791 34bd
00000190: f258 b0bc 6c9f 99bc 5edd 603d ecd2 bf3c
000001a0: fc39 a33c e032 e53a 1696 10bd 4e5a d7bc
000001b0: 806f 41bb 5489 483d 38c0 02bd 605a 543c
000001c0: 9c05 05bd 509c 9abb f610 4dbd 68b5 d93c
000001d0: 6818 58bd c546 0ebd 8827 313d 9072 1e3c
000001e0: 315d ebbc b8fb 2dbc 23ea e6bc ea5b 56bd
000001f0: b076 483b 32c9 61bd d826 33bc 64e1 403d
00000200: d0e4 493d 9e24 a0bc 200c 3abd cc05 a83c
00000210: 302b 963c 6aa6 80bc 2240 4c3d c009 e53c
00000220: 06d5 2a3d 3059 d0bb 8020 8abb 96ac 8abc
00000230: ac12 403d 08d8 e6bb 9e76 0e3d 8cd4 01bc
00000240: 2e36 5b3d 1267 193d a059 023c 00a8 1c3d
00000250: 6c70 ba3c 10b8 1d3c f4ba a5bc e036 80ba
00000260: 3c44 4dbc 5ef2 bebc 2c64 72bc 3c5f 07bd
00000270: cc02 1e3d 98ff 6bbc 98a2 f5bb 042b 563d
00000280: 004e c1ba e0c5 ae3c 4cb0 4dbd 24f0 1ebd
00000290: b073 613c 785f 8e3c a862 aebb c47e c23c
000002a0: 606b bc3c 8097 9cb9 c616 ddbc 7219 103d
000002b0: 0069 92bc 5881 e93c b59d 24bd a0d3 c23b
000002c0: 96b7 b5bc acdb d03c 40f7 ec3c 624f 503d
000002d0: 69ee eabc 50a8 67bd 002c 543c 36b6 46bd
000002e0: 804b 8e3b 22cb 623d 1ea8 dbbc da77 233d
000002f0: 5c8f d23c 686f 45bc 3c2e 0ebd 068a d9bc
00000300: d812 df3c c0fb 96ba 64a5 15bd c0a1 323c
00000310: 7817 f13c 304f fa3b 6c7d 403d 02fc 61bd
00000320: 405c 6cbb 9a84 0c3d fe32 8fbc a24e 3b3d
00000330: 480f 0ebc 0024 0d3c 9402 24bd 5835 763c
00000340: 4211 c7bc b49e 563d 7443 5b3d d4e2 68bc
00000350: c0c4 f13c 4084 313a b0e6 76bc 3ebf 40bd
00000360: ea56 453d d432 6d3d 5011 5a3d 6ed4 1fbd
00000370: 3023 f33c c806 f9bb 9c2f 513d 3058 a83c
00000380: 10fa b83c 9c98 2a3d 18f0 df3c f49b 1cbd
00000390: ded0 013d c4bd d83c 6e87 b8bc 5696 473d
000003a0: cc22 fdbc 2256 b2bc 90d0 72bb 48ec 3ebc
000003b0: c41b 13bd ea2c 21bd 707a 533c f40f 19bd
000003c0: de14 28bd 065d d5bc 386d bdbc 68d2 dabc
000003d0: ad22 52bd 6015 243d c4da 58bc 6f38 fbbc
000003e0: 605e 283b 40fa f13b 8cf9 3dbd 2470 863c
000003f0: c01c b03c 905d 5abb 9cc4 6b3d 00a0 c837
-0.014222823 -0.017835915 0.051709466 0.042360462 0.046724178 0.042317577 -0.045975614 0.0058053583
-0.037095748 -0.027747087 0.011865288 0.04073818 -0.05414747 0.036445253 -0.0459903 -0.05457093
-0.017155956 -0.058096267 -0.053891614 -0.0013635531 0.024045244 0.018784449 -0.0053591803 -0.028028606
0.047975466 -0.045887165 -0.0047642887 0.016322412 0.03792306 0.03296577 -0.023353681 -0.016895663
0.017879955 0.00488469 0.028745785 -0.05820106 0.028561823 0.015042491 0.010267749 0.04135683
-0.03970144 0.020292148 -0.05493561 -0.055337615 -0.05466199 -0.014792595 0.020947427 -0.0519243
0.03107842 -0.045389935 -0.0007782541 -0.010741442 -0.016514212 -0.056311842 -0.030994706 0.057405047
-0.020100273 0.002238743 0.04821627 0.05539401 0.019866668 0.0075779706 -0.05109839 0.005702026
-0.009518832 -0.0039377026 0.040778346 -0.049950395 0.024680905 0.05595181 -0.0048293434 -0.0036200956
-0.051852085 0.041818336 -0.050746363 -0.0018625259 -0.04520614 -0.0061893985 0.04873047 -0.03664095
-0.03509078 0.041938737 -0.049033225 0.042842098 -0.003947247 -0.049342416 0.014814928 -0.043479055
-0.017847165 0.0017992482 0.039735794 -0.048568875 -0.0060399547 0.005232677 0.05291094 0.04817809
-0.027314264 -0.012579624 -0.021815583 -0.044084158 -0.021526787 -0.018752776 0.054898612 0.023416005
0.01992511 0.0017486475 -0.035299383 -0.026288178 -0.0029515922 0.04895909 -0.031921595 0.012961
-0.032476053 -0.004718341 -0.050065003 0.026575759 -0.05275765 -0.03473546 0.04325059 0.0096708685
-0.02873096 -0.010619096 -0.028187817 -0.05233375 0.0030588321 -0.055123515 -0.010934554 0.04708995
0.04929048 -0.01954871 -0.04542172 0.020510577 0.01833114 -0.015704352 0.04986585 0.02795875
0.04170706 -0.006358288 -0.0042153 -0.016927999 0.046892807 -0.007044796 0.03478109 -0.00792421
0.053518467 0.03745181 0.007955939 0.038246155 0.022758685 0.009626403 -0.020230748 -0.0009781979
-0.012528475 -0.023308929 -0.014794391 -0.033049807 0.038576886 -0.0144042 -0.0074961893 0.052287117
-0.0014747977 0.021334589 -0.050216958 -0.038803235 0.013760492 0.017379507 -0.0053218193 0.023742087
0.02300042 -0.00029867515 -0.026988398 0.035180517 -0.017872334 0.028504059 -0.040189464 0.005945638
-0.022182267 0.025495373 0.028926492 0.050856955 -0.028678136 -0.056557 0.012949944 -0.048513614
0.0043424964 0.055369504 -0.026813563 0.03990922 0.025703125 -0.012050487 -0.03471206 -0.026555073
0.027230665 -0.0011519119 -0.036534682 0.010902822 0.029430136 0.0076388344 0.04699461 -0.055171974
-0.0036065727 0.034306146 -0.01748037 0.045729287 -0.0086706355 0.00861454 -0.04004152 0.015027367
-0.024300221 0.052397445 0.053531125 -0.014214236 0.029512763 0.0006771721 -0.015069649 -0.047057383
0.04817859 0.0579098 0.053239167 -0.039020948 0.029679865 -0.0075996853 0.051070794 0.020549864
0.022580177 0.041649446 0.027336165 -0.038234666 0.031693332 0.026457675 -0.022525515 0.048727356
-0.030900382 -0.021769587 -0.0037050582 -0.0116530135 -0.03591515 -0.039349474 0.012907609 -0.03736873
-0.041035526 -0.026045334 -0.023123369 -0.026711658 -0.0513026 0.040059447 -0.013235752 -0.030666558
0.0025691018 0.0073845685 -0.046380565 0.016410895 0.021498084 -0.0033319928 0.05756055 2.3916364e-05

weight f4 [256, 256]
00000000: 802b 093d 006c 68bc 3af9 67bd 4064 023b
00000010: a860 4f3c a085 173b dc75 653d dcf9 edbc
00000020: 3e8c 513d f09d c53b 4030 f63a 909e eebc
00000030: 0cce 343d a41d e4bc cc9d 9fbc 2086 c13b
00000040: 2032 c7bc 60ba ce3b ec40 7cbd 485a 19bc
00000050: e403 22bd 74df b93c 8415 383d 62a0 233d
00000060: 20d6 09bd be0a 5fbd 2a30 2c3d 4e2a 39bd
00000070: 0455 f23c 603a 1ebd e6f0 5fbd ecb5 6abd
00000080: 525f 69bd e08d 4cbc 80ea be3b fe13 76bd
00000090: 780c 753d e00d 8fbb 50d2 18bd 54bb 75bd
000000a0: b0a4 febb 5cb8 373d ec1a 893c 0021 653a
000000b0: 00bb 8dbb e075 403d 38b9 6c3d 905e 64bc
000000c0: 305b 59bd 58de b9bc 4834 b4bc ca6f 43bd
000000d0: 0013 293a fe1c 57bd 0c61 2f3d bcdc c1bc
000000e0: 705a a2bb c443 9bbc f281 3c3d f81f 7e3d
000000f0: f813 1cbc 488a 58bc 22a8 10bd a0dd 32bb
00000100: 60a5 65bb cc88 d5bc d0cf e7bb 60a2 c7bb
00000110: 5c5e d6bc 78b4 a93c 18d7 49bc 729d 5ebd
00000120: 1006 60bd 90cf 573c fcc3 cebc e077 193c
00000130: 0ace 06bd c443 c3bc 2ce8 9a3c 4096 bdbb
00000140: 76c2 64bd 00fd 62bb 40a3 6cbd f038 bcbb
00000150: 24a6 82bc 6ee4 26bd ac11 b8bc 6aee 31bd
00000160: 0027 23ba 84fa 54bd 98be 45bd b003 cfbb
00000170: 5814 2f3c 3465 e53c 2270 6bbd fea5 4f3d
00000180: 8cc8 2ebd 18c1 5c3c 80ed 4e3b dca1 063d
00000190: d87c 353c c88f 7ebd 801a 17ba 80ed abbc
000001a0: 0061 79bd 906e 10bd b8fe 013d 4aac 08bd
000001b0: 40aa cc3a 9085 9cbb 0000 953c 4699 65bd
000001c0: cab9 56bd 6008 a1bc 2699 26bd 70db d13c
000001d0: 6a2e 7fbd 10e3 3abd 4073 e93b 4a4a 7b3d
000001e0: 9ac7 5d3d 20c7 58bd d49b 2ebd 4453 6a3d
000001f0: c0a5 093b acd0 87bc 5c9c 0fbd 9834 3fbc
00000200: 8cce f83c 4033 fe3a feed 673d 8266 1fbd
00000210: 781b 73bd 1824 7ebc bce7 973c 38a4 253d
00000220: 4437 3dbd 40e7 37bb 80d1 ad3b 28e3 1e3c
00000230: bc80 2f3d c622 1f3d 9870 62bc 68bc 53bc
00000240: 5678 3a3d 9024 a4bb d8d2 5e3d 98dc d1bc
00000250: 4c56 abbc 56fd 523d a857 acbc f2a3 553d
00000260: 3478 0c3d c8a6 3d3d 1073 ebbc a438 c83c
00000270: f8ef 7b3d 3293 3dbd 64fa 87bc 5888 9dbc
00000280: 726c 3fbd 3007 71bc 4c5c 51bd dadc 1bbd
00000290: 6ca5 1cbd caa9 263d b2ba 233d d617 2a3d
000002a0: e0c7 7fbb 581b 2ebd 3442 febc 2e79 413d
000002b0: f476 f2bc 7e43 143d d0db 3f3d 4cd0 a93c
000002c0: 4643 253d 1069 4bbc 0014 693a 500b d73b
000002d0: 38de 02bc a831 ac3c 0805 3abc 98ad 393c
000002e0: daf1 243d de9c 1fbd 6010 50bb 30a8 a83b
000002f0: 00e0 f8b9 428f 39bd 5a12 7cbd 40f4 513b
00000300: 3ca8 82bc 263f 6bbd 2efb 513d 604b c5bc
00000310: a8b8 473d 38fb b73c 0c3b fe3c 7279 5c3d
00000320: ec00 f9bc 387d 0abc a444 da3c ee7a 1cbd
00000330: 4ca0 6cbd e0d5 d23b 00b0 0db8 62b8 22bd
00000340: 8c3b ac3c 94b6 48bd 0406 a13c 2823 77bc
00000350: 228d 2a3d 9275 04bd 0c98 76bd 0059 073d
00000360: 9439 a9bc 7800 5dbc 30c1 b1bc 989e 593c
00000370: 56c0 0b3d a4f2 c53c 4276 36bd f8ea 6fbc
00000380: 56f3 7fbd 1c22 d6bc fe85 6cbd f0f1 d93b
00000390: 802c c73c bcba 3f3d a425 18bd c47d 5f3d
000003a0: b22a 6c3d 3c28 53bd 5c43 ae3c 006a f739
000003b0: a064 02bd ba8f 043d 0084 8b39 94fb 60bd
000003c0: 9ca5 0bbd 0004 3fbc 3ea9 0ebd 5c33 9bbc
000003d0: 28d3 3e3d a6ef 7cbd e44e 0c3d c44d 0c3d
000003e0: ecb7 5dbd 00d4 4e3d 30d3 64bd 40b9 82ba
000003f0: fc92 22bd 54d7 bebc 9e36 753d 30c1 d6bb
0.03348875 -0.014185905 -0.056634165 0.001989618 0.012657322 0.0023120418 0.056020603 -0.029049806
0.051159136 0.0060307905 0.001878269 -0.029128343 0.044141814 -0.027846165 -0.019484423 0.0059058815
-0.024315894 0.0063088387 -0.06158535 -0.009359904 -0.03955449 0.022689559 0.044942394 0.039947875
-0.03365147 -0.054453604 0.04203812 -0.04520636 0.029581554 -0.03862989 -0.054673098 -0.0573024
-0.05697567 -0.0124849975 0.0058262944 -0.06007766 0.059826344 -0.0043656677 -0.037309945 -0.059993103
-0.007771097 0.044853553 0.01673647 0.0008740574 -0.0043252707 0.046987414 0.057793826 -0.013938561
-0.05306548 -0.02268903 -0.021997586 -0.047714032 0.00064496696 -0.052517883 0.04281716 -0.023664825
-0.0049546286 -0.018953212 0.046022363 0.062042207 -0.009526245 -0.013216563 -0.035316594 -0.0027292743
-0.0035041198 -0.026066206 -0.0070743337 -0.0060923547 -0.02616804 0.020715937 -0.012319349 -0.05434937
-0.05469328 0.013172045 -0.025239937 0.009366959 -0.032911338 -0.023836024 0.018909536 -0.0057857335
-0.055849515 -0.0034635663 -0.057772875 -0.005744092 -0.015948363 -0.04074519 -0.022469364 -0.04344026
-0.0006223768 -0.051996723 -0.048277467 -0.0063175783 0.010686003 0.028002359 -0.057479985 0.05069541
-0.042671725 0.0134737715 0.0031574667 0.032869205 0.011077128 -0.06214884 -0.00057641417 -0.020987272
-0.060883522 -0.03526169 0.03173706 -0.033367433 0.0015614703 -0.004776664 0.018188477 -0.056054376
-0.052423276 -0.019657314 -0.040673397 0.025617331 -0.062300123 -0.0456267 0.0071243346 0.061350144
0.054145433 -0.052924275 -0.042629078 0.057208315 0.0021003336 -0.016578995 -0.035061225 -0.011670254
0.030371927 0.0019393936 0.05662345 -0.03891612 -0.059352368 -0.015511535 0.018543117 0.040439814
-0.046195284 -0.002806142 0.0053045154 0.009697713 0.04284738 0.038851522 -0.01382079 -0.0129233375
0.045524918 -0.0050092414 0.054400295 -0.025617883 -0.020915173 0.05151113 -0.021037892 0.052158304
0.034294322 0.046301633 -0.02874139 0.02444107 0.06150815 -0.046282955 -0.016598888 -0.019230053
-0.04673428 -0.014711186 -0.05111341 -0.038052417 -0.038243696 0.040689267 0.03997297 0.041526638
-0.0039029047 -0.042506546 -0.031037427 0.047234707 -0.029597737 0.036197178 0.04684049 0.020729207
0.04034736 -0.012415186 0.0008891225 0.006562628 -0.007987551 0.021019772 -0.011353739 0.011332892
0.04026971 -0.03896796 -0.0031748042 0.0051470026 -0.0004746914 -0.045302637 -0.06154094 0.0032036453
-0.015949361 -0.05743327 0.051264934 -0.024083793 0.048760086 0.022458658 0.031034015 0.053826757
-0.030395947 -0.008452706 0.026644059 -0.038203172 -0.05777006 0.0064341873 -3.3780932e-05 -0.039726622
0.021024488 -0.049002245 0.019656189 -0.0150840655 0.0416385 -0.032338686 -0.060203597 0.03304386
-0.020657338 -0.013488881 -0.021698564 0.013282441 0.034118973 0.024163552 -0.044546373 -0.014643423
-0.062487923 -0.026139311 -0.057744972 0.0066511557 0.024313211 0.046808943 -0.037145272 0.0545633
0.057657905 -0.051552042 0.021272354 0.00047190487 -0.031834245 0.03236363 0.00026610494 -0.054927424
-0.034093484 -0.0116586685 -0.03482937 -0.018945388 0.046588093 -0.061751984 0.034254923 0.03425385
-0.05413048 0.050495148 -0.055865467 -0.0009973422 -0.039690956 -0.023296036 0.05986654 -0.0065537915

bias f4 [256]
00000000: 8681 713d e896 c0bc dcb4 a83c c445 28bd
00000010: 30a0 cd3c 1a3c 5abd 4809 e23c 000d 9c3b
00000020: 967e 0cbd 42eb 3cbd 5243 1c3d b8f5 583c
00000030: 6816 0abd 880a f2bc 8279 32bd 9c6a 3bbd
00000040: 8cb8 7bbd c646 49bd d8a0 c2bc ac45 263d
00000050: a8d2 893c 10b5 4c3c e037 1b3d fcc3 b73c
00000060: aaa0 0d3d bef2 17bd f4b6 853c e4d8 c03c
00000070: 6afa 73bd 8840 e7bc 2093 16bc 00d7 f3ba
00000080: 3849 a73c 385c e0bc d005 04bc ba67 2dbd
00000090: 36d1 6c3d f489 0fbd 8408 42bd 6025 b6bb
000000a0: 68fb 0abd 00bc 07b9 2e44 7cbd 2279 1abd
000000b0: 2afd 6d3d bebd 2cbd 6883 fabc 00d6 e93a
000000c0: f835 2cbd 40dc 923c 3074 4bbd 80df c43c
000000d0: 907b c0bc 7074 27bd 1e1e 22bd f8a8 21bd
000000e0: 80d9 5d3a 74db fcbc 147b c93c d068 0fbd
000000f0: 886e 37bc 20dc 983c 50b4 ab3b 5a5b 623d
00000100: 58f0 2fbc a043 443c 0639 203d 5c6c 813c
00000110: 8449 533d d803 463d bec9 3e3d 1aa9 05bd
00000120: 0837 1cbd 00c8 a2b8 b6e0 753d 84cc 54bd
00000130: 1cba 613d c058 063c 82b1 2ebd e832 333d
00000140: a8c6 9f3c e882 ca3c 369e 673d 1ec8 4bbd
00000150: 9886 093d 6e12 13bd 24f7 d2bc 10fd ad3b
00000160: 10d7 27bc fc58 1b3d 083d 0b3d 5cd1 eebc
00000170: e4b0 38bd d45b 8c3c 6049 8a3c 34d7 643d
00000180: 58ea 9fbc 10df 043d 7c85 0a3d 3e09 593d
00000190: 80e9 0ebc e28f 1abd 30f1 85bc b061 52bc
000001a0: a0ac 653c ec07 1dbd 80df 1f3a e8ad 55bd
000001b0: c046 88bb 50e0 d3bc 6095 71bd 1a4c 50bd
000001c0: 30d5 8c3b ec7a 83bc 0a12 533d 9298 56bd
000001d0: 70ae adbb 5cc3 51bd c80d 5dbc 7060 903c
000001e0: 802e 593b 7252 46bd 9c09 fb3c a0bd 643d
000001f0: 28a1 4cbc fa98 14bd 7046 3c3d b0a1 5e3c
00000200: 803b 50bc ae1e 5bbd 1853 f23c 50cc 3fbc
00000210: 1882 bebc 5c7a f43c 5cf9 7c3d f42d 373d
00000220: 6af9 76bd 4a3c 593d a811 96bc f030 b6bb
00000230: 8af1 73bd b417 c73c 2083 55bb 7a62 423d
00000240: 44ad f53c 781f 453c 047f 84bc 60eb 5d3d
00000250: dcee 2bbd b0ee 113d d036 2f3d e628 6d3d
00000260: 709a c4bc 2aee 40bd 709f 2cbc 8056 113c
00000270: fa98 14bd c046 0ebc 6c01 ffbc 3ce1 a1bc
00000280: 00b8 f1b8 900b 16bc 3096 aa3b 3cbb e0bc
00000290: d8a6 84bc 2228 51bd b87a c63c 9482 7dbd
000002a0: 3055 833c 2657 753d 989b 28bd ca26 22bd
000002b0: c4d2 383d 96fc 793d 101a 51bc dc7f d0bc
000002c0: 8cd1 53bd 3a2c 073d f884 2f3c d8a3 4cbc
000002d0: 604b 8d3b 1e5b 353d 7c20 9f3c d6d4 13bd
000002e0: 2472 13bd f05f 0f3c 90e0 66bd c643 2abd
000002f0: c0cd 423c 5a23 4ebd 2cdb c23c 4067 95bc
00000300: b221 1fbd 94f0 7c3d 34da 213d 54e1 ebbc
00000310: 1003 2f3d 902e 36bd a850 383c 32aa 65bd
00000320: 7e66 0cbd 40d9 edbc 40cb 76bd 908b 113c
00000330: 9a18 33bd b674 48bd ba67 603d b855 0b3d
00000340: cc79 26bd 50eb f53b 8c7c 393d 30ae 143d
00000350: f0a2 5d3c c0b3 a9ba 5266 47bd 889c 87bc
00000360: 8af3 193d 3050 f9bb f003 383d 3c3f 27bd
00000370: 50e3 8e3c a86b 333d 4218 003d 8a19 2a3d
00000380: 9a25 4fbd d881 1e3d 04ea b8bc f46f d3bc
00000390: 20d0 25bd 808a 0fba 0841 debc bc1f 9cbc
000003a0: 367c 5fbd 38fa 073d fcf4 573d 706c 9bbc
000003b0: 80e8 c3ba c0a9 203d f8d4 31bd f006 99bc
000003c0: 8022 7abb 3aba 3cbd 80e3 02bc 2c4b d63c
000003d0: 4e73 0e3d 603e cdbb 9072 dfbc 1884 78bc
000003e0: b0db 8f3b 90be c93c 720d 2a3d b46e a0bc
000003f0: 9cf2 0a3d 74b2 93bc 6065 5fbd a0ba cfbc
0.058961414 -0.023509458 0.020594053 -0.04108216 0.025100797 -0.053279974 0.027592316 0.004762292
-0.03430041 -0.046122797 0.03815014 0.013242178 -0.033712775 -0.029546037 -0.04357291 -0.045755967
-0.061455294 -0.04913976 -0.023758337 0.040593788 0.016824082 0.012494341 0.037895083 0.02243232
0.03457705 -0.03709673 0.01632259 0.023540922 -0.059564985 -0.028229013 -0.009190351 -0.0018603504
0.020420656 -0.027387723 -0.008058026 -0.04233525 0.057816707 -0.03504367 -0.047371402 -0.0055586547
-0.033931166 -0.00012944639 -0.06158846 -0.037713178 0.058102764 -0.04217314 -0.030580238 0.0017840266
-0.042043656 0.017927289 -0.049671352 0.024032354 -0.02349642 -0.040882528 -0.039579503 -0.03946778
0.0008462891 -0.030866362 0.024594821 -0.035012066 -0.011195786 0.018659651 0.005240001 0.0552629
-0.010738455 0.011979014 0.03911688 0.01579874 0.05158378 0.04834351 0.046579115 -0.03263197
-0.03813842 -7.762015e-05 0.060028754 -0.051952854 0.05510913 0.008199871 -0.042649753 0.04374972
0.019503906 0.024720624 0.056547366 -0.049751393 0.033575624 -0.035906248 -0.025752611 0.0053097084
-0.010244146 0.03792666 0.03399375 -0.029152565 -0.04509057 0.01713363 0.016880691 0.055869296
-0.019520923 0.03243929 0.033818707 0.05298733 -0.008722663 -0.037734874 -0.016350359 -0.012840673
0.014018208 -0.038337633 0.0006098673 -0.052167803 -0.0041588247 -0.025863796 -0.058980346 -0.050853826
0.004297875 -0.016049825 0.051530875 -0.052391596 -0.0053003356 -0.0512117 -0.013492055 0.01762411
0.0033139288 -0.04841847 0.03064423 0.055844903 -0.0124895945 -0.036278702 0.045965612 0.013588354
-0.012709498 -0.053496055 0.029580638 -0.011706427 -0.023255393 0.029843502 0.061761245 0.04472156
-0.060296454 0.05303601 -0.018318966 -0.005560033 -0.05955652 0.024303295 -0.0032579377 0.047457196
0.029989846 0.0120314285 -0.016173847 0.05417955 -0.04197584 0.03562802 0.042776883 0.057900332
-0.023999423 -0.04710213 -0.01053606 0.008870721 -0.036278702 -0.00868386 -0.031128608 -0.01976072
-0.00011526048 -0.00915803 0.005205892 -0.02743303 -0.016192839 -0.051063664 0.024228439 -0.061892107
0.016031832 0.059897564 -0.04116401 -0.039587773 0.045122877 0.0610319 -0.012762561 -0.025451593
-0.05171351 0.033001162 0.010712855 -0.012490235 0.004311964 0.04427635 0.01942467 -0.036091648
-0.035997525 0.008750901 -0.056366503 -0.04156854 0.011889875 -0.050326683 0.02378615 -0.01823771
-0.038850494 0.06175287 0.039514735 -0.028793968 0.04272753 -0.044478 0.011249699 -0.056070514
-0.03427743 -0.029034257 -0.060252428 0.008883372 -0.043724634 -0.04893943 0.05478642 0.034017295
-0.0406435 0.007504858 0.045284793 0.03629893 0.013527617 -0.0012947246 -0.048681565 -0.016554132
0.037585773 -0.007608436 0.04492563 -0.04083179 0.017442375 0.04380384 0.031273134 0.041528262
-0.05057297 0.038698047 -0.022572525 -0.02581022 -0.040481687 -0.0005475655 -0.027130619 -0.0190581
-0.054561816 0.03319761 0.05272387 -0.018972605 -0.001494661 0.039224386 -0.043415993 -0.018680066
-0.0038167536 -0.046076037 -0.007988811 0.026158892 0.034777932 -0.006263539 -0.027276307 -0.015168212
0.0043902025 0.024627 0.04151673 -0.019584037 0.033922777 -0.018029429 -0.054540038 -0.025357544

weight f4 [5, 256]
00000000: c4f8 7bbd 400b de3c 6687 3a3d f04a 5ebd
00000010: 40cb 12bd c6fc 113d ea35 53bd c4dc f53c
00000020: 6caa fc3c 6642 683d 38c5 693d ee23 4abd
00000030: 9ece 693d f8e3 1fbc d052 13bd a442 f83c
00000040: 107b 27bd 9046 b2bc 50c7 f33c 7472 bebc
00000050: e260 2bbd 9cc9 a9bc 42b1 0dbd c832 3dbc
00000060: 3434 c2bc 2ae6 723d bc85 8e3c 8c72 123d
00000070: 7c0d 6d3d 2272 123d eade 2bbd d69d 53bd
00000080: 5693 733d e483 90bc 34dd b13c 48b0 1bbd
00000090: e270 70bd 4000 943a baf5 75bd 6ca4 0a3d
000000a0: b0eb 00bd 90f0 5c3d 1871 40bd fca5 533d
000000b0: a694 283d 0203 04bd 5074 ef3b da9f 4abd
000000c0: 401f 6e3b 569c 433d 9236 6cbd 4828 f8bc
000000d0: 306f 383c 249a 6e3d 3016 213c 52b8 64bd
000000e0: 903c 7b3d 600c 44bd eaa8 4e3d 6861 7a3d
000000f0: c07d 95ba d0c6 f0bc 043f 563d 443e 853c
00000100: ec97 7ebd c01d 12bd 9000 5abc e08d ccbb
00000110: 80c5 9eba ccde 20bd b473 ea3c e0fa a73c
00000120: 1c4a b03c 8cb8 44bd a05c 603c 388f 053c
00000130: de91 46bd 6824 ed3c 7c0f ac3c 9ca1 ccbc
00000140: 26da 083d 94c8 fa3c b634 56bd e00a d5bb
00000150: c48b 183d 2e47 20bd e2c1 49bd 001a 2eba
00000160: f444 fabc f0d7 42bd 705f 91bb 2034 5d3d
00000170: 046c b43c 54be 583d 94db 2f3d 283a 363d
00000180: bc1d bdbc 98ad 023d d238 203d 4e84 4fbd
00000190: 2043 bc3c 8487 fabc 721a 0ebd 96c0 49bd
000001a0: 3e49 283d 1073 93bc 8043 303b 4012 f13c
000001b0: a8fe 38bc 1a7c 623d 0049 dbbb 200e 91bb
000001c0: e8b8 ba3c d802 31bd ca98 073d d8ec 013d
000001d0: 70ad c53b b4bd cc3c 04f4 8bbc 385d 0e3d
000001e0: 6829 40bc 3a48 25bd c2c3 32bd 5c70 ce3c
000001f0: 623d 65bd 10be e03b 4074 483d 800b f13a
00000200: 92ea 45bd e43f 8dbc 300a 04bd 0815 7cbc
00000210: 36c6 583d 8853 2bbc 1cfe 9d3c b88c e1bc
00000220: 1680 5dbd e82f dc3c 8af0 7abd 6c27 a7bc
00000230: 661c 65bd d059 5cbd 789c 32bc 0ccd 643d
00000240: 0a56 783d 8021 533b c243 7cbd c09f 673b
00000250: 7862 613c 947f 003d e016 a83c 10b4 813c
00000260: 9cac 743d 00f2 df3b 88a2 63bd 800e debc
00000270: dc85 323d 3e31 223d 3416 b4bc 682b bb3c
00000280: 5064 073d b66b 403d 5c92 ae3c a036 533d
00000290: 786d c1bc e0f6 1d3c 2098 12bb 5420 903c
000002a0: 6c6e 00bd 0a87 1bbd 70b9 5d3d 347e c03c
000002b0: 2ccc 16bd 3017 383c aaa9 3dbd 14b2 6fbd
000002c0: 6466 673d 6cbb 4d3d cc78 49bd 98e9 b9bc
000002d0: 44e3 9bbc d086 96bb 2af5 52bd b8e4 3ebd
000002e0: 38d1 f4bc d072 313c d676 0c3d bc7b 26bd
000002f0: 905a 43bd 7651 1cbd 10dd 9b3b 3653 3a3d
00000300: bc0e 023d 10b3 243c 72ac 27bd 782f 27bd
00000310: 58ec 91bc 6e44 193d 6657 013d 701d 2ebc
00000320: ca13 61bd ee15 113d 5af0 753d f0e6 47bc
00000330: 68f7 de3c 20d9 783c 9000 493c d04a 92bc
00000340: 0091 b4bb baa8 743d 6c0f b03c 2c36 483d
00000350: 80be 423a 8895 e7bc 7efc 183d 9853 3d3c
00000360: e432 023d a05e da3c 509d cbbc b009 7f3d
00000370: 4066 413b 78e3 fe3c dc77 52bd 10f3 14bc
00000380: 0879 1dbd dcfd 8cbc 0a75 4a3d 3882 fe3c
00000390: 1030 86bc feb0 7fbd eca5 1cbd b027 b03b
000003a0: 6e26 02bd b44c 7ebd f04a 353d c2ca 263d
000003b0: 50ef 1ebc 8408 043d 0a23 283d 44a2 a73c
000003c0: 20d6 d93b 34bc edbc 04e9 5e3d 203b 4cbb
000003d0: e2c6 5b3d 12d3 523d c041 953c 8421 d83c
000003e0: f805 863c c4e0 39bd 3856 6b3d baaa 7c3d
000003f0: a823 8ebc 4894 4dbd 0043 cd39 72f7 6e3d
-0.06151654 0.027104974 0.045539282 -0.054270685 -0.035838366 0.035641454 -0.05156509 0.030012496
0.030842982 0.056703947 0.057072848 -0.04935067 0.05708181 -0.009758942 -0.035967648 0.030305214
-0.040888846 -0.021762162 0.029758126 -0.023247935 -0.04184044 -0.020726018 -0.034592874 -0.011547752
-0.023706533 0.059301533 0.017397754 0.03575377 0.057874188 0.035753377 -0.041960634 -0.051664196
0.059466682 -0.017641015 0.021711923 -0.03800991 -0.058701403 0.0011291578 -0.060048796 0.03384821
-0.03147477 0.053940356 -0.046982855 0.051671967 0.041157387 -0.03222943 0.0073075667 -0.049468853
0.0036334544 0.047756515 -0.05766923 -0.030292645 0.011256978 0.05825247 0.00983195 -0.055839844
0.061337054 -0.047863364 0.050454058 0.06112805 -0.0011405274 -0.029391676 0.05230619 0.016265042
-0.062156603 -0.035672903 -0.013305798 -0.0062424988 -0.0012113303 -0.039274976 0.028619625 0.020505369
0.021519713 -0.04802756 0.0136939585 0.008151822 -0.048478954 0.028948024 0.021003477 -0.024979405
0.033411168 0.030613221 -0.052296363 -0.0065015405 0.037242666 -0.039130382 -0.049257167 -0.00066414475
-0.030550458 -0.047569215 -0.004436426 0.05400479 0.022024162 0.052915886 0.042934015 0.044489056
-0.023085468 0.031903833 0.039116688 -0.050663285 0.022981226 -0.030582197 -0.03469319 -0.04925593
0.041085474 -0.017999202 0.0026895702 0.029427648 -0.0112911835 0.055294134 -0.006692052 -0.0044267327
0.022793248 -0.043215603 0.033104695 0.031720012 0.0060326383 0.024992801 -0.01708413 0.03475687
-0.011728622 -0.040352084 -0.04364372 0.025200062 -0.055966742 0.0068585947 0.04893899 0.0018390268
-0.048319407 -0.01724238 -0.032236278 -0.015385874 0.052923404 -0.010456927 0.019286208 -0.02753292
-0.05407723 0.026878312 -0.061264552 -0.02040454 -0.055935286 -0.05379659 -0.010901563 0.05585961
0.06062893 0.0032216012 -0.061588056 0.003534302 0.013756387 0.031371668 0.02051872 0.01583293
0.059734926 0.0068342686 -0.055574924 -0.027106524 0.04358469 0.039597742 -0.021983244 0.022847846
0.03305465 0.04697772 0.021310024 0.051565766 -0.02361177 0.009641379 -0.0022368506 0.01759354
-0.031355307 -0.03797058 0.054131925 0.023497678 -0.036815807 0.011235997 -0.046304382 -0.058519438
0.05649413 0.050227568 -0.049187467 -0.022694394 -0.019029267 -0.0045937076 -0.051503338 -0.046604842
-0.02988492 0.010830596 0.03429302 -0.040645346 -0.04769379 -0.038163625 0.0047565773 0.045489512
0.031752333 0.010052457 -0.04093594 -0.040816754 -0.017812893 0.037418775 0.03157749 -0.010627136
-0.054950513 0.035421304 0.06004367 -0.012201056 0.027217582 0.015188485 0.0122682005 -0.017857939
-0.0055104494 0.059731223 0.021491729 0.048879787 0.00074288994 -0.028269544 0.03735017 0.011555575
0.031786814 0.026656449 -0.024855286 0.062265098 0.0029510409 0.031114325 -0.051383838 -0.009091154
-0.038445503 -0.017210893 0.049428023 0.031067953 -0.01638034 -0.062424652 -0.038244173 0.005375825
-0.03177493 -0.06208487 0.04426092 0.04072071 -0.009700611 0.032234684 0.04104904 0.020463116
0.00664784 -0.029020406 0.05442144 -0.003116317 0.053656466 0.051470824 0.018219829 0.026383169
0.016360268 -0.04538037 0.05745527 0.061686255 -0.017350987 -0.05019024 0.00039150566 0.05834145

bias f4 [5]
00000000: 1af5 5a3d e09f ba3b d602 2fbd d02e 083c
00000010: b0d4 cfbb
0.053456403 0.005695328 -0.042727314 0.008311942 -0.006342493
