baseline_models/random-agent-4.pt (torch_old, 595867 bytes, 6 tensors)

weight f4 [256, 294]
0.032436617 0.015161552 0.01701396 -0.041558027 0.029420465 0.027702346 0.009781174 0.03021074
-0.004754994 -0.017907325 -0.0043672845 -0.052421413 -0.015683793 0.02784419 -0.034239978 0.04807201
-0.019982867 0.026097998 0.046179213 0.037226453 0.033981763 -0.031134825 0.045002274 0.025301948
-0.03172321 0.020891495 0.05639217 0.027678631 -0.033335198 -0.032919228 -0.03818624 8.046627e-05
-0.043343615 0.04821855 -0.039470535 0.05050566 -0.04627148 0.0061874613 0.020547427 -0.034823824
-0.038197435 0.037528247 0.05088958 -0.0064210743 0.054074667 0.020177267 -0.021000009 -0.027268454
-0.042566255 -0.0072631873 0.036149286 0.016422726 0.022312514 0.039552204 -0.056041047 0.017023452
0.05045645 0.03516049 0.04375273 -0.0043201745 0.03010901 -0.021425601 0.056426458 -0.0071279556
-0.046768002 -0.04347742 -0.044562597 0.043308333 0.025858223 0.022484325 -0.02739843 0.04026246
0.004510671 -0.052736767 0.056142107 -0.015304331 -0.0014661625 0.021488748 -0.055287905 -0.051716004
0.05531711 0.05248023 -0.053204678 -0.010492407 -0.037338503 -0.016789813 -0.02072766 -0.012180734
-0.029927522 -0.011470262 -0.055462085 -0.04949852 0.055750012 -0.052152306 0.0076266006 -0.01801226
0.020206183 -0.052160982 0.03899526 0.0045189783 0.010123171 -0.010447793 -0.032284416 0.044585355
0.025645025 0.0055284947 0.049552433 0.008629203 -0.035815254 -0.014298167 0.024574354 -0.044118628
-0.016166825 0.00881584 0.017661192 -0.036062177 -0.043682385 0.017597213 -0.0040207207 -0.058286693
-0.048022207 0.031228192 0.041377418 -0.026968159 -0.004338309 0.012011528 0.008387953 -0.045788698
0.027632155 -0.043347515 0.044129796 0.021485798 0.017580241 -0.0043905675 0.0066664517 -0.02813287
-0.049000096 -0.0316386 -0.05688336 -0.05475475 0.012893878 0.056875147 0.043432236 0.0409261
-0.020242117 -0.057140067 0.0015196204 0.003450293 -0.041937068 0.0025805272 0.029198185 -0.005419988
-0.05504054 0.05401706 0.018392853 -0.0016358979 -0.036060065 0.021507978 0.012860216 0.002642762
0.035834223 -0.02290975 -0.027486393 0.052799895 0.030083857 0.033510968 0.027073406 0.0025885217
0.041982003 0.0027822778 -0.054850616 0.015585266 -0.026451468 0.051108696 -0.026049118 -0.025276013
0.004421644 -0.03706271 -0.029044932 -0.026687752 0.030345723 0.03878618 0.005230047 0.0461203
0.04165253 -0.04933496 -0.030159496 -0.009697329 0.04480079 -0.025742427 0.00891979 0.016316004
0.03190983 0.027895719 -0.008897465 -0.028490636 0.048739403 0.025621265 -0.025609996 0.04674322
-0.037071794 0.037443355 -0.051922493 -0.037267923 -0.023366142 0.05566635 0.047181718 0.030206561
-0.010831673 -0.0086229965 -0.026117802 0.04010663 -0.0016665645 0.0036493577 0.020197593 -0.024744362
0.033382066 0.05023496 0.04286944 0.023920089 0.001261171 0.054118603 0.052940078 -0.046939027
-0.014260568 -0.01617435 -0.057410277 0.015871651 0.054813877 0.029480994 0.046945214 0.018574692
-0.003447909 0.022953793 0.00026394054 0.0034174807 -0.027881728 -0.0035420395 0.043289408 0.015617691
-0.054112192 0.034186006 0.0074270666 0.048822783 -0.024257608 0.023929588 0.025289409 -0.054920588
-0.029097965 -0.046575066 -0.0058266893 -0.024954006 0.02696909 -0.0031739846 -0.041333035 -0.013165511
00000000: 42dc 043d 2868 783c dc60 8b3c c038 2abd
00000010: 3003 f13c 08f0 e23c 3841 203c 847c f73c
00000020: c8cf 9bbb 62b2 92bc 701b 8fbb d6b7 56bd
00000030: 4c7b 80bc 8019 e43c 383f 0cbd 28e7 443d
00000040: 1cb3 a3bc 78cb d53c 6a26 3d3d c47a 183d
00000050: 7630 0b3d 760e ffbc 4e54 383d 0846 cf3c
00000060: 32f0 01bd a424 ab3c 7afb 663d 4cbe e23c
00000070: 7d8a 08bd 50d6 06bd 2d69 1cbd 00c0 a838
00000080: 1389 31bd d080 453d dbab 21bd 06df 4e3d
00000090: 2a87 3dbd 30c0 ca3b 1453 a83c 6da3 0ebd
000000a0: ea74 1cbd 38b7 193d 9871 503d e067 d2bb
000000b0: 667d 5d3d cc4a a53c 3608 acbc 1862 dfbc
000000c0: f459 2ebd 0800 eebb 4611 143d f488 863c
000000d0: bcc8 b63c 7e01 223d 4c8b 65bd c474 8b3c
000000e0: 6cab 4e3d 7204 103d 1036 333d 4090 8dbb
000000f0: 2ca7 f63c be84 afbc 6e1f 673d a091 e9bb
00000100: ce8f 3fbd 6115 32bd 4587 36bd 1464 313d
00000110: a0d4 d33c 0c31 b83c ac72 e0bc 40ea 243d
00000120: 40ce 933b 8202 58bd 44f5 653d 04bf 7abc
00000130: 402c c0ba 2c09 b03c 9275 62bd 29d4 53bd
00000140: 3294 623d 82f5 563d 26ed 59bd 58e8 2bbc
00000150: 42f0 18bd ca8a 89bc 0ecd a9bc b491 47bc
00000160: 902a f5bc c4ed 3bbc 362c 63bd f6be 4abd
00000170: 205a 643d a89d 55bd 90e8 f93b 728e 93bc
00000180: 7087 a53c c1a6 55bd 7eb9 1f3d f013 943b
00000190: a8db 253c 382d 2bbc aa3c 04bd 229f 363d
000001a0: 8415 d23c 6028 b53b 7ef7 4a3d 8061 0d3c
000001b0: 04b3 12bd dc42 6abc 2850 c93c bcb5 34bd
000001c0: 4a70 84bc 5070 103c 34ae 903c efb5 13bd
000001d0: 4dec 32bd 0828 903c 40c0 83bb 07be 6ebd
000001e0: efb2 44bd 44d2 ff3c 5e7b 293d 54ec dcbc
000001f0: 6028 8ebb 00cc 443c a06d 093c ee8c 3bbd
00000200: d45c e23c 2a8d 31bd 72c1 343d fc02 b03c
00000210: 7004 903c c0de 8fbb 4072 da3b e876 e6bc
00000220: 53b4 48bd 7a97 01bd 87fe 68bd 8446 60bd
00000230: d840 533c eaf5 683d 00e6 313d 20a2 273d
00000240: ccd2 a5bc b40b 6abd 002e c73a 501e 623b
00000250: 34c6 2bbd 101e 293b 0831 ef3c 289a b1bb
00000260: 3072 61bd fe40 5d3d 9cac 963c a06b d6ba
00000270: b8b3 13bd 8031 b03c a8b3 523c 3032 2d3b
00000280: e8c6 123d 3aad bbbc 252b e1bc b444 583d
00000290: 6c72 f63c cc42 093d 0cc9 dd3c 30a4 293b
000002a0: 52f5 2b3d e056 363b 0aab 60bd 5859 7f3c
000002b0: c0b0 d8bc 5a57 513d f664 d5bc a40f cfbc
000002c0: 70e3 903b 11cf 17bd a3ef edbc 46a0 dabc
000002d0: 9897 f83c 42de 1e3d d060 ab3b a4e8 3c3d
000002e0: d89b 2a3d 7413 4abd 0c11 f7bc 8ce1 1ebc
000002f0: 0881 373d c8e1 d2bc 5024 123c 24a9 853c
00000300: e2b3 023d 9085 e43c acc6 11bc 3265 e9bc
00000310: f8a2 473d b0e3 d13c 0ecc d1bc d275 3f3d
00000320: 98d8 17bd 345e 193d aeac 54bd 40a6 18bd
00000330: 5a6a bfbc 6602 643d 9e41 413d c073 f73c
00000340: 5477 31bc 7847 0dbc 00f5 d5bc da46 243d
00000350: a070 daba 102a 6f3b 6c75 a53c b0b4 cabc
00000360: a2bb 083d 2cc3 4d3d de97 2f3d 10f4 c33c
00000370: e04d a53a 78ab 5d3d b2d7 583d 2343 40bd
00000380: 28a5 69bc 1280 84bc 0a27 6bbd 4405 823c
00000390: 8484 603d 2082 f13c a049 403d f429 983c
000003a0: 50f6 61bb 9809 bc3c 8061 8a39 d0f7 5f3b
000003b0: 3968 e4bc 9021 68bb 3c50 313d 58e1 7f3c
000003c0: bfa4 5dbd a006 0c3d c05e f33b 66fa 473d
000003d0: e4b7 c6bc fc07 c43c bc2b cf3c 69f4 60bd
000003e0: db5e eebc 7fc5 3ebd d0ed bebb 586c ccbc
000003f0: 48ee dc3c a002 50bb d44c 29bd 28b4 57bc

bias f4 [256]
-0.014096469 -0.027389642 -0.058089018 0.019710429 -0.028712362 0.0028535537 0.021081023 -0.03211145
-0.039628368 -0.028898625 -0.05174879 -0.053823348 0.0523123 0.021828733 -0.037510563 -0.05746667
-0.04565681 0.018943325 -0.042150356 -0.012502633 -0.027980223 -0.0276619 -0.031188289 -0.012901939
0.041500874 0.032849275 -0.04312226 -0.051334664 -0.014475364 -0.03546146 0.0056406185 -0.015109904
0.014947228 -0.03501668 -0.05241263 0.005022235 -0.0052467547 -0.03286979 0.026065834 -0.039876767
0.026057057 0.049745224 0.034486204 -0.035739586 -0.03804157 -0.034012664 -0.017493177 0.018815741
-0.007242147 0.03831616 0.0014557615 0.03891231 -0.04434625 -0.026302554 -0.057300422 0.0055178106
-0.004250776 0.0527611 -0.04092193 -0.012100004 0.014489077 -0.025672548 0.04891956 0.013457283
-0.05553162 -0.051464416 -0.00041205063 -0.01453514 -0.05328779 -0.034691684 -0.01021019 -0.012895815
-0.018763274 -0.05299329 0.042920046 0.01852329 -0.049375825 0.04505343 0.05018565 -0.039480597
-0.02609925 -0.004213609 -0.006764546 0.018269971 0.0027258657 0.043041475 -0.011185244 0.03375853
-0.036119882 -0.002525024 -0.04155915 0.008826889 0.0013902299 -0.055243097 -0.045047283 0.0067555755
-0.021344654 0.054591738 -0.03940788 -0.05206369 0.035257533 -0.053076927 -0.0012536757 -0.0018931255
0.03739939 -0.045929812 0.012780353 -0.014112044 -0.0012634508 0.024999142 -0.057180207 -0.006150417
0.049175322 0.02090349 0.041711316 0.00676091 -0.01429091 -0.045934193 -0.014479723 -0.04241728
-0.030540323 -0.004356988 0.00039843097 0.009660929 0.014232159 0.0011384524 -0.026890937 -0.048438936
-0.044435415 -0.05115368 -0.053000875 0.011482105 0.038031124 0.034887873 -0.010637261 0.024672993
-0.024229258 -0.038499385 -0.055074647 0.0005984083 0.047970094 0.038419537 0.039027207 -0.0314281
0.041162185 0.025887094 -0.015451677 0.038357988 0.011797816 -0.053391997 -0.025028035 -0.008353647
0.019959174 0.029757552 -0.04364119 0.0039612837 -0.055826344 0.0065223053 -0.043380253 0.020315103
0.0430239 0.009783044 -0.040041655 -0.0016953759 0.017362855 -0.02097299 0.015376575 0.006471783
0.036284417 0.034569986 0.018836722 0.0104022175 -0.03125262 -0.05084381 0.03597177 -0.04044874
0.024658069 0.026982725 -0.001705464 0.05528567 -0.008246474 -0.017938104 0.02837722 0.033077747
-0.02493029 -0.057042196 -0.010062747 -0.045403235 0.012308672 0.03552726 0.049512595 0.0067144632
-0.0060992166 -0.004814159 0.00068833306 -0.018120341 -0.030020392 -0.024133973 -0.011380553 -0.02679786
0.042294115 -0.002452962 -0.041065045 0.021069549 -0.016878415 0.027532473 -0.03994915 0.007719636
-0.0028336346 1.3001263e-06 -0.040289342 -0.009524483 -0.053213973 -0.035586666 -0.043263752 0.042336263
0.03083533 -0.00036605075 -0.027083889 -0.027281018 -0.0051130652 -0.058287293 -0.035197906 0.03597617
0.056827515 -0.04889112 -0.05436645 -0.049772747 -0.0098202415 0.036100797 0.040922843 -0.047120824
-0.05812464 0.012014583 -0.04598706 -0.03789577 -0.052797843 0.02076076 -0.05250872 -0.0016521327
-0.020827685 -0.05294216 0.05493044 -0.022642296 0.01654493 -0.046465337 0.02185639 -0.016579598
0.045443535 0.02481354 -0.049483344 0.031368375 -0.0055333674 0.037739836 0.014693633 -0.003046874
00000000: e0f4 66bc 3e60 e0bc c0ee 6dbd c477 a13c
00000010: 3036 ebbc b002 3b3b 1cb2 ac3c 4c87 03bd
00000020: 5b51 22bd cfbc ecbc 8af6 53bd df75 5cbd
00000030: 6c45 563d 2cd2 b23c ada4 19bd 2c62 6bbd
00000040: a302 3bbd 082f 9b3c daa5 2cbd d8d7 4cbc
00000050: c836 e5bc 359b e2bc 957e ffbc a862 53bc
00000060: d2fc 293d f68c 063d f8a0 30bd 4c44 52bd
00000070: 142a 6dbc 0940 11bd f0d4 b83b 888f 77bc
00000080: 38e5 743c a66d 0fbd a0ae 56bd 9091 a43b
00000090: f8ec abbb 79a2 06bd 0488 d53c d255 23bd
000000a0: 9c75 d53c a6c1 4b3d 6841 0d3d ac63 12bd
000000b0: 7ad1 1bbd dd50 0bbd da4d 8fbc 7823 9a3c
000000c0: 884f edbb 68f1 1c3d 40cf be3a 8462 1f3d
000000d0: 6aa4 35bd 7478 d7bc d9b3 6abd c0ce b43b
000000e0: 184a 8bbb 061c 583d c19d 27bd 183f 46bc
000000f0: 9863 6d3c 3c4f d2bc e05f 483d f07b 5c3c
00000100: 2075 63bd 5acc 52bd 8008 d8b9 cc24 6ebc
00000110: 4c44 5abd de18 0ebd a448 27bc f848 53bc
00000120: 70b5 99bc 7e0f 59bd eecc 2f3d 28be 973c
00000130: 4e3e 4abd f289 383d 788f 4d3d 68b6 21bd
00000140: 18ce d5bc 5012 8abb 20a9 ddbb e8aa 953c
00000150: 70a4 323b 424c 303d 5042 37bc 6246 0a3d
00000160: 71f2 13bd e07a 25bb ed39 2abd a89e 103c
00000170: 6038 b63a 9646 62bd 8083 38bd e05d dd3b
00000180: fcda aebc 969b 5f3d 286a 21bd bc40 55bd
00000190: 346a 103d 3167 59bd 6052 a4ba c022 f8ba
000001a0: 1a30 193d e620 3cbd b064 513c 3436 67bc
000001b0: 609a a5ba 00cb cc3c cb35 6abd 7089 c9bb
000001c0: 106c 493d cc3d ab3c 7cd9 2a3d a08a dd3b
000001d0: 6c24 6abc 7e25 3cbd 5c3c 6dbc bebd 2dbd
000001e0: b32f fabc 10c5 8ebb 80e4 d039 e048 1e3c
000001f0: 002e 693c 2038 953a 624a dcbc e867 46bd
00000200: e901 36bd 8586 51bd 7217 59bd 701f 3c3c
00000210: 86c6 1b3d 96e6 0e3d e847 2ebc 041f ca3c
00000220: 707c c6bc 88b1 1dbd f495 61bd 80de 1c3a
00000230: 4a7c 443d ce5d 1d3d feda 1f3d c0ba 00bd
00000240: ae99 283d 2c11 d43c 0829 7dbc 441d 1d3d
00000250: a04b 413c 91b1 5abd 9807 cdbc bcdd 08bc
00000260: 6c81 a33c 1cc6 f33c 1bc1 32bd a8cd 813b
00000270: 2aaa 64bd 10b9 d53b 7eaf 31bd dc6b a63c
00000280: d439 303d 1049 203c b802 24bd 6037 deba
00000290: 8c3c 8e3c 8ccf abbc 08ee 7b3c 4011 d43b
000002a0: f89e 143d 4299 0d3d 784f 9a3c 106e 2a3c
000002b0: bf02 00bd 9941 50bd 2257 133d 94ad 25bd
000002c0: b8ff c93c e00a dd3c e089 dfba 3a73 623d
000002d0: 381c 07bc eef2 92bc 5877 e83c 887c 073d
000002e0: 9c3a ccbc 14a5 69bd 38de 24bc bef8 39bd
000002f0: 50aa 493c 0885 113d b8cd 4a3d 0005 dc3b
00000300: f0db c7bb 18c0 9dbb 4071 343a 1c71 94bc
00000310: 53ed f5bc 9cb4 c5bc 8075 3abc 3087 dbbc
00000320: 983c 2d3d e0c1 20bb d233 28bd 0c9a ac3c
00000330: 9a44 8abc c88b e13c b8a1 23bd 00f5 fc3b
00000340: 80b4 39bb 0080 ae35 7006 25bd 940c 1cbc
00000350: e5f6 59bd 53c3 11bd 5535 31bd ca68 2d3d
00000360: 609a fc3c 80ea bfb9 08df ddbc 717c dfbc
00000370: 808b a7bb a8be 6ebd ae2b 10bd c05b 133d
00000380: f8c3 683d 0e42 48bd 5baf 5ebd 82de 4bbd
00000390: 14e5 20bc 6ede 133d b69e 273d c401 41bd
000003a0: 1a14 6ebd d0d8 443c ed5c 3cbd 9838 1bbd
000003b0: 8d42 58bd 7812 aa3c 6213 57bd 608c d8ba
000003c0: d29e aabc e1d9 58bd befe 603d 567c b9bc
000003d0: 3c89 873c 7052 3ebd 2c0c b33c f0d1 87bc
000003e0: 0023 3a3d c445 cb3c 0caf 4abd 207c 003d
000003f0: 4051 b5bb 1695 1a3d 90bd 703c 10ae 47bb

weight f4 [256, 256]
0.060277656 -0.015437946 -0.00495445 0.041599058 0.030499019 -0.036273688 -0.026316956 0.05373364
-0.022377789 -0.042240106 -0.012400538 -0.057826094 -0.007268138 0.007714823 0.005594097 0.01740031
-0.061586477 0.05583202 -0.057192095 0.048778497 0.014900088 0.00036166608 -0.031977177 0.0038151816
-0.032370143 0.041079804 -0.0131267905 -0.02044838 -0.040899433 0.027441204 0.05978115 0.034936443
-0.0016854033 0.04910955 -0.03575618 0.009267606 -0.057792783 -0.05968322 -0.0013500229 -0.030126207
0.018672809 -0.02328866 -0.058408268 -0.057345502 -0.028877169 0.021159142 0.05580066 -0.06089422
0.058460303 -0.04188364 0.012130894 -0.05891989 -0.04671193 0.029246524 -0.008772515 0.029066436
0.013285279 0.004093662 -0.056209154 -0.018493973 0.061900914 0.012251586 -0.026355974 -0.05235853
0.026948564 -0.01555676 0.041535355 -0.037461758 -0.043251872 -0.046535276 0.03260432 -0.057020247
-0.00065434724 -0.046894826 0.050355442 -0.039789036 -0.051870853 -0.0010545403 0.05125065 -0.01898355
-0.020850107 0.016076572 0.03719779 -0.058724307 -0.044827357 -0.061082475 -0.06149117 -0.001757741
0.06057415 -0.02775617 0.026104629 0.021990493 0.01670596 0.012177952 -0.027184643 -0.041777022
-0.017962232 -0.055337526 -0.015184559 -0.01265543 -0.009989142 0.055340312 0.0020955652 0.00779216
0.003165044 -0.022657998 0.044790022 -0.02805449 -0.019371249 0.013307914 0.018031895 -0.045824938
-0.04137577 0.0032568425 0.031108446 -0.03170781 0.009381644 0.013401575 0.023398288 -0.02179718
0.045007385 -0.022626221 0.061944775 -0.020569712 0.025636561 -0.0059310645 0.029791676 0.015828893
-0.018258862 -0.0173686 -0.015519775 0.046208017 -0.022174396 0.027169839 -0.034277752 0.045238428
-0.017620549 -0.029601298 -0.0063887686 0.0435645 -0.04175979 -0.054496564 -0.047358327 -0.061580606
-0.009113193 0.039781965 -0.058633186 -0.04667715 0.058062524 0.04756622 -0.018391222 0.029786207
-0.0023237988 0.0036305338 0.00773333 0.03595686 0.026445605 0.010786109 -0.029324353 -0.051065102
0.02739054 0.04512158 0.033214174 0.024968214 0.030765444 0.025064588 0.060720854 -0.05323066
0.054195598 0.040849395 -0.052653387 0.004289463 -0.0330498 -0.03115213 -0.04632476 0.024571858
0.04672148 0.009022832 0.061191306 0.02161219 -0.04519389 -0.033909187 0.022236899 0.045472667
0.022394255 -0.0018419176 0.00053729117 0.05318041 -0.047219284 -0.032208532 -0.04644783 -0.020365886
0.048163928 0.05008582 0.023487002 -0.018445663 -0.009025075 0.02024784 -0.053639792 -0.026594311
0.0017781928 -0.018140316 -0.022939794 -0.02980797 -0.034836143 -0.018844165 -0.04292289 -0.043977804
-0.004654065 -0.017183132 0.01782053 -0.010303684 0.019887306 -0.04175397 0.03557118 0.055706203
-0.027312227 -0.03290285 -0.039891362 -0.03747575 0.021631904 0.04411672 -0.040548533 -0.028681546
0.007194534 0.040872328 -0.04338365 0.012543656 0.010516316 0.025637932 0.023283377 -0.05107324
-0.016541965 0.022002734 0.049957328 -0.018960126 0.009215757 0.05595386 -0.03863301 -0.020070992
-0.06121125 -0.03781321 0.029864125 -0.05827371 -0.060242824 0.055128276 0.04320603 0.02846945
-0.04507254 0.032991655 0.014485635 -0.0013597012 -0.010477148 -0.041637033 0.013074085 0.04193276
00000000: b4e5 763d 70ef 7cbc f058 a2bb c663 2a3d
00000010: 14d9 f93c b893 14bd a896 d7bc ce17 5c3d
00000020: a051 b7bc f603 2dbd a02b 4bbc 0edb 6cbd
00000030: 9029 eebb a0cc fc3b b04e b73b 188b 8e3c
00000040: 1a42 7cbd 1eb0 643d 4242 6abd f6cb 473d
00000050: 801f 743c 009e bd39 80fa 02bd 2008 7a3b
00000060: 8e96 04bd 4c43 283d c011 57bc 5c83 a7bc
00000070: 2a86 27bd 60cc e03c 14dd 743d 8419 0f3d
00000080: c0e8 dcba 1827 493d 1275 12bd 28d7 173c
00000090: 20b8 6cbd 6476 74bd 40f3 b0ba 3ccb f6bc
000000a0: b8f7 983c dcc7 bebc 823d 6fbd 1ee3 6abd
000000b0: d08f ecbc f055 ad3c 3c8f 643d 386c 79bd
000000c0: 1274 6f3d 2e8e 2bbd a8c0 463c fc55 71bd
000000d0: 0255 3fbd 6896 ef3c 98ba 0fbc bc1c ee3c
000000e0: 80aa 593c 2024 863b 923b 66bd ac80 97bc
000000f0: d08b 7d3d e0ba 483c 7ce8 d7bc e675 56bd
00000100: 3cc3 dc3c c8e1 7ebc fa20 2a3d 8071 19bd
00000110: e028 31bd c69b 3ebd 1c8c 053d 108e 69bd
00000120: 8088 2bba ca14 40bd 8241 4e3d d4f9 22bd
00000130: 8876 54bd 8038 8aba 34ec 513d 6483 9bbc
00000140: d8cd aabc 04b3 833c b65c 183d e688 70bd
00000150: e49c 37bd 9e31 7abd 2ade 7bbd 0064 e6ba
00000160: 9a1c 783d e860 e3bc 60d9 d53c 6825 b43c
00000170: f0da 883c 0886 473c 54b2 debc 621e 2bbd
00000180: 8825 93bc 9aa9 62bd a8c8 78bc b858 4fbc
00000190: 80a9 23bc 86ac 623d c055 093b 6055 ff3b
000001a0: a06c 4f3b 449d b9bc be75 373d 88d2 e5bc
000001b0: 74b0 9ebc 7009 5a3c a0b7 933c eeb2 3bbd
000001c0: a479 29bd c070 553b 24d7 fe3c 0ce0 01bd
000001d0: 78b5 193c 4892 5b3c c4ad bf3c 0090 b2bc
000001e0: aa59 383d a05a b9bc ceb9 7d3d d081 a8bc
000001f0: c403 d23c 6059 c2bb ac0d f43c 98ab 813c
00000200: 9c93 95bc 9848 8ebc a846 7ebc 9e44 3d3d
00000210: 14a7 b5bc 4893 de3c d466 0cbd ee4b 393d
00000220: f858 90bc 6c7e f2bc e058 d1bb b070 323d
00000230: 500c 2bbd ca37 5fbd cefa 41bd f23b 7cbd
00000240: 804f 15bc 6af2 223d 5a29 70bd 8a30 3fbd
00000250: f8d2 6d3d ccd4 423d 30a9 96bc 3402 f43c
00000260: e04a 18bb 40ee 6d3b e067 fd3b 8047 133d
00000270: 74a4 d83c 38b8 303c a039 f0bc a429 51bd
00000280: 2062 e03c 68d1 383d 960b 083d 248a cc3c
00000290: d007 fc3c 4054 cd3c 6eb6 783d 6408 5abd
000002a0: 34fc 5d3d b251 273d 14ab 57bd a08e 8c3b
000002b0: 3a5f 07bd c032 ffbc 08bf 3dbd ec4a c93c
000002c0: 065f 3f3d 80d4 133c bca3 7a3d 0c0c b13c
000002d0: 3a1d 39bd 5ce4 0abd 282a b63c 8c41 3a3d
000002e0: 2874 b73c 806c f1ba 00d9 0c3a b4d3 593d
000002f0: 0269 41bd 18ed 03bd 1440 3ebd 5cd6 a6bc
00000300: 8a47 453d ca26 4d3d d067 c03c 5c1b 97bc
00000310: e8dd 13bc ccde a53c 66b5 5bbd 50dc d9bc
00000320: 4012 e93a 009b 94bc 3cec bbbc d82f f4bc
00000330: 58b0 0ebd 145f 9abc eacf 2fbd 1222 34bd
00000340: 2081 98bb a4c3 8cbc 5cfc 913c c8d0 28bc
00000350: b4ea a23c 3606 2bbd 16b3 113d 302c 643d
00000360: e4bd dfbc 24c5 06bd 2065 23bd 2c80 19bd
00000370: 6435 b13c bcb3 343d 3816 26bd 90f5 eabc
00000380: 20c0 eb3b be69 273d 0eb3 31bd e883 4d3c
00000390: a04c 2c3c a406 d23c c8bc be3c 2c32 51bd
000003a0: 0483 87bc 143f b43c 0ea0 4c3d 4452 9bbc
000003b0: b0fd 163c e02f 653d a63d 1ebd ec6b a4bc
000003c0: a6b8 7abd 06e2 1abd 9ca5 f43c 6ab0 6ebd
000003d0: 2ec1 76bd 30ce 613d cef8 303d c438 e93c
000003e0: fc9d 38bd 4222 073d 2855 6d3c 0038 b2ba
000003f0: 58a8 2bbc 988b 2abd b034 563c b0c1 2b3d

bias f4 [256]
-0.0094091445 0.020727694 -0.014651582 0.019543141 0.04324694 0.0024892613 0.06228429 -0.036969
0.03363979 -0.011881843 0.016801775 -0.03482619 0.044380866 -0.054438442 -0.054009907 -0.048163287
-0.041291907 -0.05081851 -0.030327171 0.04233072 -0.052695014 0.019552939 -0.056958996 -0.016257383
-0.03221389 0.031823978 -0.01907938 -0.026026212 0.013839878 -0.019497178 0.037997343 0.011691354
-0.025482506 0.061948434 -0.05662574 0.026023738 -0.0071243644 -0.04046666 -0.00708507 -0.039919354
-0.052377068 -0.060268126 0.026359782 -0.055730015 0.044386543 0.050451867 -0.0072558597 -0.030103534
-0.0005331412 0.002227284 -0.011141606 -0.02526515 0.043331563 -0.032107346 -0.043924958 0.03508558
-0.0147245005 -0.046005055 -0.026102476 -0.047468185 -0.018976644 -0.0570914 -0.056768566 -0.020233251
-0.037870534 -0.035253175 0.013276719 0.05148316 0.018101998 -0.04647112 0.003434196 0.01904115
0.015966006 0.0051004738 -0.012890212 -0.03279373 -0.0151953995 0.0064663887 -0.0026106536 0.0101346
0.0076375604 -0.053047948 -0.055381134 -0.0077715516 -0.062431768 0.00032816082 -0.02901657 0.014141396
-0.02126564 -0.009143472 0.04827881 -0.0027319044 -0.035348535 0.050210997 -0.018309131 0.008517131
-0.04980754 0.014508881 -0.062340572 -0.036950745 0.037802905 -0.05623573 -0.027303085 0.062283643
-0.011422634 0.0025486425 0.026826076 -0.052272536 0.0039474517 -0.0308977 0.025377043 0.031130932
0.0389534 -0.02184555 0.059028536 0.013714008 0.01149632 0.008765444 -0.043630734 -0.012540743
-0.044145733 -0.0034676567 0.042711593 -0.01616276 0.005946927 -0.02728735 0.02755794 -0.009465173
-0.016580708 -0.018681794 -0.0013376027 0.028383613 0.0076512247 -0.059239693 0.0150133595 0.033138886
-0.05094531 -0.007546507 0.05089663 0.0396268 0.016934283 0.006883234 -0.06018941 -0.045010947
0.0023603141 0.019791938 -0.012693919 -0.06054087 0.04744401 -0.022210144 -0.0031040385 -0.061041668
0.040083215 -0.056656234 -0.024430692 -0.013700463 0.02353751 -0.021723285 0.020363681 0.059075803
0.001540184 -0.037128642 0.008142531 -0.011443615 0.05021496 0.02738098 -0.046516508 0.027059391
-0.017443992 -0.032477997 -0.022001036 -0.011123106 -0.030157812 -0.025718205 -0.04428593 -0.05919496
-0.011969142 -0.057252176 -0.022509307 0.031192891 -0.059582956 -0.0019973963 -0.014266886 -0.0613084
-0.039515465 -0.051156893 0.05194825 0.040889956 -0.053151235 0.054695345 0.021527775 0.048273727
-0.05146485 -0.015067242 -0.0151190385 0.017494842 0.0024464428 0.0033174828 0.015607521 -0.037089728
0.020388544 -0.01772169 0.04032158 0.059919395 0.023430169 -0.00092030317 -0.0077056587 -0.021188982
0.053274438 -0.058616094 -0.010221399 0.061951652 -0.03018611 -0.060688145 0.032179236 -0.011472687
0.035224542 0.044535592 -0.0015472695 -0.015932232 0.0076770633 -0.016749859 0.05894561 0.021602064
-0.00085631013 -0.029117621 0.053644165 -0.011440612 -0.02123949 0.061015256 -0.029708073 0.008630186
0.05797352 0.013276093 0.055537812 -0.0098652765 0.0063838214 0.035283096 0.06034621 0.01885239
0.054849215 0.007824823 -0.061581604 0.0390658 -0.04987818 -0.0022527575 0.018790446 -0.016233213
-0.031922005 -0.04406085 -0.011649102 -0.053871147 -0.026338816 -0.020844407 -0.05576265 0.060671322
00000000: d028 1abc 20cd a93c 300d 70bc f018 a03c
00000010: b423 313d e022 233b d01d 7f3d ce6c 17bd
00000020: e0c9 093d 10ac 42bc e0a3 893c e8a5 0ebd
00000030: b6c8 353d d8fa 5ebd 7e39 5dbd de46 45bd
00000040: b421 29bd 1227 50bd b070 f8bc fa62 2d3d
00000050: bad6 57bd 7c2d a03c d64d 69bd 342e 85bc
00000060: b6f2 03bd dc59 023d 5c4c 9cbc ec34 d5bc
00000070: a8c0 623c 8cb8 9fbc 1aa3 1b3d 188d 3f3c
00000080: b0c0 d0bc a4bd 7d3d 64f0 67bd bc2f d53c
00000090: 8073 e9bb 5ec0 25bd e029 e8bb 7a82 23bd
000000a0: 5689 56bd b6db 76bd 78f0 d73c 2845 64bd
000000b0: aace 353d 9ea6 4e3d 90c2 edbb b09b f6bc
000000c0: 80c2 0bba a0f7 113b 488b 36bc dcf8 cebc
000000d0: 707c 313d fe82 03bd a8ea 33bd e6b5 0f3d
000000e0: 083f 71bc cc6f 3cbd dcd4 d5bc 006e 42bd
000000f0: e874 9bbc acd8 69bd 2886 68bd 34c0 a5bc
00000100: 221e 1bbd a265 10bd 9886 593c 02e0 523d
00000110: a44a 943c 8058 3ebd 4010 613b 30fc 9b3c
00000120: 24cb 823c e021 a73b 7831 53bc b852 06bd
00000130: 20f6 78bc 00e4 d33b 8017 2bbb 980b 263c
00000140: 8044 fa3b ce48 59bd 54d7 62bd 80a8 febb
00000150: 74b8 7fbd 000d ac39 28b4 edbc 50b1 673c
00000160: 4835 aebc 80ce 15bc 00c0 453d c009 33bb
00000170: a0c9 10bd 0caa 4d3d 08fd 95bc 708b 0b3c
00000180: fe02 4cbd a8b6 6d3c d458 7fbd aa59 17bd
00000190: 38d7 1a3d 7057 66bd b8aa dfbc 221d 7f3d
000001a0: 0026 3bbc 2007 273b 5cc2 db3c ba1b 56bd
000001b0: a059 813b 2c1d fdbc 84e3 cf3c 4c06 ff3c
000001c0: 9a8d 1f3d 70f5 b2bc e8c7 713d b8b0 603c
000001d0: 105b 3c3c f09c 0f3c 24b6 32bd b077 4dbc
000001e0: 28d2 34bd a041 63bb 5af2 2e3d c467 84bc
000001f0: 70de c23b b889 dfbc 30c1 e13c d013 1bbc
00000200: 44d4 87bc 900a 99bc 8052 afba c084 e83c
00000210: 20b7 fa3b 52a5 72bd 98fa 753c a4bc 073d
00000220: 08ac 50bd b048 f7bb fc78 503d b64f 223d
00000230: c4b9 8a3c c08c e13b 2c89 76bd 665d 38bd
00000240: 80af 1a3b b422 a23c 28fa 4fbc b4f9 77bd
00000250: a654 423d 0cf2 b5bc 206d 4bbb d406 7abd
00000260: 4c2e 243d 5e10 68bd e022 c8bc e877 60bc
00000270: bcd1 c03c 08f5 b1bc bcd1 a63c 78f9 713d
00000280: 00e0 c93a 3414 18bd 4068 053c 007e 3bbc
00000290: 34ae 4d3d 144e e03c 1888 3ebd a8ab dd3c
000002a0: b4e6 8ebc a607 05bd 843b b4bc b03d 36bc
000002b0: 840d f7bc fcae d2bc 2a65 35bd 6a76 72bd
000002c0: 381a 44bc 4281 6abd 7065 b8bc 3c88 ff3c
000002d0: 420d 74bd c0e6 02bb a8bf 69bc 841e 7bbd
000002e0: f8da 21bd e489 51bd b0c7 543d 3a7c 273d
000002f0: 1cb5 59bd 3a08 603d 045b b03c acba 453d
00000300: cecc 52bd 98dc 76bc d8b5 77bc 5851 8f3c
00000310: 8054 203b 206a 593b b0b6 7f3c 66eb 17bd
00000320: e005 a73c 142d 91bc 3e28 253d 0a6e 753d
00000330: a0f0 bf3c 8040 71ba c07f fcbb 8494 adbc
00000340: 4c36 5a3d 6e17 70bd a877 27bc 04c1 7d3d
00000350: dc48 f7bc 2294 78bd 60ce 033d f0f7 3bbc
00000360: 9c47 103d f46a 363d c0cd caba 5084 82bc
00000370: e08f fb3b 0037 89bc f470 713d d0f6 b03c
00000380: 007a 60ba 1488 eebc fcb9 5b3d 6871 3bbc
00000390: 70fe adbc 22eb 793d 585e f3bc a065 0d3c
000003a0: a475 6d3d f883 593c 9e7b 633d f8a1 21bc
000003b0: 602f d13b 0285 103d 962d 773d 5470 9a3c
000003c0: 92a9 603d b033 003c fe3c 7cbd 7603 203d
000003d0: 104d 4cbd 00a3 13bb 6cee 993c 84fb 84bc
000003e0: a6c0 02bd 2679 34bd e0db 3ebc fea7 5cbd
000003f0: 80c4 d7bc e4c1 aabc 6067 64bd 7e82 783d

weight f4 [5, 256]
-0.033079028 -0.024953201 -0.025679126 -0.008179337 0.019646116 0.009842597 -0.0614539 0.058269814
-0.0362475 -0.01125323 -0.038661703 0.05391997 -0.01202134 0.01790934 0.05942104 0.015639633
0.05884166 0.029664718 0.014757954 0.013874754 0.041052185 0.009171508 0.002101466 -0.03297794
0.0008498728 -0.02942808 0.021574825 0.002300486 -0.060420558 -0.009072661 0.0003944412 0.027114153
0.035282932 -0.045243457 0.012369536 0.0056696683 0.043904886 -0.020668522 0.017454393 0.025653534
-0.05388716 -0.037465274 -0.034255296 0.042983547 0.028837234 -0.004219696 -0.02840238 0.06103216
-0.024212308 -0.03896206 0.06090548 -0.03374128 -0.038501166 0.044794224 0.016072445 0.030244097
0.024807706 -0.042654 -0.057191744 0.0055735484 -0.016988583 0.043300383 0.017538205 0.045018062
0.009225838 -0.033330902 0.049132638 -0.017636552 0.056388132 0.009093158 0.0018463135 0.03652267
0.03380803 -0.009193391 0.056793436 0.06037298 -0.022177994 0.049734987 0.021644168 0.062249668
0.062272877 0.05502882 -0.04806205 -0.05503284 -0.017038338 -0.05315727 0.0074328035 0.00058704615
-0.01669573 -0.0024640486 0.055708222 0.043269254 -0.02226869 0.054261737 -0.016138487 0.059291728
0.008091658 -0.03874682 -0.061758213 0.0023993328 -0.026049435 0.012965634 0.03420382 0.026328258
-0.009697042 -0.013336234 -0.052040547 -0.050814644 0.05558999 -0.009136744 -0.015464097 -0.054265223
-0.037256047 0.05702111 0.021178812 -0.036228076 -0.053022645 -0.0087894425 0.051363364 0.054544926
-0.053465314 -0.016932853 0.0092545375 -0.041278794 -0.05047681 -0.007865116 -0.030123368 -0.03366396
-0.05915057 -0.04099702 0.005270846 -0.05200381 0.006017819 -0.05364375 -0.0039890856 0.047795646
0.015431613 -0.04747712 -0.03543123 0.03523975 0.05860915 0.011447541 -0.035305746 -0.014065079
0.027631544 0.014273457 0.046497226 -0.03941293 -0.012897916 0.05827412 0.03463815 0.009331897
0.045698255 0.013116352 -0.029619753 -0.018917881 -0.03313174 -0.010450371 -0.04513508 0.03338991
0.00014406443 0.035856172 0.049575023 -0.016261876 0.044657312 0.060368568 -0.05162298 0.05281204
-0.05409751 -0.012512647 0.0005043596 0.040401615 -0.057821825 0.037697725 0.004879944 -0.0025112703
-0.010730378 0.037891194 0.026518285 0.060273044 0.05200105 -0.04069589 -0.0069764033 -0.052955933
-0.05531113 -0.031005777 0.033035897 -0.02428852 0.020669855 -0.03023544 -0.06129644 -0.03488463
0.059130527 0.06124921 -0.04817143 0.022879027 0.026542589 0.025215372 -0.019132882 0.010107502
0.04009182 -0.04907155 -0.024422295 0.005469434 0.028362855 -0.056516193 0.014670096 0.033604585
0.0080997795 0.037857853 0.059038356 -0.00218679 0.03478366 0.044846885 0.012923092 -0.030042417
-0.032984212 -0.02073428 0.058950253 -0.02118124 0.055274613 0.009013325 0.021987043 -0.02832359
0.025622591 0.018561177 0.02086293 -0.046152823 0.024690464 0.034533754 -0.042623922 -0.015101798
-0.052741446 -0.004865803 -0.0010148585 -0.0488573 0.0119289085 -0.017233402 0.041179158 -0.040820822
0.008526027 0.05241196 0.020075828 -0.008289866 0.042391196 0.0045919493 0.026485845 0.05395723
-0.034904256 -0.051248126 0.020728223 -0.016477063 0.018640764 -0.018383957 0.015964702 0.017213628
00000000: e07d 07bd a86a ccbc 085d d2bc a002 06bc
00000010: e4f0 a03c d842 213c 16b7 7bbd 54ac 6e3d
00000020: 4278 14bd 785f 38bc bc5b 1ebd 30db 5c3d
00000030: 28f5 44bc 9cb6 923c 7a63 733d b01e 803c
00000040: f403 713d 6c03 f33c 58cb 713c f052 633c
00000050: 5626 283d 1844 163c c0b8 093b e013 07bd
00000060: 00ca 5e3a 2813 f1bc b0bd b03c c0c3 163b
00000070: 8c7b 77bd 80a5 14bc 00cd ce39 801e de3c
00000080: d684 103d 3451 39bd 98a9 4a3c a0c8 b93b
00000090: 9cd5 333d 0851 a9bc 84fc 8e3c 5c27 d23c
000000a0: c8b8 5cbd 3075 19bd 484f 0cbd 840f 303d
000000b0: 103c ec3c 6045 8abb 1cac e8bc dcfc 793d
000000c0: e458 c6bc ae96 1fbd 0678 793d 4c34 0abd
000000d0: 66b3 1dbd 267a 373d 5caa 833c 78c2 f73c
000000e0: 8839 cb3c f6b5 2ebd e441 6abd 50a2 b63b
000000f0: a42b 8bbc be5b 313d 48ac 8f3c dc64 383d
00000100: f827 173c fc85 08bd 4e3f 493d 887a 90bc
00000110: 3ef7 663d 78fb 143c 0000 f23a cc98 153d
00000120: 4a7a 0a3d e09f 16bc 3ca0 683d a849 773d
00000130: a0ae b5bc eab6 4b3d 1c4f b13c 82f9 7e3d
00000140: d811 7f3d e665 613d b6dc 44bd 1e6a 61bd
00000150: fc93 8bbc 70bb 59bd e08e f33b 00e4 193a
00000160: 7cc5 88bc e07b 21bb 4e2e 643d 1a3b 313d
00000170: d46c b6bc 8e41 5e3d dc34 84bc e2db 723d
00000180: e092 043c fcb4 1ebd 2ef6 7cbd 203e 1d3b
00000190: a065 d5bc d06d 543c 4e19 0c3d 5cae d73c
000001a0: 58e0 1ebc 3880 5abc 7828 55bd 0423 50bd
000001b0: 54b2 633d 48b2 15bc 205d 7dbc 3645 5ebd
000001c0: cc99 18bd f88e 693d 307f ad3c e463 14bd
000001d0: 462e 59bd 9801 10bc 6462 523d 806a 5f3d
000001e0: 72fe 5abd c4b6 8abc 58a0 173c f413 29bd
000001f0: c6c0 4ebd b0dc 00bc 48c5 f6bc 38e3 09bd
00000200: de47 72bd 7eec 27bd 10b7 ac3b f201 55bd
00000210: 2031 c53b 8cb9 5bbd e0b6 82bb 5ec5 433d
00000220: e0d4 7c3c 5e77 42bd 5620 11bd 8e57 103d
00000230: 2610 703d 788e 3b3c c29c 10bd 3871 66bc
00000240: 8c5b e23c 38db 693c e073 3e3d 746f 21bd
00000250: c851 53bc d8b0 6e3d bce0 0d3d d0e4 183c
00000260: 182e 3b3d f8e5 563c 20a5 f2bc acf9 9abc
00000270: 26b5 07bd 0838 2bbc 90df 38bd dcc3 083d
00000280: 0010 1739 ecdd 123d 2e0f 4b3d a037 85bc
00000290: 96ea 363d 0845 773d 9e72 53bd 7051 583d
000002a0: 5a95 5dbd d801 4dbc 0037 043a 2a7c 253d
000002b0: 94d6 6cbd ee68 1a3d f0e7 9f3b 2094 24bb
000002c0: 78ce 2fbc cc33 1b3d e03c d93c dee0 763d
000002d0: 0eff 543d bcb0 26bd 509a e4bb 52e8 58bd
000002e0: ec8d 62bd d4ff fdbc a650 073d b8f8 c6bc
000002f0: d453 a93c 50b0 f7bc fa11 7bbd 30e3 0ebd
00000300: da32 723d 74e0 7a3d 684f 45bd cc6c bb3c
00000310: d86f d93c 7890 ce3c 90bc 9cbc f099 253c
00000320: 5237 243d 40ff 48bd 4411 c8bc f038 b33b
00000330: 3859 e83c 867d 67bd d85a 703c f6a4 093d
00000340: f0b4 043c d610 1b3d 34d2 713d 4050 0fbb
00000350: 5079 0e3d 5eb1 373d 60bb 533c 841b f6bc
00000360: 741a 07bd f0da a9bc d275 713d 4884 adbc
00000370: a267 623d a0ac 133c 2c1e b43c e006 e8bc
00000380: 78e6 d13c 9c0d 983c bce8 aa3c be0a 3dbd
00000390: a843 ca3c 4473 0d3d 6c96 2ebd 886d 77bc
000003a0: 6a07 58bd 5071 9fbb 0005 85ba 981e 48bd
000003b0: 7871 433c 102d 8dbc 7aab 283d bc33 27bd
000003c0: c0b0 0b3c ecad 563d 1076 a43c 38d2 07bc
000003d0: 64a2 2d3d 1078 963b d8f8 d83c 4202 5d3d
000003e0: c4f7 0ebd 8ee9 51bd 3cce a93c e8fa 86bc
000003f0: 84b4 983c f499 96bc 68c8 823c 9803 8d3c

bias f4 [5]
0.01260943 0.022792429 -0.04141914 -0.00084694475 -0.020999596
00000000: c897 4e3c 30b7 ba3c 1ea7 29bd 8005 5eba
00000010: 5807 acbc
