baseline_models/random-agent-1.pt (torch_old, 595794 bytes, 6 tensors)

weight f4 [256, 294]
000000 bc 08 6a bc 4e 3f ed bc da 1c 97 bc 40 9b ad 3a
       -0.014284309 -0.02896085 -0.018446375 0.0013245121
000010 80 6c 1d 3b be 0c 12 3d f9 e7 36 bd d0 74 0a bb
       0.002402097 0.035656683 -0.04465482 -0.0021126755
000020 18 ae 5e bd d8 1d b2 bb 20 5d c4 3c 22 bc 2f 3d
       -0.054365247 -0.0054356866 0.023970187 0.042904027
000030 f2 18 46 3d 7d 67 32 bd 70 b6 b2 3b 28 0c e5 3c
       0.048363633 -0.043555725 0.005453877 0.027959898
000040 00 95 bf 3c 14 a7 52 3d c2 de 39 3d 60 fc e3 3c
       0.023386478 0.05142887 0.045378454 0.027830303
000050 2e f2 9c bc 08 3d 67 3d 4f af 53 bd 80 e8 8e 3b
       -0.019158449 0.05645469 -0.05168086 0.0043612123
000060 06 66 b3 bc c4 df 58 bd 3c 22 d4 3c 38 15 19 3c
       -0.021899235 -0.052947775 0.02589523 0.009343438
000070 50 a3 ba 3b b2 e8 05 bd b8 56 30 bd c8 9a 0b 3d
       0.005695738 -0.03269262 -0.04305145 0.034083158
000080 1a 87 0c bd 38 be 54 3d 54 83 c5 3c 1e 4c 0a bd
       -0.03430853 0.05193922 0.024110474 -0.033763997
000090 9e b6 1d bd 78 d9 37 bd 28 de 69 3d ac c8 b0 3c
       -0.038504235 -0.04488513 0.05709663 0.021580063
0000a0 bf 03 33 bd dc cf 27 3d 70 29 48 bd 98 46 57 3d
       -0.043704744 0.040969715 -0.048867643 0.052557558
0000b0 08 de 20 bd bc 35 3e bd 3c be b2 bc 69 74 f5 bc
       -0.039274246 -0.046437964 -0.021819226 -0.029962735
0000c0 1c c2 02 bd 98 0f 60 3d c4 21 93 3c 40 34 3d 3d
       -0.0319234 0.05470237 0.017960437 0.046192408
0000d0 dc e1 64 bd 20 93 87 3c 2e 94 32 3d 0c 04 86 bc
       -0.05587946 0.016549647 0.043598346 -0.016359352
0000e0 64 2d 1f bd 50 c2 14 bd 70 75 12 bd ae c6 cb bc
       -0.038861647 -0.036318123 -0.03575653 -0.024875011
0000f0 96 bb 3c 3d f0 73 b6 3c 2f cf 6d bd 28 de f9 bb
       0.046077333 0.02227208 -0.058058914 -0.00762536
000100 48 a7 38 3d 22 ad 80 bc c0 b0 e7 3b 4a 04 2d 3d
       0.045081407 -0.015707556 0.007070631 0.04224042
000110 fe c4 22 3d 30 ea ee bb c0 8a 58 bc 90 4d 1c 3b
       0.039738648 -0.007291101 -0.013216674 0.0023849942
000120 56 2f 5a 3d 7d 4e 6d bd 9d 08 43 bd d2 bd ae bc
       0.0532678 -0.05793618 -0.047615636 -0.021330748
000130 14 00 68 bc 00 3a b0 3a 30 a9 d3 3b 9a 97 52 3d
       -0.014160175 0.001344502 0.0064593777 0.05141411
000140 2c f6 0d bc ba 18 14 3d fc 7c 64 3d b8 43 01 3c
       -0.008664649 0.036156394 0.055783257 0.007889681
000150 d0 73 1e 3d e4 3f 06 bc 10 62 5b 3c 4c f6 51 bc
       0.038684666 -0.008193944 0.013390079 -0.012815069
000160 86 cb 09 bd 84 76 57 3d f1 71 65 bd 36 5d 2d 3d
       -0.03364136 0.05260326 -0.056016866 0.04232522
000170 c8 77 1b bd 00 86 05 3c 08 29 1e bd c4 76 95 3c
       -0.03795603 0.008149624 -0.03861335 0.018245108
000180 38 11 83 3c 06 ce e5 bc 6c 91 bf bc d9 d5 55 bd
       0.015999421 -0.028052341 -0.023384772 -0.052205894
000190 b3 a0 49 bd 75 41 fb bc 34 25 d9 3c e8 e4 03 bd
       -0.04922552 -0.03067086 0.026506998 -0.032200724
0001a0 38 a3 18 bc 80 4c f0 39 20 6d f8 ba cc 7c c4 bc
       -0.009316258 0.00045833364 -0.001895342 -0.023985289
0001b0 42 c0 4a 3d e8 17 20 3c 48 63 4e bd 4c 9b 8b bc
       0.049499758 0.009771325 -0.05038765 -0.017041825
0001c0 88 6f 9a 3c 7d 0d 27 bd c8 0d cf 3c 10 0b 0f 3b
       0.01885201 -0.040784348 0.025275126 0.0021826662
0001d0 20 75 ee 3c 3e de fe bc 92 72 04 3d 4c 34 35 bd
       0.029108584 -0.031111833 0.032335825 -0.044239327
0001e0 f4 1b cb 3c 18 5f a4 bb d8 b7 37 bd 90 84 67 3c
       0.024793603 -0.005016219 -0.04485306 0.014130726
0001f0 30 81 84 bb a0 0a a0 3c 45 31 2f bd e4 9e 72 bc
       -0.0040437207 0.019536316 -0.042771596 -0.01480839
000200 28 94 0e bd 34 22 b3 3c f0 8c 13 3d 00 11 26 3c
       -0.03480926 0.021866895 0.03602308 0.010135889
000210 9c a7 ed bc 1c ed c4 3c 94 04 04 3d 50 08 72 3c
       -0.029010586 0.024038844 0.03223093 0.01477249
000220 a0 6d 97 3c 90 44 2a 3d ec 96 ff 3c 30 35 56 bd
       0.01848489 0.041569293 0.031199895 -0.052296817
000230 36 a7 1d bd 5e fa c9 bc 58 40 4f 3c 5e 19 6b 3d
       -0.038489543 -0.024655517 0.012649618 0.05739724
000240 ae 15 6a bd 80 6c c8 39 fe d3 56 3d a8 40 0f 3c
       -0.05714958 0.00038227811 0.052448265 0.008743443
000250 5c 7f 11 bd 50 ac b3 3c dc 8b 9c 3c 80 46 f4 3a
       -0.03552185 0.021932751 0.019109659 0.0018636733
000260 00 01 a0 39 c0 b3 37 3b 3c f1 48 bd 54 ab 4a 3d
       0.00030518323 0.0028030723 -0.049058184 0.049479797
000270 fe e1 6e bd f2 12 68 bd 80 5e 3b 3d c0 47 bc 3b
       -0.05832099 -0.056658693 0.04574442 0.005745858
000280 3b 54 5a bd 1a b5 50 bd 82 f3 36 3d 6c 21 87 3c
       -0.053302985 -0.050953962 0.04466582 0.016495429
000290 56 7d 21 bd 8c 83 ec 3c 78 ef c8 3c 31 0c 31 bd
       -0.03942617 0.02887132 0.02452825 -0.043224517
0002a0 3a af 4c 3d 76 1e 3d 3d c8 fd be 3c 9c 3b d2 bc
       0.049971797 0.046171628 0.023314372 -0.02566319
0002b0 c0 99 a8 3c c8 dd 3e 3c 6c e0 5f 3d 10 c8 ce 3c
       0.020581126 0.011649556 0.054657385 0.025241882
0002c0 ca 4f 67 3d 28 34 40 bc 30 03 26 bd 04 3f 06 bc
       0.056472577 -0.011731185 -0.040530384 -0.008193735
0002d0 e4 3a cf bc 1e b1 ac bc d6 15 1a 3d 98 0f 09 bd
       -0.025296636 -0.02108055 0.03761848 -0.033462137
0002e0 a6 f9 55 3d 65 3a 3f bd 24 a2 cc 3c 6d 42 43 bd
       0.052240036 -0.04668655 0.024979658 -0.04767077
0002f0 44 d0 22 bd 50 1a c6 bc 12 6d a4 bc e0 09 0d bd
       -0.0397494 -0.024182469 -0.02007154 -0.034433246
000300 5c 72 82 bc 70 d3 a8 bb 1c d7 80 bc b4 ec 4c bd
       -0.015923671 -0.0051521584 -0.015727572 -0.050030425
000310 bc 95 63 bd 1f 37 5f bd 0c a6 65 3d a5 ef f4 bc
       -0.05556272 -0.054495927 0.056066558 -0.029899428
000320 a8 d0 44 bd 64 18 cb bc d8 8a 06 3c b0 3a ff 3b
       -0.048050553 -0.024791904 0.008211814 0.0077889785
000330 e0 fa 33 3b 44 4a 24 bc 00 ea 14 3a e6 89 5f 3d
       0.0027462766 -0.010027472 0.00056806207 0.05457487
000340 40 0d 77 3a 20 5e b5 3c 84 48 db bc ea cc 14 3d
       0.00094242766 0.022139609 -0.026767977 0.036328234
000350 e7 4c 68 bd 24 14 f0 3c e3 20 59 bd 88 2e 33 bd
       -0.056713965 0.029306479 -0.05300988 -0.043745548
000360 7c 41 34 bd 10 13 02 bd 4c 66 a9 3c 58 ea 5b bc
       -0.044007763 -0.03175646 0.020678662 -0.013422571
000370 08 b7 10 3d 00 6f e4 bb 9e 92 da bc e3 81 34 bd
       0.035330802 -0.00697124 -0.02668124 -0.044069182
000380 66 aa 43 3d 30 cd c4 3b 5c 45 69 bd 8c 4a 27 bd
       0.047769926 0.0060059056 -0.056950912 -0.040842578
000390 48 98 64 3c d0 b3 3a 3c a4 81 4f bc 80 45 62 3c
       0.013952322 0.01139541 -0.012665186 0.013810515
0003a0 08 56 1a bd 90 a7 16 bb 20 44 5e 3b bc 2d 1d 3d
       -0.037679702 -0.0022988059 0.0033915117 0.038373694
0003b0 7a 13 04 bd dc 55 50 3d 1e d9 51 bd 78 94 46 3c
       -0.032245137 0.050863132 -0.05123245 0.012120359
0003c0 1a 16 96 bc 4b 59 65 bd 48 64 0c 3d 61 e4 2f bd
       -0.018321086 -0.05599336 0.034275323 -0.04294241
0003d0 b4 d9 9c 3c 72 3a 0b 3d 70 39 4d 3d 3c cf 41 bd
       0.019146778 0.033991285 0.050103605 -0.047316775
0003e0 a0 49 8d 3b 8c d5 32 bc f0 92 f1 3b 1a dc 27 bd
       0.0043117553 -0.010915171 0.0073722526 -0.04098139
0003f0 78 9e ba bc 80 f4 a5 3c f0 bf 07 3d 6c 26 56 3d
       -0.022780642 0.020258188 0.03314203 0.052282736

bias f4 [256]
000000 b0 8e 4f bb a0 34 42 bd 10 22 c3 3c b8 8e 38 3d
       -0.0031670742 -0.04741347 0.023819953 0.045057982
000010 68 10 39 3d 90 25 1d bd f8 84 31 bc 88 d3 09 3c
       0.04518166 -0.0383659 -0.010834925 0.008412249
000020 69 10 62 bd 0c 63 fe 3c 4d 65 07 bd 44 70 60 3d
       -0.05519143 0.031053089 -0.033055592 0.054794565
000030 79 01 f3 bc a7 14 4f bd e4 c9 67 bd a0 5e 33 3d
       -0.029663788 -0.050556805 -0.056589022 0.043791413
000040 69 9e 38 bd fe 64 b9 bc be 83 ca bc c3 83 69 bd
       -0.045072947 -0.022631165 -0.024721023 -0.057010423
000050 da 5d 55 3d a0 b9 f3 bb d2 b2 10 bd 70 bd 9a 3c
       0.052091457 -0.0074378997 -0.035326786 0.018889159
000060 52 90 4b bd 88 14 10 bc 44 fb 49 3d be 85 33 bd
       -0.04969818 -0.0087939575 0.04931189 -0.04382872
000070 7f 29 26 bd c5 5a 5f bd 42 9b fa bc 12 00 62 3d
       -0.040566918 -0.054529924 -0.03059161 0.05517585
000080 b0 8e 20 3c 19 e4 52 bd 30 6d 9b 3b 40 79 43 3d
       0.009799644 -0.051487062 0.004743241 0.047723055
000090 d9 f9 61 bd da 51 2d bd 28 17 66 3c 54 bd c0 3c
       -0.055169914 -0.042314388 0.014043607 0.023527779
0000a0 a8 ba 46 3d 7e 93 39 3d e8 40 77 3c e6 97 9b bc
       0.048517853 0.045306675 0.015091158 -0.01899333
0000b0 34 fc 86 3c c4 a4 1f 3d 00 24 48 bd 70 99 a2 bc
       0.016477682 0.038975492 -0.048862457 -0.019848555
0000c0 e8 55 02 3d 00 27 4a bd 04 d5 a8 3c 70 db 88 3c
       0.031820208 -0.0493536 0.020609386 0.016706198
0000d0 e4 e7 37 bc d4 36 95 3c 52 95 b4 bc 60 8b 96 3c
       -0.011224721 0.01821462 -0.022043858 0.018377006
0000e0 20 2a ea 3c 74 10 94 3c 87 96 36 bd 60 e3 48 3c
       0.02858454 0.018074252 -0.044577148 0.012261242
0000f0 18 74 29 bd 4a a0 34 bd 8a e9 3d 3d c4 e4 49 bc
       -0.04137048 -0.044098176 0.0463653 -0.012322608
000100 ee e7 1b bd d4 04 29 3d 86 15 b2 bc c0 81 5b 3b
       -0.038062982 0.04126437 -0.021738779 0.0033494085
000110 e0 cb c5 3b ba 8f dd bc 80 e3 2e 3c 50 51 6d 3d
       0.0060362667 -0.027046073 0.010674357 0.057938874
000120 93 23 60 bd 16 7e 23 3d 90 ad ec 3c 40 39 f4 3b
       -0.054721426 0.039915167 0.028891355 0.007453114
000130 dc d4 1c bc ba 4d 38 3d 70 4d 52 bd c2 65 1c 3d
       -0.009572234 0.044996 -0.05134338 0.03818298
000140 58 1b a7 bb 28 9f 8c 3c f6 2f 43 3d 7c a4 f7 bc
       -0.005099695 0.017165735 0.04765316 -0.0302298
000150 d0 24 40 3d 60 8c cd 3b 88 7c f5 bc 9c dc 93 bc
       0.046910107 0.0062728375 -0.029966608 -0.01804953
000160 b4 f0 dc bc 8c ad d8 3c 54 95 31 bc 29 39 e6 bc
       -0.026970245 0.026449941 -0.010838825 -0.028103428
000170 28 e6 fa 3c f0 d0 e8 bb 10 db 9e bb 70 28 2c 3d
       0.030627325 -0.0071049854 -0.0048478916 0.04203075
000180 6a 17 6e 3d 46 d2 6d 3d 78 97 ea bc 7c be 59 bd
       0.0581278 0.05806186 -0.028636679 -0.053160176
000190 30 02 d0 bc 92 68 d1 bc 90 0c 18 3c 28 09 3c bd
       -0.025391668 -0.025562558 0.009280339 -0.04590717
0001a0 cc 5d 0d 3d a8 34 1b bd f8 83 e4 bc 10 1b d4 3c
       0.03451328 -0.037892014 -0.027894959 0.02589181
0001b0 e0 b7 3f bd 9b 5f 16 bd d0 c6 f1 3c 6c a3 35 bc
       -0.046806216 -0.03671227 0.029513747 -0.011086326
0001c0 60 50 93 ba 30 56 3e 3d dc 81 2e bc 5c 35 2e bc
       -0.0011239164 0.046468914 -0.010651078 -0.010632839
0001d0 8b 8f e1 bc f4 bd 52 bc 14 18 c8 3c 88 a1 d1 bb
       -0.027534267 -0.012862671 0.024425544 -0.00639743
0001e0 cc 35 98 3c 73 45 0f bd c9 7b 3e bd 50 f5 f0 bc
       0.01858034 -0.03497834 -0.04650477 -0.02941385
0001f0 7c 65 56 3d b6 3d da bc 70 95 f6 bb 40 76 2e bc
       0.052342877 -0.026640754 -0.0075251386 -0.01064831
000200 c0 d8 87 bc f6 9c 06 3d 58 ac a2 bb 20 71 c1 3c
       -0.016582847 0.032864533 -0.0049643926 0.023613513
000210 4f a1 45 bd 8c b0 14 bd d0 73 7e bc c0 20 0d bc
       -0.04824954 -0.03630118 -0.015530542 -0.008613765
000220 d6 d0 29 bd 92 e0 04 3d e4 2c 21 bc 88 87 62 bc
       -0.041458927 0.03244073 -0.009837363 -0.0138262585
000230 f0 06 03 3d 30 26 89 bc d8 55 e9 bb 22 2d 6c 3d
       0.031989038 -0.016741842 -0.007120829 0.05766023
000240 e4 b1 4e 3d 6f 7b 4d bd 00 17 8a b9 06 de 36 3d
       0.05046262 -0.050166544 -0.00026338547 0.04464533
000250 14 68 17 bc 74 8a f8 3c 6a b6 49 bd 3a 0a 68 3d
       -0.009241123 0.030339457 -0.04924623 0.056650378
000260 f8 a4 08 bd 3c 45 e1 3c 68 49 b6 3c 90 95 c7 3c
       -0.03336045 0.027498834 0.0222518 0.02436331
000270 40 5d 21 3d 00 7a eb 3b 40 4c 4c bb 3e 68 5b bd
       0.03939557 0.0071861744 -0.0031173378 -0.05356621
000280 d5 9e fc bc 46 0b 4b 3d 6c fc 02 3d 00 cf a0 3c
       -0.030837456 0.049571298 0.03197901 0.019629955
000290 b6 1d 16 3d cd a2 55 bd 8e 97 4b 3d 5c fc dc 3c
       0.03664943 -0.052157212 0.04970508 0.026975803
0002a0 80 3e db 3a a0 b4 b0 3b 44 dd 86 bc 77 ae 31 bd
       0.0016727 0.005392626 -0.01646293 -0.043379273
0002b0 fe 86 58 3d 62 e0 21 bd 60 bd 32 3b fa 40 2e bd
       0.052863114 -0.03952063 0.002727352 -0.042542435
0002c0 6c 8f 46 3d 40 01 02 3c fc df 2a bc f8 e6 97 3c
       0.04847662 0.007934868 -0.010429379 0.018542752
0002d0 3d e1 03 bd 0a ce d2 bc 00 48 11 ba 1c dc c3 bc
       -0.032197226 -0.025733013 -0.000554204 -0.023908667
0002e0 18 3f 22 bd 78 7f d5 3c 01 07 22 bd fc 1d 23 3d
       -0.039610952 0.026061758 -0.03955746 0.039823517
0002f0 2b 3e 60 bd dc c5 18 3d 20 4c ec 3b 50 d3 b7 3c
       -0.054746788 0.03729807 0.0072112232 0.022439629
000300 26 11 3f 3d 7a 6c 96 bc 57 9d e6 bc 94 7c 5e bd
       0.046647213 -0.018362273 -0.028151197 -0.054318026
000310 0a a1 57 3d 8c 03 a7 3c f0 c5 ec 3b b8 d7 35 3d
       0.052643813 0.020387433 0.0072257444 0.04439518
000320 c0 9e 12 bd ac 8e 39 3d 48 96 ff 3c 30 23 b0 3c
       -0.035795927 0.045302078 0.03119959 0.021501154
000330 10 06 c9 bc ee 8d 30 3d b2 40 42 bd 18 c9 8d bc
       -0.024539024 0.043104105 -0.04742498 -0.017307803
000340 58 4c 4c 3c 80 48 2c 3d 4c bf c5 3c 74 5d a5 3c
       0.012469374 0.04206133 0.024139069 0.020186163
000350 20 5b ba 3b 22 93 c2 bc 54 b1 0d 3d 26 9f d7 bc
       0.0056871325 -0.023751799 0.03459294 -0.026321005
000360 3c 39 6a bd 12 01 36 3d d0 23 78 3b 4e 9d 9b bc
       -0.05718349 0.044434614 0.0037863143 -0.018995907
000370 14 db 26 3d 74 26 bf 3c ce 5a 56 3d c0 48 69 3b
       0.040736273 0.023333766 0.05233269 0.003559634
000380 d6 81 df bc 3c 93 71 bc 60 7f b5 3b 3a 9b 29 3d
       -0.02728359 -0.014744576 0.005538866 0.0414078
000390 80 e2 60 bb 14 f4 0f 3d 87 5a 56 bd e0 93 c3 bc
       -0.0034314692 0.03514488 -0.052332427 -0.023874223
0003a0 98 03 a7 bc fe 4c 29 3d dc f4 0a bc 91 fc 50 bd
       -0.020387456 0.04133319 -0.008481231 -0.051022116
0003b0 58 be 38 3d d0 d2 ad 3b ba 81 5d 3d 40 c2 76 3a
       0.0451034 0.005304672 0.054078795 0.0009413101
0003c0 2c 3d 02 3d 28 c2 78 bc 26 7a 3c 3d 62 4b af bc
       0.03179662 -0.015183009 0.046014927 -0.02139825
0003d0 d6 76 8e bc f0 c3 0c bd 52 c3 47 3d c8 77 fd 3c
       -0.01739065 -0.034366548 0.048770256 0.030940905
0003e0 a2 46 80 bc 02 a2 44 bd c0 36 04 3a f0 3d e0 3b
       -0.01565868 -0.048006065 0.0005043559 0.006843321
0003f0 30 32 61 3c a8 a4 3c bc c8 90 1e 3c fe d8 4a bd
       0.013744876 -0.0115138665 0.009678073 -0.049523346

weight f4 [256, 256]
000000 d0 9d 31 bd 76 c8 37 3d 50 69 ee 3c 0e 97 71 3d
       -0.043363392 0.04486891 0.029102951 0.058981948
000010 82 5f 41 3d 38 a3 34 3d 4c 7b 20 bd 9c a0 68 3d
       0.047210224 0.04410097 -0.039180085 0.056793794
000020 74 52 e0 3c 2a 0c 64 bd 78 ff 0c 3d 18 8d 12 bd
       0.027383067 -0.055675663 0.03442332 -0.03577909
000030 60 aa 33 bb 64 10 49 bd 54 f8 99 bc e8 6b 3c 3d
       -0.0027414784 -0.049087897 -0.01879517 0.046001345
000040 9e 38 34 3d 80 d9 00 3a 20 84 1b 3d 60 8f 1b 3b
       0.043999307 0.00049152225 0.0379678 0.0023736581
000050 f0 2f ce bb 30 61 de bc 90 e3 cf 3c 60 28 a1 3b
       -0.0062923357 -0.027145952 0.025377065 0.004918143
000060 10 5d 59 bc be c1 46 3d 8a b7 29 bd bc 45 a2 3c
       -0.013266817 0.04852461 -0.041434802 0.019808643
000070 fe 80 78 bd a4 cf 8f bc 00 4e ba 3b 1c f4 5e 3d
       -0.06066989 -0.017555065 0.005685568 0.05443202
000080 d0 29 57 bd 38 06 5d 3c f4 9c 2d bd d6 37 54 3d
       -0.05253011 0.013490252 -0.04238601 0.05181106
000090 ec 57 5d bd 9e 6f 47 3d 5e ae 33 bd 00 68 4d 3b
       -0.054038927 0.04869043 -0.04386746 0.0031342506
0000a0 d0 fe cc 3c e0 40 af bb 30 a5 59 3d e4 59 6b 3d
       0.025023848 -0.00534831 0.05313605 0.057458773
0000b0 80 d3 b8 3c ce ed 5d bd 58 bb ab bc 98 9f 05 bd
       0.022561789 -0.054181866 -0.020963356 -0.032622904
0000c0 a8 f2 a3 3c c8 8b 6f 3c 10 4b 28 3d fa 8c 3e bd
       0.020013168 0.014620729 0.04108721 -0.046521164
0000d0 2e 3a 5f 3d f0 df a9 bb 02 e3 18 3d 80 84 ce 3a
       0.054498844 -0.005184166 0.037325867 0.0015756041
0000e0 00 d4 4d bd b8 42 5f bd 40 4c 8b 3a e0 7d a3 3c
       -0.050251007 -0.054506987 0.0010627583 0.019957483
0000f0 50 92 5c bd 3a 43 39 3d 78 d5 26 3d e0 a7 d1 3b
       -0.053850472 0.045230128 0.040730923 0.006398186
000100 c8 c5 2b bd 1c 03 dc bc 10 f4 b7 3c 68 f1 77 3d
       -0.041936666 -0.026856951 0.022455245 0.060532957
000110 60 cf 71 3b 76 7e 78 bd 08 e1 ef bc 74 c6 3a 3d
       0.0036897287 -0.060667478 -0.029282108 0.045599416
000120 be 66 3b bd 40 fe d2 bb 80 be 1a 3d 00 46 bd 3b
       -0.04575228 -0.0064390004 0.03777933 0.005776167
000130 c4 3e 08 3d 5c a1 d1 bc 78 39 f9 3c 4c 42 e4 bc
       0.033262983 -0.025589637 0.030422911 -0.027863644
000140 12 42 41 3d 40 b7 e7 bc 88 a9 eb 3c 00 2a cc bc
       0.04718215 -0.028285623 0.028767362 -0.02492237
000150 d8 17 28 3c a8 e7 ce 3c 12 55 52 bd e4 3c 06 3d
       0.010259591 0.025256947 -0.05135066 0.032772914
000160 ba 79 7a bd 14 2e da 3c 28 bb a1 3c 00 04 96 39
       -0.061151244 0.0266333 0.019742563 0.0002861321
000170 92 a9 49 bd 70 ac de bb 54 24 a8 3c 4a 63 30 bd
       -0.04923398 -0.0067954585 0.020525135 -0.04306344
000180 8e 93 25 3d f0 6c 41 3c f8 ef 4e bd 34 0f bd bc
       0.040423922 0.011805758 -0.05052182 -0.023078538
000190 d8 d6 e8 3c d6 65 45 bd fc d8 1a bd a8 8e f0 3c
       0.028422758 -0.04819282 -0.03780459 0.029364899
0001a0 74 03 21 3d 3c b4 37 3d 62 07 35 bd b8 c5 68 bd
       0.039309934 0.04484962 -0.044196494 -0.056829184
0001b0 78 d1 8e 3c c8 54 a8 3c 7a 3b 35 3d 90 ce 16 bc
       0.017433867 0.02054824 0.044246174 -0.009204522
0001c0 e8 9b e9 bc 48 37 87 3c 00 6c b5 ba 1c dd a6 bc
       -0.028516725 0.016505852 -0.0013841391 -0.020369105
0001d0 58 a8 95 3c 58 cc ec 3c a4 7c 24 bd 34 5d a2 3c
       0.01826875 0.028906032 -0.04015793 0.019819833
0001e0 ac c7 65 3d 80 6b 8b 3b 9c b9 2a bd 14 42 99 bc
       0.056098625 0.0042547584 -0.041680917 -0.018708266
0001f0 f0 ff 5e bc c0 b8 0a bd c0 61 7c 3b 96 0a 56 bd
       -0.013610825 -0.033867598 0.0038510412 -0.05225619
000200 96 30 6d 3d bc 92 41 3d 3e 7b 51 3d 2c f1 1e 3d
       0.057907663 0.047259077 0.051142924 0.03880422
000210 36 8c 13 bd 98 2c 1c bc 3e 3a 4b bd 00 cc 5a 3c
       -0.036022387 -0.009532116 -0.04961609 0.013354301
000220 ac 95 1f bd c6 e2 56 bd 10 68 a8 bb 68 65 77 bd
       -0.038961098 -0.05246236 -0.0051393583 -0.060399443
000230 c2 ba 4b 3d a2 d3 61 3d c0 9c 08 3d a4 6c b6 bc
       0.049738653 0.05513347 0.033352613 -0.0222686
000240 96 44 70 3d b0 07 d4 3b d8 07 62 3c 5c 4a 83 bc
       0.05865916 0.006470643 0.013795815 -0.016026668
000250 28 86 3c bc 20 26 36 bc 70 e4 53 3d 40 e6 10 bc
       -0.011506595 -0.011117488 0.051731527 -0.008843958
000260 94 45 0a 3d 00 11 fe 3a 8c 0f 01 3d 60 0f 55 3b
       0.03375776 0.0019383729 0.031508967 0.0032510385
000270 08 60 b8 bc f4 aa 2d bd 28 a5 c7 bc cc 50 70 3d
       -0.022506729 -0.04239936 -0.024370745 0.058670804
000280 98 70 41 3c cc 8d ad bc 10 6e 65 3c bc 4f bb bc
       0.01180663 -0.021185778 0.014003292 -0.022865169
000290 20 8e 00 bc aa 58 2a bd f8 33 0e bc 48 ca 23 bd
       -0.007846385 -0.041588463 -0.0086793825 -0.039987832
0002a0 96 a1 45 bd 20 14 5e bc cc 4d 56 bd c0 bb 27 bd
       -0.048249803 -0.013554603 -0.052320287 -0.040950537
0002b0 8e fa 63 3d 34 a7 bd bc 4a b6 2b 3d be 57 5d 3d
       0.05565887 -0.023151018 0.04192189 0.054038756
0002c0 ca 2c 35 bd c0 bd 0e 3c 3e 95 56 3d 40 50 c1 ba
       -0.044232167 0.008712232 0.052388422 -0.0014748648
0002d0 80 d7 6c bd a6 b4 3f 3d fc d9 e8 3c a6 1c 05 3d
       -0.057822704 0.04680314 0.028424256 0.032498024
0002e0 a0 5c 41 bc cc 16 e7 3c 20 52 6d bd ec 10 29 bd
       -0.011801869 0.028209113 -0.05793965 -0.041275904
0002f0 00 be 2c ba 64 94 87 bc de 16 3e bd c0 3d 61 3d
       -0.00065895915 -0.01655025 -0.046408527 0.05499053
000300 66 18 16 3d 48 ea a6 bc de 16 50 bd fc da 6f 3d
       0.036644362 -0.020375386 -0.050803058 0.05855845
000310 0c 59 21 3d 80 15 6d 3c b2 6a 3e bd 3e 84 25 3d
       0.039391562 0.014470458 -0.04648847 0.04040932
000320 6a 43 15 3d 26 4a 35 bd 90 16 fa bc 5c 9e aa 3c
       0.036441244 -0.044260167 -0.030528337 0.020827465
000330 8e f7 5e bd fc c3 96 bc 98 a1 42 3c 3a b9 47 3d
       -0.054435305 -0.018404 0.011879347 0.04876063
000340 d2 46 3b 3d 48 09 4d bc d0 cc 9c 3c 24 7a dd bc
       0.045721836 -0.01251442 0.019140631 -0.02703578
000350 74 20 b0 bc 0c cd 49 bd 04 fc 63 3d c0 e1 7c 3c
       -0.02149985 -0.049267814 0.055660263 0.015434682
000360 aa 9d 69 bd 40 c3 fd bb c0 d5 12 3d 80 75 03 3c
       -0.057035126 -0.007744223 0.03584838 0.00802362
000370 bc 0d 7d 3d d8 7a ab bc 6c e7 e9 3c 40 43 a0 3b
       0.061780676 -0.0209326 0.028552733 0.0048908293
000380 10 3e a1 3b c0 09 2d 3b 98 de 6b 3c ba d0 61 3d
       0.0049207285 0.0026403517 0.014396332 0.055130698
000390 c8 56 54 3c d0 cb 57 bc 1a 4d 55 3d 42 0d 4b bd
       0.012960143 -0.013171151 0.052075483 -0.04957319
0003a0 0c f5 db bc 1c 31 24 bd b6 db 20 3d 18 6d e6 3c
       -0.026850246 -0.040085897 0.039272033 0.028128192
0003b0 ea 36 0b bd 30 ec ad 3b 92 99 37 bd de bb 69 bd
       -0.033987917 0.0053076968 -0.04482419 -0.05706393
0003c0 dc d3 12 3d c0 1b 92 ba 6c 7d e7 bc f0 02 02 bc
       0.035846576 -0.0011147186 -0.028258048 -0.007935271
0003d0 e4 0f d3 3c 80 c1 8b bc c0 91 9e 3c b0 20 c2 bc
       0.025764413 -0.017060041 0.019356608 -0.023697227
0003e0 b8 3d 1b 3c 90 28 76 3c bc d3 61 3d d8 2e ca bc
       0.009475164 0.015024319 0.055133566 -0.02468054
0003f0 34 e6 70 3d da 54 17 bd 64 db 13 bd 44 7f 96 bc
       0.05881329 -0.036946155 -0.0360979 -0.018371232

bias f4 [256]
000000 5c b2 a0 3c 40 9f 34 bd aa 42 26 bd 2e 72 2a 3d
       0.019616298 -0.044097185 -0.04059092 0.041612796
000010 20 c0 f0 bb 96 fb 2c bd e8 1c 33 bd b0 b6 7a bc
       -0.007347122 -0.04223212 -0.04372874 -0.015302345
000020 2c 32 0c bd 2e ab 24 3d 80 33 9c bb 8e 41 2f 3d
       -0.034227535 0.040202312 -0.0047668815 0.042787127
000030 00 bd 5c bd 44 aa 8c bc 54 ed d6 3c 00 e3 8e 3b
       -0.053891182 -0.017171033 0.026236214 0.0043605566
000040 0e 29 20 3d 50 1e 0a 3c 88 69 2f bc a8 20 6c bc
       0.039101653 0.008430079 -0.010706313 -0.014412083
000050 f8 8f 2e 3d 30 16 1a bd 60 38 3f bb d6 a0 0e 3d
       0.042617768 -0.037618816 -0.002917789 0.034821354
000060 cc c6 d2 3c 72 34 72 3d 00 d8 cd 3c 4c 98 bc 3c
       0.02572956 0.059132047 0.02512741 0.02302184
000070 c4 ce 96 3c a0 ab 27 bd 7c 5e 64 bd b0 9b 02 bd
       0.01840914 -0.04093516 -0.05575417 -0.031886756
000080 e8 f5 88 bc f0 ce 10 bd 08 8a 9f 3c 0e 71 73 3d
       -0.01671882 -0.0353536 0.019474998 0.05943399
000090 80 cc 54 3d c0 b1 16 3c e0 f1 73 3d 42 d5 67 bd
       0.05195284 0.009197652 0.05955684 -0.056599863
0000a0 94 49 34 3d 7a f0 2b 3d fc fd a3 bc fc d0 e8 bc
       0.044015482 0.041977383 -0.02001857 -0.028419964
0000b0 fe 7e 21 3d 40 86 41 3d b0 8a 32 bc da b9 71 3d
       0.03942775 0.04724717 -0.0108973235 0.059015132
0000c0 50 aa 47 3d dc 66 cd bc 9a 48 5e bd 48 a7 9f bc
       0.048746407 -0.025073461 -0.054268457 -0.019488946
0000d0 c4 08 24 bd 18 be 09 3d 80 2d 41 3b f8 66 d1 3c
       -0.040047422 0.033628553 0.0029476583 0.025561795
0000e0 16 9a 0c 3d 14 ed a5 bc 80 03 4e 3c 28 e2 0e 3c
       0.034326635 -0.02025465 0.012574077 0.008720912
0000f0 28 73 93 3c 00 76 5b bd 74 9d e8 3c ca 2a 72 bd
       0.017999247 -0.05357933 0.028395392 -0.059122838
000100 60 01 ba bc 3a cc 29 3d 2c f6 f8 3c fa 14 1f 3d
       -0.022705734 0.04145453 0.030390821 0.038838364
000110 a0 bb 97 3c 66 e5 7f 3d da b7 2a 3d 20 fc 7c bb
       0.018522084 0.06247463 0.04167924 -0.0038602427
000120 30 8c f5 3c 0c f4 42 3d 80 b5 30 ba e8 bf dc 3c
       0.029974073 0.047596022 -0.0006740913 0.026946977
000130 38 78 16 3c a0 e3 0d bb e8 b2 ca bc 06 1d 7c bd
       0.009183936 -0.0021650568 -0.024743512 -0.061551116
000140 88 2a 7c bc 44 82 60 bd b0 c2 a9 3b 20 19 02 3b
       -0.015391 -0.05481173 0.0051806793 0.0019851401
000150 44 60 8b bc a0 0b 7b bd 40 a8 18 3c 40 72 0d bd
       -0.017013676 -0.061290383 0.009317458 -0.034532785
000160 b4 db 5b bd 7e eb 33 bd 72 9e 27 3d f6 71 18 bd
       -0.053676322 -0.043925755 0.04092259 -0.037218057
000170 ae fe 7f 3d 30 dd 86 bc d8 2a 6a 3c c0 d4 ef 3b
       0.06249874 -0.016462892 0.014292441 0.007319063
000180 40 63 b0 3a 7e 0d 11 bd 5a 80 2e bd ce 21 40 3d
       0.0013457313 -0.035413258 -0.042602874 0.04690724
000190 18 ac 72 bd a0 fc 11 3c 42 93 54 bd 54 27 84 3c
       -0.059246153 0.008910328 -0.05189825 0.016132034
0001a0 22 80 42 bd b6 6a 34 3d 74 ee 15 3d dc d4 0e 3d
       -0.04748548 0.04404708 0.03660436 0.034870967
0001b0 d0 7e 0a bc 60 b7 9c 3b 84 99 9e 3c 20 dd 73 3c
       -0.008453086 0.004782602 0.019360311 0.014884263
0001c0 c0 62 8c 3a 44 57 79 bd 80 0a d4 bb da dd 06 3d
       0.0010710582 -0.06087424 -0.0064709783 0.032926418
0001d0 a0 70 03 bb 48 e0 3b 3c 74 2c f6 3c f8 18 25 3c
       -0.0020056143 0.011467047 0.030050494 0.010076754
0001e0 20 6d 52 3d b2 65 03 bd f4 ba a3 3c 40 5b 21 bc
       0.0513736 -0.032079406 0.019986607 -0.009848416
0001f0 e0 8d b9 3c 58 a2 ff 3c 90 b0 82 bc 16 a6 7a 3d
       0.02265066 0.031205341 -0.015953332 0.06119355
000200 4e 11 0b 3d 48 60 26 bc 1c db ff 3c a4 61 40 3d
       0.03395205 -0.010154791 0.03123241 0.046968117
000210 32 e1 30 3d ae 43 00 bd c6 e9 0c bd 2a 16 6b bd
       0.043183513 -0.031314544 -0.03440263 -0.057394184
000220 8e 4f 58 bd 7c 8e 46 3d 82 00 44 bd 7a 4f 6a bd
       -0.052810244 0.048475727 -0.047852047 -0.0572047
000230 de 1e 4c 3d 1e 60 1e bd 14 99 43 bd bc c0 13 3d
       0.049834125 -0.038665883 -0.04775341 0.036072478
000240 24 3c 79 3d a6 d1 38 bd 9e 1e 79 3d 34 57 fd bc
       0.06084837 -0.04512181 0.060820214 -0.03092537
000250 00 1e ca bc 8c bd 46 3d 34 cd f7 3c ea da 6a 3d
       -0.024672508 0.04852061 0.030249216 0.05733768
000260 00 3a 99 3a a0 9d a5 bc 2c cb 20 bd 60 61 e9 bb
       0.0011690259 -0.020216763 -0.03925626 -0.0071222037
000270 50 20 41 bd 60 d5 2e bc 80 b2 54 ba c4 b8 5c 3d
       -0.047149956 -0.01067099 -0.0008113757 0.053887144
000280 f8 d2 17 3c a8 a4 1b bc 18 41 7a bd 00 53 80 b9
       0.009266607 -0.009499706 -0.061097234 -0.00024475902
000290 ea 5f 68 bd c0 27 a7 3c 54 11 96 bc 72 88 51 3d
       -0.056732096 0.020404696 -0.01831881 0.051155515
0002a0 f4 80 87 bc 94 b7 22 bd 80 c7 0e 3d 58 cd 8b bc
       -0.016540982 -0.039725855 0.034858227 -0.017065689
0002b0 6c f4 ca bc 38 46 10 bc a8 b2 65 bc 16 22 34 bd
       -0.024774753 -0.008805804 -0.014019646 -0.04397782
0002c0 94 ea 09 3d 2c 39 e2 bc 10 67 67 3d 5c 33 62 bd
       0.033670977 -0.027615152 0.056494772 -0.05522476
0002d0 c8 3a f6 3c e0 76 f8 3b 28 5d 32 3d 36 fa 13 3d
       0.030057326 0.0075825304 0.043545872 0.03612729
0002e0 f4 dc 16 3d 54 5f 7f 3d 8a 72 3d bd 0a fb 1a bd
       0.03683181 0.06234677 -0.04625181 -0.037837066
0002f0 5c 83 a8 3c d8 ad 63 bd d8 73 6c bd 14 b9 10 bd
       0.02057045 -0.055585712 -0.057727665 -0.035332754
000300 cc 9b 5e bd 70 eb de 3c 1c 45 84 bc 14 7e f4 3c
       -0.0543478 0.027211875 -0.016146235 0.029845275
000310 bc bc 45 3d 66 98 48 bd f0 07 9c bb 28 fc 81 3c
       0.048275694 -0.048973463 -0.0047616884 0.015867308
000320 d8 cb c2 bc 24 4a 12 bd 38 76 2c bc e8 00 fa bc
       -0.02377884 -0.035715237 -0.010526232 -0.03051801
000330 a4 20 f0 3c 38 7e ac bc 26 e5 42 bd 5a f3 09 bd
       0.02931244 -0.02105628 -0.047581814 -0.033679344
000340 56 38 0f 3d 50 3e 68 3d 60 07 6b bd 90 9a 85 bc
       0.034965836 0.05670005 -0.05738008 -0.016309053
000350 c0 68 8e 3c ee 4e 1e 3d d0 df 34 3c e0 29 6d 3c
       0.017383933 0.038649492 0.011039689 0.014475316
000360 10 f6 8a 3c 50 8a 49 3c 8c 6d 4b bd 40 33 07 bd
       0.016963035 0.012301043 -0.04966502 -0.03300786
000370 ea 0f 13 3d e0 d1 ea 3b 6e b8 61 bd 8a e2 0a bd
       0.03590385 0.0071661323 -0.055107526 -0.03390745
000380 08 db 91 bc e0 cb e7 3c 68 d5 ef bc e2 84 71 bd
       -0.017804638 0.028295457 -0.029276565 -0.058964618
000390 70 d0 4c bc f8 bb bd 3c f4 12 b0 3c f6 89 18 3d
       -0.012500867 0.02316092 0.021493413 0.037240945
0003a0 70 9f 35 bd 76 8b 1f bd ae cf 41 3d 60 06 f2 3c
       -0.044341505 -0.03895136 0.0473172 0.029544055
0003b0 e4 62 41 bd d0 57 e7 bb 00 51 ae 3c 24 bc 34 3d
       -0.04721345 -0.0070600286 0.021278858 0.044124737
0003c0 08 a9 2e bc 84 cd 7d 3d a4 54 95 3c f0 01 e6 bc
       -0.010660417 0.061963573 0.018228836 -0.028077096
0003d0 20 95 47 bd 40 15 25 3d 5a e5 17 bd a0 7e c1 3b
       -0.0487262 0.04030347 -0.03708396 0.0059049875
0003e0 be 25 49 bd 20 10 9e 3b 40 04 4e 3b 50 48 00 bd
       -0.04910826 0.0048236996 0.0031435639 -0.031318963
0003f0 d0 02 35 3d 68 a1 db 3c 4a 1a 59 3d c4 ca 69 bd
       0.044192135 0.026810363 0.053003587 -0.057078138

weight f4 [5, 256]
000000 c0 ca cb bb 6e 10 1b bd 28 30 21 bd d6 67 4f bd
       -0.006219238 -0.037857465 -0.039352566 -0.050636135
000010 12 6b 21 3d 7a 28 3a bd 1e 5f 39 3d fa fc 26 3d
       0.03940875 -0.045448758 0.045256726 0.0407686
000020 6e f1 37 bd 24 c2 49 3d 3c 16 29 3d 0e f1 68 3d
       -0.04490798 0.049257413 0.04128097 0.056870513
000030 90 f3 73 3c 20 ce 24 bb e8 30 44 3c a8 c2 af 3c
       0.014889613 -0.0025147274 0.011974551 0.021455124
000040 1e e5 7e 3d c0 b1 0b bc b8 11 00 bd 62 2d 7f bd
       0.062230222 -0.008526266 -0.031266898 -0.06229914
000050 82 c9 1b 3d 7c 40 c7 bc a0 8d 2e 3d 42 90 16 bd
       0.03803397 -0.02432274 0.042615533 -0.03675867
000060 f8 5a 96 3c 44 ee e2 bc aa 49 59 3d 00 06 42 3c
       0.018353924 -0.027701505 0.053048767 0.011842251
000070 44 c4 f8 3c 0a 91 6c 3d 04 39 e9 bc 84 8a 87 3c
       0.030367024 0.057755508 -0.02846957 0.016545542
000080 1a bb 20 3d 20 56 3a bc bc f3 70 bd 4c 2b 82 bc
       0.039240934 -0.011373073 -0.058826193 -0.015889786
000090 3a 15 17 bd 4c 95 83 bc 10 89 48 3c 08 ae 1d bc
       -0.036885478 -0.016062401 0.0122397095 -0.009624012
0000a0 f0 9c 79 3c 60 bb d6 3c 24 11 8b 3c 90 10 22 3d
       0.015235171 0.026212394 0.016975947 0.039566576
0000b0 4a 6b 24 3d c0 3a d8 bc 62 4e 34 3d e4 68 87 bc
       0.04014138 -0.026395202 0.044020064 -0.016529508
0000c0 14 0d 38 bd 70 89 df 3b 08 1b 48 3c 88 04 fb 3c
       -0.044934347 0.0068218037 0.012213476 0.03064181
0000d0 d0 17 0c bd ec 89 55 3d 4a fd 7d bd 90 f9 04 bc
       -0.034202397 0.052133486 -0.062009133 -0.008116141
0000e0 b4 32 ce bc 74 35 43 bd 6c 70 6e bd 38 5e 16 bc
       -0.025170662 -0.0476584 -0.058212683 -0.009177737
0000f0 fa 39 1b 3d 40 df 6c bd 60 66 78 3c 68 6b 80 bc
       0.037897088 -0.057830095 0.015161127 -0.015676215
000100 cc 24 a1 3c 54 b0 30 3d 68 64 1a 3d 0e 4f 4c 3d
       0.019670866 0.04313691 0.03769341 0.04988008
000110 d0 ce df bc 6c 6d e6 bc 18 b1 7c bd a0 9d b6 bc
       -0.027320296 -0.028128348 -0.061692327 -0.022291958
000120 c4 e0 c4 3c ca 6f 15 bd 00 55 38 3d 34 42 21 bd
       0.024032958 -0.036483563 0.045002937 -0.039369777
000130 f0 32 e7 bc b0 57 5c bd 48 3d 10 bd b6 66 3c 3d
       -0.028222531 -0.053794563 -0.035214692 0.04599639
000140 d8 62 5f 3d b0 c9 51 3d 00 4a 92 bc 70 18 a9 3c
       0.054537624 0.051217735 -0.017857552 0.020641536
000150 84 a2 95 3c aa e5 18 bd 78 45 78 bc 06 55 50 bd
       0.01826597 -0.0373284 -0.015153281 -0.050862335
000160 74 bf 04 bd a8 05 2f 3d 58 b9 f8 3c d0 2b 9c bb
       -0.032409146 0.042730004 0.030361816 -0.004765965
000170 80 0a 76 3d b2 8e 66 bd e6 06 06 bd e8 f8 31 bd
       0.060068607 -0.05628843 -0.032721423 -0.043450266
000180 ee fc 15 bd 88 ef 92 3c e4 b6 61 3d de 50 5a bd
       -0.036618166 0.017936483 0.05510606 -0.053299777
000190 40 9a 05 bd 80 f5 e1 3a 42 e9 2b bd 74 12 47 3d
       -0.032617807 0.0017239302 -0.0419705 0.048601583
0001a0 12 1b 67 bd c6 9a 06 3d 6c 47 ff bc d4 ed 28 bd
       -0.0564223 0.032862447 -0.031161986 -0.041242436
0001b0 c2 68 77 bd 6a 66 3a bd 0a 31 3d 3d a8 92 c1 bc
       -0.06040264 -0.045507826 0.046189345 -0.023629501
0001c0 ba 94 3a 3d f4 2b cf 3c 86 dc 42 3d a2 60 51 3d
       0.045551993 0.025289513 0.04757359 0.051117547
0001d0 0a 3b 21 3d fe e3 2b bd 82 58 5a bd 04 3f 98 bc
       0.039362945 -0.041965477 -0.053307064 -0.018584736
0001e0 c6 a8 43 bd 20 f2 61 3b 4c 76 23 3d 14 db 4e 3d
       -0.047768377 0.0034476593 0.03990774 0.050501898
0001f0 f0 9a f1 bb e0 13 7b 3d 18 12 52 bc d8 49 84 bc
       -0.0073732063 0.06129825 -0.012821697 -0.016148493
000200 34 08 ac 3c c0 f5 63 bb e2 2b 39 bd a0 da 46 bd
       0.021000005 -0.003478393 -0.045207866 -0.04854834
000210 f8 a5 8c bc 60 a7 3d bb 32 d0 2e 3d 4e ce 41 3d
       -0.017168984 -0.0028938875 0.04267902 0.047315888
000220 9c 6c d0 3c a0 af d9 3b 64 60 97 bc 20 e1 80 bb
       0.025442414 0.0066432506 -0.01847858 -0.003933087
000230 68 fc 48 3c 08 98 71 bd 10 e4 f8 bb 70 a3 c5 bb
       0.01226721 -0.05898288 -0.0075955465 -0.006031446
000240 f8 fe 6b 3d 58 ed 26 3c 50 50 e3 bc 32 55 25 3d
       0.057616204 0.010188423 -0.027748257 0.04036445
000250 a0 e9 41 bc aa be 6f bd 10 37 15 bd 90 6a 01 3d
       -0.011835486 -0.05853144 -0.036429465 0.031595767
000260 b4 c3 07 3d d2 46 49 3d 42 6b 11 3d 88 f3 2e bd
       0.03314562 0.049139805 0.03550268 -0.04271272
000270 80 cf 5d bc 40 76 45 bd 70 0f 88 3b 38 1c 24 3d
       -0.013538241 -0.048208475 0.004152231 0.040065974
000280 44 98 34 3d 38 20 14 3c 44 96 9d 3c 72 b9 0f bd
       0.044090524 0.009040885 0.019236691 -0.035088964
000290 c2 ca 09 bd b2 43 43 3d 40 56 01 bc b2 7c 72 3d
       -0.03364063 0.04767198 -0.007894099 0.05920095
0002a0 50 56 bb bb 78 31 bd 3c d0 6d 80 bb f0 45 4e bd
       -0.0057170764 0.023094878 -0.0039193407 -0.050359666
0002b0 38 c2 ed bc 14 eb 0f bd 60 af 62 3c c0 e1 30 bd
       -0.029023275 -0.035136297 0.013835758 -0.043184042
0002c0 24 4c c5 bc ba a6 26 3d f6 1b 66 bd 9e b0 48 bd
       -0.024084158 0.040686347 -0.05617901 -0.04899656
0002d0 ee 34 21 3d 04 f9 c0 3c 8e 39 0d bd 7e 4f 14 bd
       0.03935712 0.02355624 -0.034478717 -0.036208622
0002e0 f0 f7 b0 3b 00 c0 63 38 7a 1b 16 bd 40 6e 38 3d
       0.00540065 5.429983e-05 -0.036647297 0.045027018
0002f0 68 da 09 3d 18 27 67 3d ce 31 65 3d 0a 2f 1d bd
       0.033655554 0.056433767 0.0559557 -0.038374938
000300 58 c7 5f bd 92 21 0a bd 96 ce 1b bd a2 aa 12 3d
       -0.05463347 -0.03372342 -0.038038813 0.03580726
000310 7c 1f 0d 3d a8 66 16 bc d2 ef 05 3d 60 42 7f 3c
       0.034453854 -0.009179749 0.032699414 0.01557979
000320 fc 41 3d 3d 8c 1e 02 3d e4 72 3c 3d 8c cf f9 3c
       0.046205506 0.031767413 0.046008006 0.030494474
000330 a8 83 4b 3d 54 5b 20 3d 20 36 24 3c 78 b2 72 3c
       0.049686104 0.039149597 0.01002267 0.014813058
000340 20 fd 4a 3b c6 71 15 3d 04 b1 15 bd 78 4e 3d bd
       0.0030973628 0.036485456 -0.03654577 -0.04621741
000350 20 de 08 bd a0 07 d5 3b 44 e1 e5 bc a0 8c 77 bc
       -0.03341496 0.006501153 -0.028061517 -0.015109211
000360 30 80 7d bc 18 97 35 3c 8c b0 5a 3d ec 02 c3 3c
       -0.015472457 0.011083387 0.053391024 0.023805104
000370 96 37 4d 3d d4 2c 21 3d 00 8c a1 bc d4 c3 27 3d
       0.05010184 0.039349392 -0.019720078 0.04095824
000380 62 8d 29 bd 82 f0 3c 3d 3e b3 79 bd 7e 2a 3a bd
       -0.0413946 0.046127804 -0.060961954 -0.04545068
000390 30 7d fa bc 60 ff 60 3d a8 e7 23 bd fa af 31 bd
       -0.030577272 0.054931045 -0.040015846 -0.043380715
0003a0 d0 2f de 3c ae 66 21 3d 58 7c 26 3d 70 21 e5 bb
       0.027122408 0.039404564 0.040645927 -0.0069925115
0003b0 58 2c 18 bc f4 7c 18 bd 08 15 54 3c e8 fc c5 bc
       -0.009287916 -0.03722854 0.012944467 -0.024168447
0003c0 90 04 49 3c 78 82 12 3d a0 b1 55 3b 0c 5e 44 bd
       0.012269154 0.035768956 0.0032607093 -0.047941253
0003d0 3c e4 5d bd b0 16 3a bd 6c f2 74 bd 2e f6 79 bd
       -0.05417274 -0.045431793 -0.059801504 -0.06102579
0003e0 46 8c 6d 3d b0 78 fb 3c 70 85 cf bb 52 a4 1d bd
       0.057995103 0.030697197 -0.0063330457 -0.038486786
0003f0 78 7e 95 3c 30 9e c9 bb 90 7e 32 3d 7c bf 4b 3d
       0.018248782 -0.0061528906 0.04357773 0.04974316

bias f4 [5]
000000 d4 05 ef 3c a0 4a ff 3c 90 d8 9b bb 30 c6 44 bd
       0.029177584 0.031163514 -0.004756041 -0.04804057
000010 c4 7a 5e 3d
       0.054316297
