baseline_models/random-agent-6.pt (torch_old, 595871 bytes, 6 tensors)

weight f4 [256, 294]
00000000: e0c6 1c3c ceb1 adbc 5869 783c 9c98 09bd
00000010: 30a0 923c ec60 fc3c 1447 56bd 587c 7d3c
00000020: 8e1b 5a3d 84a2 093d 5c20 80bc 76dd 6e3d
00000030: 8881 f63c 90c7 bb3c 1024 20bb de1e bfbc
00000040: 2e05 4abd 4453 263d dc1c 9e3c 5952 4ebd
00000050: 1f82 58bd 48c4 26bd 308b 43bb 40ab 623a
00000060: 6ae7 14bd ecf4 2fbd a042 a03a 8ebc 253d
00000070: aca3 9d3c f051 633c 488f aebb a07b ab3c
00000080: 82e6 393d 914d 60bd 2036 4bbd c052 613c
00000090: f033 113b f0f5 8e3c 6cd3 40bd 5479 a83c
000000a0: d48d 923c 98df 28bd 6a39 4b3d 409a 193c
000000b0: 18e2 1fbc 4c0f 8e3c 9830 01bd 7404 4dbd
000000c0: d8fd 12bc 9c59 103d b071 94bb aeef 1fbd
000000d0: 26f8 6abd 66e6 9fbc 6252 6dbd d869 6e3d
000000e0: 7c9c 63bd a075 ce3b c836 683d 9055 333c
000000f0: 00a8 3639 2c0b 29bd e117 ffbc ea4d 57bd
00000100: cea3 263d f8a7 56bc b042 06bb 0cc8 c0bc
00000110: 502f 3e3b 80bf 083b d8e1 0cbc 9a6f 223d
00000120: 40dc a33b e454 453d 90d8 ec3c 0ca0 a63c
00000130: a0b6 f03a 8221 e3bc 4c06 ec3c 381e 58bc
00000140: 80d6 0bbd d829 de3c 8a2e 673d 6469 0ebd
00000150: 16db 0cbd 3029 f23c 8ded 3ebd 0e46 bebc
00000160: c4ab eabc 0ad1 9dbc 622c 503d 8c84 10bc
00000170: 98fd ecbb d8c5 15bd 4cd7 b1bc b0dc d83c
00000180: 2a85 53bd 65d5 10bd 14af 51bc 22bb 063d
00000190: 4fbc f8bc 48bf 3c3d 883d d13c 640a 833c
000001a0: c0de 773b c0c6 d7bb 9a75 17bd 102d 9e3c
000001b0: 4061 b53c 7cb7 cf3c b499 143d f1d4 5dbd
000001c0: a86b 1e3d f4c4 3d3d a245 523d 2e31 653d
000001d0: 444f c4bc e848 9abb 3c14 0a3d 78aa 53bc
000001e0: c6f4 b9bc 449c a63c b6ba 14bd 8e23 97bc
000001f0: 9c60 963c aa96 28bd 4097 2c3d 7429 12bd
00000200: 14af 673d 8249 11bd 085f 9a3c 9a64 04bd
00000210: 6c09 53bd 80c1 3fbb bccf 84bc f057 223d
00000220: 4656 143d e009 d23c f99d 51bd c04c 0e3a
00000230: 34bf f03c 90fa a23b 0e09 2fbd 1431 3c3d
00000240: 4a4e 83bc c8c0 6f3c 18f7 ca3c d498 263d
00000250: f864 a0bc 0c55 6abd a8cd bc3c a633 133d
00000260: 0a91 2f3d 7825 32bd 4827 6d3c 7021 0abd
00000270: 7c19 8e3c 8094 10bb dc9f d23c 048f 6ebd
00000280: 309c 9a3b 3a1a 2abd c08c 803a b059 4bbc
00000290: 00a9 253c 9863 663c d728 35bd 000c 893c
000002a0: 9efd 38bd 7e20 a3bc c8d7 123c f052 d83b
000002b0: 3833 ea3c f4da ae3c 046a 27bd 9016 6e3d
000002c0: beeb 5c3d 204b c5bb 6a67 3d3d 6821 51bd
000002d0: d148 63bd f402 36bd be2d e4bc e8a5 6f3c
000002e0: e4f9 de3c 2a7b 1d3d 7604 4a3d ccd1 2fbd
000002f0: 35b8 12bd 0c47 b9bc 80b6 cf3b 5035 843b
00000300: 70f9 673c 10bb 74bc 1426 983c 4403 903c
00000310: f88a 5cbd bc8d 5b3d 7462 373d 2cf3 d23c
00000320: 7158 efbc d89e f53c 5054 96bc 24aa 2ebd
00000330: 701e 143c c578 15bd 82d0 3c3d 3445 8cbc
00000340: 8c36 a73c 187e 38bc b82e b0bc fa51 09bd
00000350: 35b3 e2bc a056 65bd d84e e7bb 99c7 59bd
00000360: a37a f2bc 00cb c43b bdf4 38bd 66ad 513d
00000370: 60a0 263d b5c3 16bd d429 d93c 186c b0bb
00000380: 4f36 febc 9c67 a63c 06ce 9ebc 2846 613d
00000390: f89c 8f3c fb76 07bd 5087 3a3c 3a5e 63bd
000003a0: 5850 d9bb 9cad cc3c 0871 bfbb 0034 faba
000003b0: 3441 3f3d 6dc1 3abd 14b1 b1bc 70b7 e6bc
000003c0: 15fc 1fbd 5ff6 68bd 3c67 0cbc 00d6 053d
000003d0: 4096 403d 46f0 a5bc 44d9 3d3d bc09 113d
000003e0: c050 1e3c 605b 543d 4042 423b f01b f13b
000003f0: 346a c03c fc73 cc3c 3d7e e1bc 80c6 56ba
0.0095689 -0.021202948 0.015161835 -0.033592805 0.017898649 0.030807935 -0.05231388 0.01547154
0.053248934 0.033602253 -0.01564043 0.05831667 0.030091062 0.022922307 -0.0024435557 -0.023330148
-0.049321346 0.040606752 0.01930087 -0.0503715 -0.05285847 -0.040714532 -0.00298376 0.0008646734
-0.036353506 -0.042958185 0.0012226887 0.040463023 0.019243084 0.013874516 -0.005327139 0.020932972
0.045385845 -0.054761473 -0.049612164 0.013752639 0.0022156201 0.017451257 -0.047076628 0.020565666
0.017889895 -0.04122886 0.0496153 0.009375155 -0.009758495 0.017341278 -0.031540483 -0.050053075
-0.008971654 0.03524171 -0.004530154 -0.039046936 -0.05736556 -0.019519042 -0.057939894 0.05820641
-0.055569157 0.006300643 0.05669287 0.010945693 0.00017419457 -0.04127042 -0.031139316 -0.05256454
0.04068356 -0.01310157 -0.0020486526 -0.02353289 0.00290199 0.0020866096 -0.008598767 0.039657213
0.005000621 0.04817666 0.028911859 0.020339988 0.0018364973 -0.027725939 0.028811596 -0.013190798
-0.03414011 0.027119562 0.056440867 -0.034768477 -0.034388624 0.029560655 -0.046613265 -0.023226764
-0.028646357 -0.019264717 0.050823577 -0.008820664 -0.007232379 -0.03656563 -0.021709107 0.02647242
-0.051640667 -0.03535976 -0.0127980895 0.032893308 -0.03036323 0.046080858 0.025542036 0.015996166
0.0037821978 -0.006584972 -0.036977388 0.019308597 0.022141099 0.025356047 0.036279395 -0.054158155
0.038676888 0.046330407 0.05133594 0.055955105 -0.023963578 -0.004708398 0.033710703 -0.012919061
-0.022699725 0.020338185 -0.036310874 -0.018449571 0.018356614 -0.04115931 0.04213643 -0.035684064
0.056563452 -0.035470493 0.018844143 -0.032322504 -0.051522657 -0.0029259622 -0.016212337 0.039634645
0.03621509 0.025639474 -0.051176045 0.0005428307 0.029388048 0.004973717 -0.042733245 0.045945242
-0.016028542 0.014633365 0.024776027 0.040673092 -0.019579396 -0.057210013 0.023047283 0.035937928
0.04286293 -0.043492764 0.014474697 -0.033723295 0.017346136 -0.002206117 0.025710993 -0.05824186
0.004718326 -0.041528918 0.0009807572 -0.01241152 0.0101110935 0.014061831 -0.0442284 0.016729355
-0.045163743 -0.019912954 0.008962579 0.006601684 0.028588876 0.02134464 -0.04087259 0.058126986
0.05393576 -0.0060209185 0.0462412 -0.05105725 -0.055489365 -0.04443641 -0.027853843 0.0146269575
0.027218767 0.038447537 0.04932066 -0.042924687 -0.035820205 -0.022616886 0.0063388944 0.0040346757
0.014158592 -0.014937177 0.018572845 0.017579682 -0.05384347 0.053601965 0.044771627 0.025750719
-0.029216977 0.02998297 -0.01835075 -0.042642727 0.00904046 -0.036492128 0.046097286 -0.017122842
0.020411752 -0.011260532 -0.021506652 -0.033525445 -0.027673343 -0.055990815 -0.0070589595 -0.053168867
-0.029599493 0.006005645 -0.045155276 0.051190756 0.04068029 -0.036807735 0.026509203 -0.0053839795
-0.031031756 0.020313077 -0.019385349 0.054998547 0.017530903 -0.033072453 0.0113848 -0.055509783
-0.006631892 0.024985127 -0.005842332 -0.0019088984 0.046693042 -0.04559462 -0.021690883 -0.028163642
-0.039058764 -0.056875583 -0.008569535 0.03267479 0.04701829 -0.020256173 0.04634978 0.035409674
0.009662807 0.051844954 0.002964154 0.0073580667 0.023488142 0.02495765 -0.027526015 -0.0008193031

bias f4 [256]
00000000: 1cc1 bc3c 7603 c3bc 0870 10bd 80af 323a
00000010: 2e39 05bd 7cb5 bf3c a0ca 923b 24bf 6abc
00000020: 0cc9 a83c 114a 3cbd d216 643d c0a6 b03c
00000030: 66c4 8fbc 7e3f 38bd e865 94bc 449a 55bd
00000040: 0a4e 323d 8e8b 3d3d 9076 d7bc c4df cd3c
00000050: 4c2e 533d 1433 48bd fa35 05bd ab57 29bd
00000060: b4b4 d83c 2e8f 613d 6160 0dbd 00fc 2bb8
00000070: fa96 4f3d d88f fe3c dc03 0fbc 9245 543d
00000080: 8473 89bc ec3d acbc f443 ee3c 00de c439
00000090: f447 333d c08f 833a 15ef 53bd 2d08 3bbd
000000a0: f4ec b73c ac9b a63c ba8a 5d3d 3eb3 273d
000000b0: 9063 5cbb f531 33bd 3058 90bb 3c19 643d
000000c0: 82a1 143d b001 bcbb d875 783c 88c1 e13c
000000d0: 7cf0 2abd 34a8 38bc 5cc6 63bc c83d 6ebc
000000e0: 446d 6bbc 4c83 d13c 746c 2abc 7a80 223d
000000f0: d490 c5bc 5af8 3ebd 0095 02bc f8bf bb3c
00000100: 4a8b 073d 702b 5e3d 941d fcbc 18a9 fbbb
00000110: 904c c93b 50d7 243b fe02 0f3d 22e7 f8bc
00000120: 96e4 093d cad6 f9bc 74ce ce3c 60ac 8fba
00000130: ecc9 f53c da2e 67bd e4a5 85bc 6e7b b6bc
00000140: 0f2d 2bbd 5114 01bd 9857 383c c026 c93a
00000150: c863 053d ae99 2a3d dcb7 db3c ccbb 05bd
00000160: b468 36bd e131 46bd 70b2 6ebd dc28 6e3d
00000170: d45c c23c 6830 80bb b076 2bbc 1063 b6bc
00000180: 58d9 573c accf 6e3d 5057 e33c 00dc 0e3a
00000190: 883e 283c aa6b 11bd 2247 81bc 7c90 203d
000001a0: 9819 673c 90f7 4e3d e04b 9cbc c42d 5abc
000001b0: 461b 5f3d c065 d93c ec82 433d 70fc 06bc
000001c0: 101c 8f3c e877 5fbd f8e4 79bc 7e7b 623d
000001d0: a588 57bd 4977 18bd c0cc 0f3a c88d a33c
000001e0: 3059 25bd 842b b5bc b053 21bd 4c6d 15bc
000001f0: 1088 cbbc e061 d33b 28b2 7c3c 2f75 f5bc
00000200: 9c41 353d f894 9abc c0fb 173a 4473 11bd
00000210: c0b7 353b 6005 a13c 85f4 1dbd c043 e13b
00000220: 5216 a8bc 15f0 64bd 4080 6b3a 4875 fbbb
00000230: f8ea f3bb 2803 063c 409a 3e3c ce44 1bbd
00000240: 1af9 b9bc 1ed3 98bc 6ac9 02bd f4a1 84bc
00000250: f65a 31bd 80f3 05ba 0060 3037 f0d7 b03c
00000260: dc65 f23c b8c2 5b3d 7a89 4a3d a8f3 4abc
00000270: 202b 913c a0aa c6bb 746e a6bc 001b dc3c
00000280: 2809 543d 54af 263d 5681 52bd 4ee3 433d
00000290: f684 03bd 7cc8 a4bc 6c63 b03c b40f fb3c
000002a0: b6db 2ebd 647c 5c3d 4060 3ebd 90dc 33bb
000002b0: b635 28bd a58f 36bd b467 80bc d950 dfbc
000002c0: 0053 1bbc 802c d639 0858 d33c a032 70bc
000002d0: b09b 503c b85b 6c3c 677e 2abd 583f 4d3d
000002e0: 60b5 573c 2ebf 363d 1c34 74bc 7cda 383d
000002f0: 5b6d 52bd 5c01 e43c 4066 613b 201b dc3a
00000300: 1838 19bd 1079 78bb f089 2a3d 9696 663d
00000310: 4482 f63c c6ce 2bbd 7467 373d f79d 48bd
00000320: 781b 523d 9079 43bc 401f e73a 5064 78bb
00000330: 787e ce3c 509e 813b 18fc 04bd c0d3 0dbb
00000340: 40ed 1b3a 94d0 9c3c e29c 32bd 6eef 5b3d
00000350: d84c b7bc dbbb 27bd e466 bdbc d6d4 013d
00000360: 107a 4c3b 70d4 7cbc ded0 41bd 3c64 3d3d
00000370: 8f80 5ebd 6885 ae3c 847c 943c 5ecd 66bd
00000380: 7814 90bb cadc 313d b834 f23c ec2a d63c
00000390: 9891 21bc 53e6 6abd 54b6 603d 1c9c 7dbc
000003a0: 2803 b7bb 97fb eabc d0df 443c 3ac9 0e3d
000003b0: 6ae9 babc 1cd2 1d3d 004f 9b3c 71ba 49bd
000003c0: 2076 243d 4402 2b3d b0c9 a33c ec6d 8c3c
000003d0: 1091 12bb 7879 c0bc 1216 2bbd c0b4 e63a
000003e0: f9a5 19bd 7035 60bc e837 9c3c a0e0 5e3c
000003f0: 00f7 5c3d 084c fb3c 8220 03bd 5000 8c3c
0.0230413 -0.023805361 -0.03526309 0.00068163127 -0.032525234 0.023401968 0.004479721 -0.014327798
0.02060368 -0.045969073 0.055685826 0.021563888 -0.017549705 -0.044982426 -0.018114999 -0.052149072
0.043531455 0.046275668 -0.026301652 0.025131114 0.051557824 -0.048876837 -0.03252218 -0.041343372
0.026453353 0.055068187 -0.034515742 -4.100427e-05 0.05068109 0.03107445 -0.0087289475 0.05182416
-0.016778715 -0.02102562 0.029085137 0.00037549436 0.04376979 0.0010037348 -0.05174168 -0.045662094
0.022451855 0.020337902 0.054087378 0.040942423 -0.003362868 -0.043748815 -0.004405044 0.055688128
0.03628684 -0.005737506 0.015164815 0.027558103 -0.04173325 -0.0112705715 -0.013902273 -0.014541097
-0.014369313 0.025575303 -0.010401834 0.039673306 -0.024116911 -0.046623565 -0.007970095 0.022918686
0.03309182 0.054240644 -0.030775823 -0.0076800697 0.00614316 0.002515275 0.034914963 -0.03038365
0.033665262 -0.030497927 0.025244929 -0.0010961406 0.03000351 -0.056441166 -0.016314454 -0.022275653
-0.041791018 -0.031513516 0.011251353 0.0015346631 0.032565862 0.041650467 0.02682107 -0.0326498
-0.044533446 -0.048387412 -0.05827564 0.058144435 0.023725905 -0.0039120205 -0.010465309 -0.022264034
0.013174377 0.05830352 0.027751595 0.00054496527 0.010268815 -0.035503067 -0.01578099 0.03920029
0.014105223 0.050529063 -0.019079149 -0.013316575 0.05446937 0.026537776 0.04773228 -0.008238897
0.017469436 -0.05455771 -0.015252344 0.055293553 -0.05262055 -0.037223134 0.0005485527 0.019965068
-0.04036826 -0.022115476 -0.03938645 -0.009120297 -0.024845153 0.0064508766 0.015423335 -0.029963104
0.044252023 -0.018869862 0.00057977065 -0.035510316 0.0027727932 0.019655883 -0.03856327 0.0068745315
-0.020518456 -0.055893023 0.00089836493 -0.007673893 -0.007443782 0.008179463 0.011633456 -0.037907414
-0.022701789 -0.018655356 -0.031930365 -0.016190507 -0.043299638 -0.00051098317 1.0512769e-05 0.021587342
0.029589586 0.053652495 0.049447514 -0.012387194 0.017720759 -0.0060628206 -0.02031634 0.026868343
0.051766545 0.04069455 -0.051392876 0.047824197 -0.032109223 -0.02011513 0.021531783 0.030647136
-0.04269 0.053829566 -0.04647851 -0.0027444698 -0.041066848 -0.044570584 -0.01567445 -0.02726023
-0.009480238 0.00040850416 0.025798813 -0.014660507 0.012732431 0.014426164 -0.041624453 0.050109237
0.013165802 0.044615917 -0.014905002 0.045130238 -0.05137382 0.02783268 0.003439322 0.0016792752
-0.03740701 -0.0037913956 0.041635454 0.056295954 0.030091412 -0.04194524 0.044776395 -0.048978772
0.051295727 -0.011930838 0.0017633215 -0.0037901588 0.02520679 0.00395564 -0.032466978 -0.0021641105
0.0005948134 0.019142427 -0.043606646 0.053695135 -0.02237551 -0.040950637 -0.023120351 0.031697117
0.0031200685 -0.015431508 -0.047318332 0.04623817 -0.05432182 0.021303847 0.01812578 -0.056348197
-0.0043969713 0.04342345 0.029566154 0.026143514 -0.009861372 -0.05734856 0.05486138 -0.015479114
-0.005585093 -0.02868442 0.012016252 0.034859873 -0.022816379 0.038530454 0.018958569 -0.04925007
0.040151715 0.041750208 0.019993633 0.017142259 -0.0022364296 -0.02349542 -0.041769095 0.0017601475
-0.0375118 -0.0136846155 0.019069627 0.013603359 0.053946495 0.030675903 -0.032013424 0.017089993

weight f4 [256, 256]
00000000: f832 2b3c a020 e33c 183d 673c e031 573b
00000010: 7410 d0bc 148e 8cbc 402a 35bc dcfe d93c
00000020: 90ea f8bb bcae 3ebd 98eb 7e3c 6091 dc3c
00000030: 588d 293c 6c37 34bd e0c2 833b d4f1 99bc
00000040: 0043 d63c 80cb b2bb d088 3e3d 5894 423c
00000050: 008f 5bbc b864 dabc c268 0dbd 7c4b 40bd
00000060: acaa 9c3c e45d 623d 803b 7e3d ec6d 123d
00000070: 8830 673d 2084 81bc 1256 4f3d a25d 483d
00000080: 7608 0a3d b066 ba3b e045 1bbb 1235 69bd
00000090: 84fe 083d 1007 4dbc bebe 79bd 7cfa 6e3d
000000a0: 8cc5 83bc 50ad 87bb 6485 7abd 403d 493c
000000b0: b8fd acbc 3094 f2bc fa64 263d 0a5e 49bd
000000c0: 70d6 2d3c 3895 253d f80d 16bd 2040 443b
000000d0: 2ccc e93c 44ee 9fbc a06a 59bc b031 62bd
000000e0: a4d4 823c 7094 1cbd 10eb 21bc 5e92 723d
000000f0: 9279 1e3d d8f5 11bd 8616 19bd 90bb f23c
00000100: 9253 76bd d023 933b 6468 d6bc a083 083c
00000110: 26bd 38bd 4084 b9bc dce7 483d b47b 3c3d
00000120: 0014 3b3a 484f 0b3d f4ac 0fbd 0895 0abc
00000130: f093 ff3b bef0 10bd 889a 163d 282e 703d
00000140: e864 8cbc d232 2fbd a0d0 4f3b 50f5 19bc
00000150: 9e9a 59bd 5a81 2dbd 5009 3ebc b6a4 293d
00000160: 70af 513d c09a 8cba 04ed ea3c 4043 ecbc
00000170: 8a60 0dbd 0ce3 43bd 2093 c53b acf8 86bc
00000180: ac2f 3cbd 0c20 a03c 308a 473c 7618 3c3d
00000190: f0ad c3bc c816 e73c f2b9 193d ce0d 633d
000001a0: 90f1 d53b 142a c7bc 7c25 1dbd e0d9 a83b
000001b0: 481d 063d 3c36 34bd 0831 1cbc d01f bfbc
000001c0: 8054 35bc 04c9 173d d084 43bd 3638 5a3d
000001d0: 8ed7 6ebd c093 5d3b 008e cb3c 3091 31bd
000001e0: 2691 423d 5c77 123d 5075 ef3b 3ef6 0cbd
000001f0: 9c34 f6bc 24a3 a5bc 7061 973b 0088 b9ba
00000200: d84b 80bc 2467 c6bc 40b0 423b 4ec9 7b3d
00000210: 7c8e 9cbc 0657 79bd da2c 6c3d 004d b8bc
00000220: 7018 c7bb dcc6 453d a0f5 92bb 0074 5539
00000230: a639 43bd 2836 5a3d f050 84bc f8b6 0a3c
00000240: dacf 15bd 063a 37bd b0fe e9bc 643b a6bc
00000250: 9825 6a3d 64f7 8fbc 98bf 303c e849 003c
00000260: 5a8e 49bd 9029 883c 06ae 59bd a0c2 29bb
00000270: b43f 6b3d a8eb 33bc f2bd 713d ee5e 40bd
00000280: 80d0 153a 8ee2 59bd beb8 773d b06f b63c
00000290: ec74 183d f8ac 40bd d08d 103c b281 093d
000002a0: 5281 07bd e60d 4dbd 98d2 dabc 406f f4bc
000002b0: 0021 fab9 aae7 24bd fcc1 1e3d 1850 333d
000002c0: 20f7 8bbb 780f 8d3c 6e57 7e3d 18ca ccbc
000002d0: 98e8 773c 3893 633d e0eb 063b 8cca f03c
000002e0: 7c62 f33c b8e3 083c 44df 6bbd 80e4 eb3b
000002f0: 1066 523c a257 0f3d 50be 29bc f0b6 b9bc
00000300: de4e 733d f4a6 9abc 08b7 13bc 7002 6b3d
00000310: 7cb2 66bd e8a3 38bd 804e 5f3a 18ca e1bc
00000320: 96cb 09bd 9c1a a53c d279 5b3d 4cf7 a93c
00000330: c4ba c53c f8c2 bebc 3e14 333d 3c7d 1a3d
00000340: fe1c 6a3d f434 d5bc a035 d3bc 00a9 f5bb
00000350: 0854 183d 3a91 673d b875 393d 02f8 243d
00000360: 2e82 69bd 1485 3c3d 4add 753d 6ae8 7ebd
00000370: 6e57 433d c8d5 cbbc 140a c6bc 9023 e3bc
00000380: 4435 bb3c 6060 383b 822a 153d c6fb 1b3d
00000390: 746d 4f3d f253 7d3d 38f8 b3bc b4e4 953c
000003a0: 3447 463d b816 c9bc 3225 0e3d e878 513d
000003b0: 5e7a 64bd c869 84bc eadc 4b3d e0bb 523d
000003c0: 983f 25bc 0ab5 6f3d 742c c6bc 6847 f63c
000003d0: 6896 e53c f8ea 363d fa6f 473d f06c 07bd
000003e0: a68f 3ebd 2044 513d 2244 49bd 663b 383d
000003f0: 2608 0d3d 109d 49bd 88f7 96bc 4c21 b3bc
0.010449164 0.027725518 0.014113687 0.0032836124 -0.02539847 -0.017157592 -0.0110574365 0.026610784
-0.0075963214 -0.04655336 0.0155591 0.026924789 0.01034864 -0.043998167 0.0040210336 -0.01879207
0.026154995 -0.005456388 0.046517193 0.011876188 -0.013400793 -0.026659355 -0.034523733 -0.046946988
0.019124351 0.055265322 0.062068462 0.03574936 0.056442767 -0.015810072 0.050619192 0.04891742
0.033699475 0.005688511 -0.0023692772 -0.056935377 0.03344585 -0.012513891 -0.06097292 0.05834435
-0.016085409 -0.0041405335 -0.061162367 0.01228267 -0.021117076 -0.029611677 0.040623643 -0.04916195
0.010610208 0.04042551 -0.036634415 0.0029945448 0.02853974 -0.019522794 -0.01327005 -0.055223167
0.015970536 -0.0382275 -0.009882703 0.059221618 0.038690157 -0.035634845 -0.037374996 0.029630452
-0.060138293 0.004490353 -0.026172824 0.008332163 -0.04510226 -0.02264607 0.049049243 0.04601641
0.0007136464 0.034011155 -0.03507705 -0.008458383 0.007799618 -0.03538584 0.036768466 0.058637768
-0.01713796 -0.042773075 0.0031710044 -0.009396866 -0.05312597 -0.042359687 -0.0115989 0.041416846
0.0511927 -0.0010727271 0.028677471 -0.028840661 -0.034515895 -0.04782395 0.0060295016 -0.016475998
-0.0459439 0.019546531 0.012178943 0.045921765 -0.02388665 0.028209105 0.037530847 0.055433087
0.0065290406 -0.024312057 -0.038365826 0.005152926 0.03274277 -0.043997034 -0.009533174 -0.0233306
-0.01106751 0.037056938 -0.04773408 0.053276263 -0.058311038 0.003380999 0.024847984 -0.043351352
0.047501706 0.03575836 0.007307686 -0.034414522 -0.030054383 -0.020219393 0.0046197698 -0.0014154911
-0.015661165 -0.024219103 0.0029707104 0.061471276 -0.01911091 -0.060874008 0.05765996 -0.022497654
-0.006075911 0.04828535 -0.004484847 0.00020356476 -0.0476624 0.053274304 -0.016151875 0.008466475
-0.036575176 -0.04473307 -0.028563827 -0.020291992 0.05716476 -0.01757402 0.010787867 0.007830121
-0.049208023 0.016621381 -0.053144477 -0.002590336 0.0574338 -0.010981478 0.059019037 -0.046965532
0.0005714968 -0.053194575 0.06047892 0.022270054 0.03722088 -0.047039956 0.008822873 0.033570953
-0.033082314 -0.050062083 -0.026711747 -0.029838204 -0.00047708303 -0.040259995 0.038759217 0.043777555
-0.004271403 0.01721929 0.0620951 -0.02499871 0.015131138 0.05556032 0.002058737 0.029393457
0.029710047 0.008355074 -0.05758597 0.00719887 0.012841716 0.034995683 -0.010360315 -0.02267024
0.059401385 -0.018878438 -0.009015806 0.05737537 -0.05632256 -0.04507819 0.00085184723 -0.027562186
-0.03364142 0.02015429 0.053582974 0.020747803 0.024136908 -0.023286328 0.043720476 0.03771709
0.057156555 -0.026026227 -0.025782406 -0.007496953 0.037189513 0.056534983 0.04527828 0.04027558
-0.057008915 0.04602535 0.06002549 -0.062233366 0.0476908 -0.024882212 -0.024174727 -0.027726918
0.022852547 0.0028133616 0.03641749 0.038081907 0.050641492 0.061847635 -0.021968946 0.01829753
0.04840775 -0.024546966 0.03470344 0.051140696 -0.05578076 -0.016163722 0.049771227 0.051448703
-0.010085963 0.05852226 -0.024191119 0.030063346 0.02802582 0.044657677 0.048690774 -0.033062875
-0.046523713 0.05109036 -0.049137242 0.04497852 0.0344316 -0.049222052 -0.018428579 -0.021866463

bias f4 [256]
00000000: a4ba 23bd 78c7 803c 4473 dbbc fc55 fc3c
00000010: 2af2 6abd 9887 563d 0043 033a 4a95 67bd
00000020: 1cac 49bd 20f7 28bd a048 ebbb a42d 4a3d
00000030: a877 c0bc 30c9 a3bb bcdb e0bc 4ac0 11bd
00000040: 5082 503d c21f 113d 4444 923c c0ba a2bb
00000050: 647e cfbc 3895 be3c ba98 52bd 2454 52bd
00000060: 6a7b 6d3d 207a 483c 6099 38bb 8ac1 253d
00000070: 624d 513d c4e2 49bd 927d 5b3d 40d8 483d
00000080: 6492 30bd a4b9 863c 62bf 5c3d 54d8 debc
00000090: d068 633c e4f1 f9bc 58c3 2c3c 50ad f6bc
000000a0: f05a 86bb eab0 6b3d 5856 b4bc 285b f33c
000000b0: 40d3 283b b2f3 00bd 0065 a1ba 5875 783c
000000c0: 7003 3a3d e83b 36bc d8b5 6f3c 9a06 1e3d
000000d0: ce7c 7dbd 303f 98bc 469b 75bd c066 63bb
000000e0: 30d5 b53c 90da 71bd b086 6cbc 2cec 063d
000000f0: b076 b5bb f8d7 b2bc dc4d 033d 00b9 f73c
00000100: 9866 213d 10ab 1abc c8fa d1bc 682d bdbc
00000110: 007e 8eb9 148f a0bc 6aaf 633d c6be 463d
00000120: 36b0 3ebd 4081 85bb 9a97 44bd fe2d 343d
00000130: d0d7 bf3c 0c8b 6cbd f8ca 0d3c c0b1 a2bc
00000140: 5cba 13bd 94f5 1d3d 40d6 f4bc 4021 e73c
00000150: 38b8 b83c 6818 453d 3099 3e3c 5635 0f3d
00000160: d841 4abc 98ca 12bd cedf 2f3d a043 cc3b
00000170: 1a35 703d 083d 0a3c 7e5f 12bd b269 08bd
00000180: 2c79 0ebd 7079 5ebc 000f 3abd ea19 1fbd
00000190: dad2 6a3d d8c2 babc 327b 19bd 6292 543d
000001a0: 5055 6bbd 4c2d 9bbc a077 58bb a228 3b3d
000001b0: 6077 67bb cef4 57bd 5c75 06bd 48d8 d0bc
000001c0: 9c7d 1dbd 5067 6bbc b04d 06bd a283 67bd
000001d0: 887e 453c 66d8 513d ecd0 b63c 6055 ae3b
000001e0: c029 99ba f056 4cbc 900c f53c 2676 133d
000001f0: 30f9 b43b 5653 303d 7022 403c 8852 5cbd
00000200: b87b 143d d41d a63c 2e23 413d 085b 19bc
00000210: 0cdb 2dbd 3235 2dbd 3251 7d3d e0dc efbc
00000220: 3ab5 18bd f4a4 64bd a0b8 be3c 2046 adbb
00000230: e83b 813c d01c 7a3d 10e2 2f3d 9844 7bbc
00000240: b69e 5d3d 4073 533d 8848 dcbc c461 29bd
00000250: ba3c 4dbd 3015 e33b d43d 27bd b47f 7e3d
00000260: 8ae3 223d 60e9 8abb 4ce3 5f3d 9e15 603d
00000270: 44b1 debc 3e08 3abd 2861 98bc 1cbd 8f3c
00000280: fc23 2d3d 0453 053d b0f4 833c d870 a93c
00000290: 4cc5 433d 3c5d 023d 80cc 983a 5a5a 57bd
000002a0: 9ed5 113d c000 cbbc 1c12 643d bca0 e0bc
000002b0: fc0f 433d 4082 59bc 3ce5 bfbc 509b 003d
000002c0: 4cbf 89bc ee9e 633d 3c01 50bd 4cdd fbbc
000002d0: 14dd 513d b06e 9cbb 500a c63b daab 663d
000002e0: 1260 7dbd 800c 453d 6acf 65bd b083 e5bc
000002f0: 3cce 7e3d 8437 543d 0c30 543d c8a6 dd3c
00000300: 22bc 653d 0035 31bb 805b d93b b20a 183d
00000310: 1613 2bbd 5017 483c 32e1 073d 849b 1bbd
00000320: ac26 bc3c 5018 6e3d 86d8 473d e8f3 84bc
00000330: 70bf 693c 46ac 103d 9a33 6a3d 0074 a839
00000340: 2833 63bd 78ce 0d3d 14ac 7e3d 80dd 4f3b
00000350: 241c a23c e0a7 cabb 4ca5 a03c 92e6 223d
00000360: d8d4 d5bc e013 153b 6a9c 213d 6072 123d
00000370: 227e 3ebd b023 ccbc 606e 1cbc 2a43 3bbd
00000380: 5a8b 5c3d d0d0 ecbc 0c61 89bc 848d 9f3c
00000390: 10c4 59bc ba0c 41bd 4886 b5bc 046a cbbc
000003a0: 382e a43c 20f2 0e3c 44c8 a13c 80ae 023b
000003b0: 404c 5abd e22e 543d 504f 05bd 70ea 1cbc
000003c0: a02d 3a3d 887f 3ebd 6257 193d ae78 3cbd
000003d0: 3827 783c 0a61 28bd ac28 b93c d4c5 9fbc
000003e0: 0040 57b9 ac05 c2bc 3083 3cbd 009a fdba
000003f0: a256 22bd 88a0 44bc 2638 5b3d 3805 353d
-0.039972916 0.015720114 -0.026788361 0.03080272 -0.057359852 0.052375406 0.0005007237 -0.056538858
-0.049236402 -0.0412513 -0.0071802884 0.049359933 -0.023494557 -0.0049983487 -0.027448528 -0.03558377
0.050905526 0.035430677 0.017854817 -0.00496611 -0.025328822 0.023264512 -0.051415183 -0.051349774
0.057979025 0.012236148 -0.002816759 0.040467776 0.05109919 -0.049288526 0.05358655 0.049034357
-0.04310836 0.016445942 0.053893454 -0.027202763 0.01387997 -0.03051085 0.01054462 -0.030111939
-0.004100196 0.057541765 -0.022013828 0.029706553 0.002576068 -0.031482406 -0.0012313426 0.015164696
0.045413435 -0.011122681 0.014630757 0.038580514 -0.0618866 -0.018584818 -0.059962533 -0.0034698695
0.022196382 -0.059046328 -0.014436409 0.032940075 -0.0055378303 -0.021831498 0.032056674 0.030239582
0.03940448 -0.009440199 -0.025632277 -0.02309294 -0.00027178228 -0.019599475 0.05558721 0.04852178
-0.046554767 -0.0040742457 -0.04799614 0.043989174 0.023418337 -0.057749793 0.008654349 -0.019860148
-0.036066398 0.03856428 -0.029887319 0.028214097 0.02254878 0.04811898 0.011633202 0.034962974
-0.0123448 -0.03583774 0.042938046 0.0062336475 0.05864439 0.008437403 -0.0357356 -0.033303924
-0.034783527 -0.013578758 -0.04542446 -0.038843073 0.05732999 -0.022797987 -0.037471004 0.051897414
-0.057454407 -0.018942498 -0.0033030286 0.045693047 -0.0035318956 -0.0527237 -0.032826766 -0.025493756
-0.03844987 -0.014367893 -0.032788932 -0.05652202 0.012054093 0.051231764 0.022316419 0.005320236
-0.0011685416 -0.012471899 0.029913217 0.036001347 0.0055228695 0.043048225 0.011726961 -0.053789645
0.0362508 0.020277895 0.04715269 -0.009360082 -0.042445228 -0.04228706 0.061845012 -0.029280126
-0.037282206 -0.055821374 0.023281395 -0.0052879006 0.015775636 0.061062634 0.0429402 -0.015336178
0.054106437 0.051623583 -0.026890054 -0.041353002 -0.05010674 0.006930016 -0.04083045 0.062133506
0.03976778 -0.0042392462 0.054660127 0.054708116 -0.027184136 -0.045418017 -0.018601015 0.017546229
0.042270645 0.032549873 0.016107887 0.02068369 0.04779558 0.031827196 0.0011657625 -0.0525764
0.03560411 -0.024780631 0.055681333 -0.027420394 0.047622666 -0.013275683 -0.023424737 0.031398118
-0.01681485 0.05557149 -0.050782427 -0.030745171 0.051236227 -0.004773937 0.00604371 0.056316234
-0.061859198 0.048107624 -0.05610601 -0.028016895 0.0622084 0.051810756 0.051803634 0.027057067
0.05608762 -0.0027039647 0.006633222 0.037119575 -0.04176625 0.012212589 0.033173747 -0.037990108
0.022967659 0.058128655 0.048790477 -0.016229585 0.014266834 0.035320543 0.057178117 0.00032129884
-0.05546871 0.034620732 0.062175825 0.0031717718 0.01978881 -0.006184563 0.01961007 0.03977067
-0.026102468 0.0022747442 0.03945581 0.035753608 -0.04650701 -0.02491936 -0.0095478 -0.04571835
0.053843834 -0.028908163 -0.016769908 0.01947666 -0.013291374 -0.047131278 -0.022158757 -0.024830826
0.02004157 0.008724719 0.019748814 0.0019940436 -0.053295374 0.051802523 -0.03254634 -0.009577379
0.045453668 -0.046508342 0.03743685 -0.046013527 0.015146069 -0.04110817 0.022602402 -0.019503511
-0.0002052784 -0.023684345 -0.046023548 -0.0019348264 -0.0396334 -0.012001164 0.053520344 0.04419443

weight f4 [5, 256]
00000000: bcdd c63c 803a 5ebc b676 49bd a432 27bd
00000010: 9a1b 68bd 3a2f 0f3d 6843 2ebc 0cb3 35bd
00000020: f66a 053d 08f2 0f3d 365c 60bd e6b4 43bd
00000030: 50e5 77bd 1252 283d 824e 3dbd 805c 90bc
00000040: 4e09 163d e02c f6bb 4c54 a6bc a03f 483d
00000050: 6613 3b3d e0e6 513c 88cb 70bd c045 f03a
00000060: b05c 98bc 005e 0c3b cc17 5fbd 8c52 5cbd
00000070: d4f7 f33c b0f7 843b 8c08 2cbd 6003 083c
00000080: 2808 c43c f209 6cbd b8c4 dbbc 3633 72bd
00000090: 80c0 d4bc d03c 2fbc a805 2bbc 28a6 2cbc
000000a0: b443 44bd e807 193c 105c 893c 5047 3f3d
000000b0: 0019 7dbd 2044 71bb 58a6 d3bc 60f7 633d
000000c0: 54fa 843c acd7 e73c 64ef efbc 00a8 39bd
000000d0: 0293 5cbd 4c83 71bd 1878 9a3c 40fe 77bb
000000e0: 6eb8 68bd 8426 4fbd bca6 a53c 4043 9e3c
000000f0: a47d 0abd ec64 20bd d0e5 49bc 904b 7fbc
00000100: 1aa4 65bd 14cc 66bd b673 3b3d 2830 44bd
00000110: 004e 083c a2ec 063d 58f8 3e3c 7823 333d
00000120: 88d1 60bc 4876 7ebd ba25 70bd 2437 72bd
00000130: 6e6f 54bd 0424 0abd 64ef ccbc 60c9 933c
00000140: 5a76 3b3d 3ecd 243d ac41 33bd 92d2 0e3d
00000150: d090 453c acc4 f63c 7010 ea3b 9aee 703d
00000160: 72eb 753d 60fa c73c c017 493b 8011 ed3a
00000170: 4416 50bd 4c7d 78bd 0844 7e3c 9ed9 64bd
00000180: e810 6abc e08e d63c e826 1dbd b8d7 0bbc
00000190: 1a9e 7f3d 08ef 733c 4038 643b 4c4f ed3c
000001a0: bce9 033d 1687 69bd 221b 213d 525b 16bd
000001b0: d862 bebc c802 14bc e477 0b3d 30e8 433d
000001c0: dec6 20bd d08c e9bb 0008 633d f84f 2cbc
000001d0: 6c33 e13c b023 8f3b 606a 26bd f417 94bc
000001e0: 0023 65bb 7e66 463d 8c2a ad3c 00ab c839
000001f0: bc0b 6bbd e494 dbbc 9089 d0bb 7c9c a7bc
00000200: 1073 3cbd 2a9d 36bd 00bd 73ba 1ab7 703d
00000210: 6858 ecbc fa59 25bd 9ef8 6ebd 6c1c 5a3d
00000220: 50e4 8f3b 1869 7c3d da25 103d 94b7 a9bc
00000230: 74de 9a3c f00b d53c 1088 de3b d013 a5bb
00000240: 402c 22bb a020 653c a037 50bb dcf6 60bd
00000250: 2001 143d 7883 ad3c f664 3abd b8f9 c3bc
00000260: d258 0c3d 4830 d33c 8c86 8ebc 4859 6d3d
00000270: 7425 203d ea81 15bd 58cd 753d 801f ccbb
00000280: d8cc b9bc 3860 7b3d 8464 c6bc 689b 6abc
00000290: 8004 04bd b00e adbc 604e b7bb 106e 40bd
000002a0: bcb1 e53c b4b8 fd3c a86a 4c3d d268 5e3d
000002b0: e05e 7b3c b699 68bd 3cf2 1bbd e0d5 7d3b
000002c0: ea59 083d 9c37 d13c 1020 a4bc f049 5bbc
000002d0: 48f3 40bc b0d8 943b 4a67 02bd 50d2 2b3c
000002e0: acdc 68bd 34af ad3c 74cb 0f3d d4a9 0ebd
000002f0: 3c16 22bd e0e8 66bc 3886 bb3c b45b fd3c
00000300: a832 4bbd 9458 4a3d b44b 8c3c 062e 7dbd
00000310: dc23 8c3c 3445 32bd ec67 e33c 1076 34bd
00000320: 804e 8cba 6673 1b3d 4803 4bbc 9aec 353d
00000330: 78ce 443c 20f9 f6bc 605b 3d3c 5499 4c3d
00000340: c063 203b f86f c73c 3826 cf3c 587a e63c
00000350: c492 52bd 7426 c3bc c42c 64bd 002a faba
00000360: d811 4fbc 0007 ebb9 5806 c8bc 40ab 5cbc
00000370: 8ae8 7a3d 5002 e43b 808c 373a 7c48 ee3c
00000380: 7894 32bd e66e 10bd 1049 46bc 66b3 61bd
00000390: 20bd c5bc 9eec 1bbd 5800 fa3c 5c2d 40bd
000003a0: ea53 51bd c62e 4f3d 42fa 463d b067 5e3c
000003b0: 56b0 5c3d a872 b3bc c8a8 c33c 3802 48bd
000003c0: 58f5 e0bc 78eb 20bc e887 3d3c 50e8 013d
000003d0: 4438 08bd 4436 643d d008 d13c 9cbb c83c
000003e0: 2015 203c ae29 573d 4407 fdbc 70f3 7dbc
000003f0: 9a17 71bd 309a 01bd 049d e3bc aa93 283d
0.024275653 -0.013563752 -0.049185477 -0.04081978 -0.056666948 0.034957148 -0.010636188 -0.044360206
0.03257271 0.03514293 -0.05477544 -0.04777994 -0.060521424 0.041093893 -0.04621745 -0.017622232
0.036629967 -0.0075126737 -0.020303868 0.048888803 0.045672797 0.012811393 -0.058787853 0.0018331334
-0.018598884 0.0021418333 -0.054466054 -0.05378966 0.02978126 0.004057847 -0.04200034 0.008301586
0.02392967 -0.057626672 -0.026827201 -0.05913087 -0.025970697 -0.010695651 -0.01043836 -0.010537662
-0.04791613 0.009340264 0.016767532 0.04669887 -0.06179142 -0.0036814287 -0.025836155 0.055655837
0.016232647 0.028301083 -0.029288955 -0.045326233 -0.053851135 -0.058963105 0.018856093 -0.0037840754
-0.05681651 -0.05057384 0.020221107 0.019319177 -0.033811226 -0.039158747 -0.012322858 -0.01558198
-0.056064703 -0.056346968 0.045764647 -0.047897488 0.008319378 0.032940514 0.011655889 0.043734998
-0.013721831 -0.06212452 -0.05862973 -0.059134617 -0.05186408 -0.033725753 -0.025016494 0.018040359
0.045767166 0.040234797 -0.0437638 0.034868784 0.012058452 0.030123077 0.007143073 0.0588213
0.06003899 0.02441138 0.0030684322 0.001808688 -0.050802484 -0.060666367 0.01551915 -0.0558716
-0.014286257 0.026191175 -0.038367182 -0.008535318 0.062406637 0.014888532 0.0034823567 0.028968476
0.03220533 -0.057013594 0.039332516 -0.036708184 -0.023240492 -0.009033866 0.034049883 0.047828853
-0.039252155 -0.007127382 0.05542755 -0.010517113 0.02749034 0.004368268 -0.04062879 -0.018077828
-0.0034963489 0.048437588 0.021138452 0.00038274378 -0.057384238 -0.026804395 -0.006364055 -0.02046036
-0.04600817 -0.044583477 -0.00092978776 0.05876837 -0.02885075 -0.04036901 -0.05834257 0.05324976
0.0043912306 0.061623663 0.035192348 -0.02071742 0.018904902 0.026006669 0.0067911223 -0.005037762
-0.0024745613 0.013984829 -0.0031771436 -0.054922923 0.036133885 0.021180853 -0.04550644 -0.023922786
0.034264393 0.025779858 -0.017398141 0.057946473 0.039098218 -0.03650085 0.060010284 -0.006229341
-0.022680685 0.06137106 -0.024217851 -0.014319278 -0.032230854 -0.021125168 -0.00559406 -0.046979964
0.028038852 0.030971862 0.049906403 0.054299183 0.015342444 -0.056787215 -0.03807281 0.0038732216
0.033288874 0.025539212 -0.02003482 -0.013384327 -0.011776753 0.0045424327 -0.031836785 0.010487154
-0.056851074 0.021201707 0.035106137 -0.03482993 -0.039571986 -0.014093608 0.022891149 0.030927517
-0.049608856 0.04940088 0.017125942 -0.06181147 0.017106943 -0.04352303 0.027759515 -0.044057906
-0.0010704547 0.03795185 -0.012390919 0.044415094 0.012012117 -0.030148089 0.01155743 0.049950913
0.0024473518 0.024345383 0.025286779 0.02813451 -0.051409498 -0.023822047 -0.055706754 -0.0019086003
-0.012638532 -0.00044827908 -0.024417087 -0.013468564 0.061256923 0.0069582835 0.0007001832 0.029087298
-0.043598622 -0.03526201 -0.01210238 -0.05510273 -0.024138033 -0.038067453 0.030517742 -0.046918258
-0.051105417 0.050581716 0.04857851 0.013574526 0.053879105 -0.021905258 0.023884192 -0.04883024
-0.027460739 -0.009821765 0.011568047 0.03171569 -0.033256784 0.055715814 0.025516897 0.024503522
0.009770662 0.052529983 -0.030887254 -0.015499935 -0.0588604 -0.031641185 -0.027784832 0.04115645

bias f4 [5]
00000000: 68da edbc 243c a83c 1884 4a3d 966a 56bd
00000010: 4252 16bd
-0.029034808 0.02053649 0.04944238 -0.052347742 -0.03669954
