baseline_models/random-agent-5.pt (torch_old, 595817 bytes, 6 tensors)

weight f4 [256, 294]
000000 1c 4b d7 3c 76 4e 1e bd 00 d5 4c 3c 30 46 bf bc
       0.026280932 -0.038649045 0.012501955 -0.023348898
000010 28 53 6b 3d 05 9f 2c bd 44 da df bc 7c e8 d9 3c
       0.05745235 -0.04214384 -0.027325757 0.026600115
000020 59 8a 17 bd f6 87 89 bc 96 82 4e 3d b8 ca 1d 3c
       -0.036997173 -0.016788464 0.050417505 0.009630851
000030 1c ed 64 3d dd 36 2b bd 20 ff 1a 3c 78 a5 35 bc
       0.055890188 -0.04180037 0.009460241 -0.011086814
000040 e8 9c 3d 3c 40 30 58 3d b6 ec 98 bc 1a 9d 6e 3d
       0.011573054 0.05278039 -0.01866756 0.058255292
000050 74 cc 9a 3c 14 c9 1a bc be 2d 49 bd da ad 37 3d
       0.018896319 -0.009447355 -0.04911589 0.044843532
000060 16 89 5a 3d 26 76 39 bd d4 75 27 bd 10 94 ac bc
       0.05335339 -0.04527869 -0.040883854 -0.021066695
000070 92 69 1d 3d 04 2a 5e 3d 50 5b f2 3b ee 0a cb bc
       0.038430758 0.054239288 0.007396139 -0.024785485
000080 50 2c 1b bc 00 da da bb d2 2b 57 bd 30 e1 5a 3c
       -0.009471014 -0.0066788197 -0.052532025 0.013359353
000090 f4 51 c2 3c ce 61 43 3d 08 b4 a6 bc b4 0d d7 3c
       0.023720719 0.047700696 -0.020349517 0.026251651
0000a0 60 9f 9f 3c 10 76 d2 3b 10 c9 05 bd 18 d3 3d 3c
       0.019485176 0.0064227656 -0.03266245 0.011585973
0000b0 78 59 f3 3c fc 1e 33 3d a0 d4 9b bb f4 e3 71 bc
       0.029705748 0.04373072 -0.0047555715 -0.014763821
0000c0 c0 7f 1a 3d 8e c8 1c 3d e9 ad 67 bd f2 47 61 bd
       0.03771949 0.0382772 -0.056562338 -0.055000253
0000d0 e0 c8 a2 3a f6 74 c0 bc 58 f6 c3 3c 40 f9 6d 3b
       0.0012419485 -0.023493271 0.023921177 0.0036311895
0000e0 d0 0f ba 3c 76 7a 08 3d 20 a6 fa 3c 60 0a 13 3c
       0.022712618 0.033319913 0.030596793 0.008974642
0000f0 9c e2 05 bd e0 88 69 3d 8c 1c 67 bd d8 4d f7 3c
       -0.032686815 0.0570153 -0.05642371 0.030188486
000100 86 7f 56 bd 0e 59 0d 3d b8 e6 88 3c 72 89 c8 bc
       -0.05236771 0.034508757 0.016711578 -0.024479602
000110 d4 13 68 3d 1e 5a 96 bc 65 ce 6c bd 80 58 11 bd
       0.056659535 -0.018353518 -0.05781402 -0.03548479
000120 65 c5 3d bd 10 4b 26 bb 88 2a ad bc d8 fd 62 3d
       -0.04633083 -0.002537433 -0.021138445 0.055417866
000130 60 ca 35 3c 0e cf 21 3d 48 69 63 bc 08 2e f2 bb
       0.011095613 0.039504103 -0.0138800815 -0.0073907413
000140 90 02 1a 3c 53 4c 52 bd 92 e3 46 bd 00 30 fb 3c
       0.009400025 -0.05134232 -0.04855687 0.030662537
000150 00 40 f7 3b ee 6f 24 3d dc 25 0c bc 55 1c e4 bc
       0.007545471 0.040145807 -0.008553948 -0.027845541
000160 42 cb 20 bd 40 e6 2a 3c d4 f7 52 3d 56 11 ad bc
       -0.03925634 0.010430872 0.05150588 -0.02112643
000170 d0 17 05 3c d8 32 b1 3c fc 5d 87 bc 0a b9 5e 3d
       0.008123353 0.02163069 -0.016524307 0.054375686
000180 f2 e5 53 3d 68 ed 06 bd bc 91 47 bc 18 b4 0b bd
       0.051732965 -0.032941252 -0.012180742 -0.034107298
000190 6c 3a f1 bc 5c 32 47 3d d8 14 43 3d 28 f3 29 3c
       -0.029446803 0.04863201 0.0476273 0.010372914
0001a0 fc 9a 3c 3d 81 f6 4a bd d2 05 58 3d 1c c9 ec 3c
       0.046046242 -0.04955149 0.052739926 0.02890449
0001b0 a0 b2 03 bc 20 db 55 3c 21 67 53 bd e4 65 95 3c
       -0.008038193 0.013052732 -0.051612023 0.018237062
0001c0 51 87 42 bd 0c 4b 3f bd 56 55 ad bc 8c b4 0c 3d
       -0.04749233 -0.04670243 -0.021158855 0.03435187
0001d0 ea 02 2f 3d 1c 88 17 3d b0 bb 2b 3b 2a 97 97 bc
       0.04272739 0.03699504 0.00262044 -0.018504698
0001e0 00 43 15 bb 2e 03 1e bd 90 e8 a9 3c 6e 0d 19 3d
       -0.002277553 -0.03857725 0.020740777 0.037366323
0001f0 b8 bd 94 bb f0 31 7e 3c 43 42 4a bd 2c 35 17 bc
       -0.004539218 0.015514836 -0.0493796 -0.009228986
000200 c0 b9 68 3a f9 77 11 bd 92 42 4e 3d f8 22 25 3c
       0.00088777766 -0.035514805 0.050356455 0.010079138
000210 56 c3 07 bd 9c 34 35 3d 40 26 57 3d a0 c1 3a 3b
       -0.03314527 0.044239625 0.052526712 0.0028496757
000220 c0 f0 62 bb 06 53 2f 3d 8c af 94 3c 90 79 c3 3c
       -0.0034628361 0.042803787 0.018150114 0.023861676
000230 80 bf 7b 3b 2c fe f2 3c 52 a5 28 bd 8e ef 0b bd
       0.0038413703 0.029662214 -0.041173287 -0.034164004
000240 c6 06 33 3d 70 40 6b 3c 1c b3 c9 3c 08 ea 17 3d
       0.04370763 0.014358625 0.024621539 0.037088424
000250 69 5a 56 bd 4c 60 5e bc 50 94 0d 3b 16 0f 2f 3d
       -0.052332316 -0.013572764 0.0021603294 0.042738996
000260 90 11 d0 bb 88 14 3b 3d 32 b3 4d 3d 8a 95 5f 3d
       -0.00634975 0.045673877 0.050219722 0.05458597
000270 78 18 a8 3c 44 c8 07 bd 68 c8 da bb d8 f7 35 3d
       0.02051948 -0.033149973 -0.0066767223 0.044425815
000280 c9 e3 ee bc 40 89 c4 3a 40 e1 b3 3c 28 03 37 3c
       -0.02916135 0.0014994517 0.021957994 0.011170186
000290 d2 87 5b 3d a0 37 61 3b 80 4a 1e 3a 4a a9 58 3d
       0.053596325 0.003436543 0.0006038323 0.05289582
0002a0 60 90 e1 3c 48 53 3b 3d 7c ad d8 3c 80 39 7c bb
       0.027534664 0.04573372 0.026449911 -0.003848642
0002b0 19 d3 10 bd 4a a0 fb bc 66 d6 4c bd b4 85 c1 bc
       -0.03535757 -0.03071608 -0.050009154 -0.023623325
0002c0 04 0d f8 3c 2b 62 1a bd d2 fe 1a 3d aa 11 69 bd
       0.030279644 -0.037691277 0.03784067 -0.05690161
0002d0 14 48 89 3c f0 68 ad 3c 28 29 1f bd 40 3f 6d bc
       0.016758002 0.021168202 -0.03885761 -0.014480412
0002e0 fe ce db bc 50 25 fc 3b 84 2d 06 bd 50 59 b8 3b
       -0.0268321 0.0076948777 -0.03275825 0.0056258813
0002f0 70 86 e3 3c 96 9c 39 3d a4 79 5b bd 4c 04 ca 3c
       0.027774066 0.045315348 -0.053582802 0.024660252
000300 54 a2 df 3c 2e 8a 1a 3d b2 17 00 3d 84 72 2a bd
       0.027299084 0.037729435 0.031272598 -0.041613117
000310 4c 0f 12 3d 18 74 06 3d 2e fb 2a 3d 90 ed 31 3d
       0.03565912 0.03282556 0.04174345 0.043439448
000320 a4 20 37 3d 2e de 21 3d 10 0e 5d bc f0 e6 ef bb
       0.044708863 0.039518528 -0.013492122 -0.007321231
000330 30 3e b0 bc bc 02 58 bd 95 4f e4 bc e0 a2 5b 3b
       -0.021514028 -0.052736983 -0.027869979 0.003351383
000340 b4 3f 0b bd 90 aa 6a 3d 88 7f 33 bc 72 17 22 bd
       -0.0339963 0.057291567 -0.010955699 -0.03957314
000350 68 8a 98 bc de 74 35 bd 20 7a be ba 5f 07 24 bd
       -0.018620685 -0.044300906 -0.0014532246 -0.040046092
000360 3a 12 03 3d 58 a9 8c 3c 00 39 27 3c c4 c8 68 3d
       0.031999804 0.017170593 0.010206461 0.05683209
000370 85 dd 38 bd d8 83 06 3d 32 0f 4b bd c0 d2 1a 3c
       -0.045133132 0.03284058 -0.04957504 0.009449661
000380 a0 d4 c2 3c fa 48 f6 bc 2c c6 cf bc ae 51 3a 3d
       0.023783028 -0.030064095 -0.02536305 0.045488052
000390 d7 7b 4b bd d4 32 38 bd 10 fc 62 3c fc 68 34 bd
       -0.04967865 -0.04497035 0.013854042 -0.044045433
0003a0 e8 20 37 3d ce 2d 56 3d 72 7d da bc c8 8e 94 bb
       0.044709116 0.052289777 -0.026671145 -0.0045336224
0003b0 10 58 de bb 60 78 2f 3b 84 a4 66 bc 30 52 7c bb
       -0.0067854 0.002677463 -0.0140773095 -0.0038501136
0003c0 d4 64 25 3d 20 22 8c 3c c7 9d 10 bd 4f bb 65 bd
       0.04037936 0.017106116 -0.03530672 -0.056086835
0003d0 84 f0 ac 3c cb 00 58 bd 18 7e 5f 3c d0 cc 36 bb
       0.02111078 -0.05273513 0.013640903 -0.0027893074
0003e0 c9 02 03 bd ef bd 32 bd 09 4b e5 bc 80 17 3b bd
       -0.031985078 -0.043638166 -0.027989881 -0.04567671
0003f0 de 47 0c 3d 80 fb 3f 3d 0c 64 02 3d a0 13 1a bd
       0.034248225 0.04687071 0.031833693 -0.037616372

bias f4 [256]
000000 f0 5a f0 bc aa af 52 bd c4 55 eb 3c bc 66 e8 3c
       -0.029340237 -0.051437058 0.02872742 0.0283693
000010 18 29 6d 3c 60 74 1b bd 9c 3f 42 bc f7 63 28 bd
       0.01447513 -0.03795278 -0.011855986 -0.04111096
000020 16 ef ad bc c0 06 df bc b6 b7 26 bd 50 34 74 3c
       -0.02123217 -0.027224898 -0.040702544 0.01490505
000030 b0 00 d0 bc 84 5e 0d 3d 70 ff 66 bc f4 c7 46 bd
       -0.025390953 0.034513965 -0.014098987 -0.048530534
000040 a0 e3 0a bb 4a 49 a4 bc e8 cd 1e bd ba 1f bc bc
       -0.0021192804 -0.020054478 -0.038770586 -0.022964347
000050 0c 8a 5e 3d 06 7d 1d 3d 5c 8d 90 bc 83 d1 3f bd
       0.05433087 0.03844931 -0.01764553 -0.046830665
000060 88 90 c8 bc 98 68 23 bc 94 a1 df bc 04 a7 9d 3c
       -0.02448298 -0.009973668 -0.027298726 0.019244678
000070 38 d6 57 3c d6 45 c9 bc aa 88 30 3d 0c 6e 5b 3d
       0.013173632 -0.024569433 0.043099083 0.053571746
000080 90 9c dd bb 9a 42 2c bd 80 1e 38 bb 30 96 8e 3b
       -0.0067630485 -0.042055704 -0.0028094351 0.0043514
000090 ae ed 1d 3d 30 7e 08 3d 3c ca 3b bd 5c 06 51 bc
       0.038556747 0.033323467 -0.045847163 -0.012757864
0000a0 af 80 ee bc a8 7a 4c 3d 60 dc 46 3c 30 0c 2b 3c
       -0.029114095 0.04992166 0.012137502 0.010439917
0000b0 00 2c 05 38 16 96 0c 3d c0 ce b5 3c 94 04 87 3c
       3.175065e-05 0.03432282 0.022193313 0.016481675
0000c0 4c 7c 48 3d 74 50 9a 3c c0 0b 3d ba 80 95 94 ba
       0.048946664 0.018837191 -0.0007211529 -0.0011336058
0000d0 e0 4a 21 3c e4 0d 88 3c 19 a2 69 bd 40 cb 4f bd
       0.009844512 0.016608186 -0.057039354 -0.050730944
0000e0 08 87 8c 3c 2c 2c 8e 3c 70 2b 5e 3d 50 5d 9c 3c
       0.017154232 0.017355047 0.054240644 0.019087464
0000f0 50 fd a7 bc f6 bf 31 3d 9e b6 4f 3d 40 16 fc 3b
       -0.020506531 0.04339596 0.050711267 0.007693082
000100 bc 9d ab 3c 94 0f 8d 3c a8 5d cf 3c 62 6e 86 bc
       0.020949237 0.017219342 0.025313213 -0.016410057
000110 00 32 3c 39 a0 d5 b9 3b 32 b1 38 bd 0b 99 3e bd
       0.00017947704 0.005671218 -0.04509086 -0.046532672
000120 e4 2d 84 bc 58 d8 7c bc 44 81 e1 3c 8c 6d a8 3c
       -0.016135164 -0.01543244 0.027527459 0.020560049
000130 e4 84 2e bc dc 5f e5 3c 6c 25 b3 3c b2 b7 46 bd
       -0.010651801 0.02799981 0.02186843 -0.04851503
000140 9f e3 13 bd 72 74 82 bc be 19 20 3d 03 54 3f bd
       -0.03610575 -0.015924666 0.03908705 -0.04671098
000150 54 10 ad 3c 68 ec 30 3c 20 f5 59 bc 22 2a 88 bc
       0.02112595 0.010798551 -0.013303071 -0.016621653
000160 b0 be d6 3b 0c 94 d7 3c 39 9a 2c bd de ab 3d 3d
       0.0065534934 0.026315711 -0.042139266 0.046306483
000170 54 4e 9d bc fa a7 3f 3d 8c 07 80 bc ee ba fc bc
       -0.019202389 0.046791054 -0.015628599 -0.030850854
000180 a5 ab 66 bd 10 e3 c2 3b 20 01 0f 3d 02 a9 d6 bc
       -0.056316037 0.005947478 0.034913182 -0.026203636
000190 c0 d3 2d 3c 52 03 01 3d ba b5 cd bc 9a d1 68 3d
       0.010609567 0.031497307 -0.025111068 0.056840517
0001a0 68 de e7 3c 40 a9 d8 3b 4a 4d 48 bd b4 f3 91 3c
       0.028304294 0.006611973 -0.048901834 0.017816402
0001b0 06 d5 51 3d e0 e0 da ba 70 07 01 3d 78 e1 60 bd
       0.051228546 -0.0016699098 0.031501234 -0.054902524
0001c0 79 89 ec bc 00 ba ce bb 74 f5 4a 3d cc 8e 0a 3d
       -0.028874146 -0.006308794 0.04955049 0.033827588
0001d0 44 b3 55 3d 52 7c b9 bc 34 0b d0 3c b4 b9 6c bd
       0.052172914 -0.022642288 0.025395967 -0.057794288
0001e0 2a 4a 0a bd c4 f7 68 3d 48 37 78 3c 80 fb 17 3d
       -0.033762135 0.056876913 0.015149899 0.037105083
0001f0 2e 1b 1d bd d0 72 23 3d 4a e6 6b 3d 4c 80 9f bc
       -0.038356 0.039904416 0.057592668 -0.019470356
000200 9a 57 19 3d 00 4e 04 3c 48 37 b6 3c 08 67 47 bd
       0.03743706 0.008075237 0.022243157 -0.048682243
000210 ec 62 a7 bc cc b3 4b 3d 74 bd 8b bc 7c 87 4e 3d
       -0.020432912 0.049732015 -0.017058112 0.050422177
000220 b8 d3 0f bd a6 93 2e bd d4 77 2f bc 00 21 86 bb
       -0.03511402 -0.042621277 -0.010709722 -0.0040932894
000230 6f da 0a bd 40 48 95 3a 78 99 36 3d 88 cc 6f bc
       -0.03389972 0.001138933 0.044579953 -0.014636166
000240 d9 8a 3f bd 78 90 b3 3c a8 e0 f3 bb 66 29 02 bd
       -0.046763275 0.021919474 -0.0074425526 -0.031777762
000250 e8 18 2f bd 80 a8 2d bd 74 ed 43 3d 06 16 5c 3d
       -0.04274836 -0.042397022 0.047833875 0.05373194
000260 4a 09 4b 3d 72 13 0a 3d a0 be 0c bc fe 8d 37 3d
       0.049569406 0.03370995 -0.00859037 0.04481315
000270 70 31 5e bc ec fd 17 bd e6 08 b0 bc c8 d7 86 3b
       -0.0135615915 -0.037107393 -0.021488618 0.0041150786
000280 50 ad 48 3d 1b 59 3c bd a0 82 f3 3a 2c df 88 3c
       0.04899341 -0.045983415 0.0018578358 0.01670798
000290 28 64 03 bc ce 1b 6b bd b0 ac 25 3c d6 ec 35 bd
       -0.008019485 -0.057399563 0.010111973 -0.044415317
0002a0 a8 2c 3b bc 1a db 6a 3d 90 83 49 bc f0 60 72 3c
       -0.011424221 0.057337858 -0.012299433 0.0147936195
0002b0 ec af 2b 3d 3a b7 8a bc 10 5d 8c 3b 50 f9 36 3d
       0.04191582 -0.016933072 0.004283555 0.044671357
0002c0 30 c0 3d bd e8 1a 64 3d 06 5f 33 bd be 85 dc bc
       -0.046325862 0.055689722 -0.043791793 -0.026919242
0002d0 b0 45 01 bc fc f7 01 3d aa f2 82 bc d0 70 d2 3b
       -0.00789015 0.031730637 -0.015984852 0.0064221397
0002e0 e0 f8 59 bb c8 29 9b 3c 10 6e b8 3b 78 65 13 bd
       -0.0033259913 0.018940821 0.005628355 -0.03598544
0002f0 08 10 e1 3c 42 30 5b 3d 2e e3 4e bd 01 4f 24 bd
       0.027473465 0.05351282 -0.050509624 -0.040114406
000300 9c 29 3d 3d 5c 96 52 bd 10 b1 4e 3c 38 ce 24 3c
       0.04618226 -0.051412925 0.012615457 0.010058932
000310 c0 04 16 bd 10 70 c5 3c f0 ff 24 3d 2f 14 22 bd
       -0.036625624 0.024101287 0.040283144 -0.03957003
000320 2a 7f 51 bd 00 29 c5 3b d2 a2 3b 3d 18 42 fd 3c
       -0.051146664 0.0060168505 0.045809574 0.030915305
000330 c4 1d 4f bc 3a 10 11 bd 48 72 39 bd 6c 4c 1f 3d
       -0.012641374 -0.035415865 -0.045275003 0.03889124
000340 2c 0a 49 bc 00 31 28 bd 1b b0 5c bd 54 42 3a 3d
       -0.012270492 -0.041062355 -0.053878885 0.04547341
000350 66 40 5c bd 20 e9 3a 3b 6e c6 b7 bc 74 93 f9 3c
       -0.053772353 0.00285203 -0.022433486 0.030465819
000360 90 37 38 3b 40 12 5f bb 98 69 b5 bc 48 ed c5 bb
       0.002810929 -0.0034037977 -0.022145078 -0.006040249
000370 f0 5f 4f 3d a0 1d 8a 3b 30 82 a5 3b 60 e8 fd 3b
       0.050628603 0.0042149574 0.00505092 0.0077486485
000380 66 7b 55 bd e8 87 a6 bb 20 59 ab 3b dc de 63 3d
       -0.052119635 -0.0050821193 0.0052291304 0.055632457
000390 00 5a dc 38 80 25 c4 bb 87 ef 5a bd a8 d4 52 bd
       0.00010507181 -0.0059859157 -0.053451087 -0.051472336
0003a0 08 a7 a9 bc ca 4c 19 3d 00 2f a4 bc 0a 97 8c bc
       -0.02070953 0.037426747 -0.020041943 -0.017161865
0003b0 be 20 c9 bc e0 a1 8b bb a8 5d 91 3c 3c a6 e5 bc
       -0.024551746 -0.0042612404 0.017744854 -0.028033368
0003c0 70 fa e0 bb 96 83 23 bd 50 41 4c bc 5a f4 3c 3d
       -0.006865792 -0.039920412 -0.012466744 0.04613147
0003d0 60 37 2c 3d fc 7c 76 bc 19 ff 4f bd f0 73 b5 bb
       0.042044997 -0.015044447 -0.05078039 -0.0055375025
0003e0 8c 7b fb 3c 20 de c5 bc 6e b1 05 bd 10 3a f9 3b
       0.03069856 -0.024153769 -0.032639913 0.0076057985
0003f0 46 97 c3 bc 80 4d fd ba 3e 04 10 3d 4a 5e 0e bd
       -0.023875844 -0.0019325465 0.035160296 -0.03475789

weight f4 [256, 256]
000000 8c 1b 42 3d 60 82 28 bc e8 57 78 3d 60 6a d0 bc
       0.047389552 -0.01028499 0.06063071 -0.025441349
000010 34 a0 ce bc 00 91 54 ba d8 a2 50 bd 04 e8 75 bd
       -0.025222875 -0.0008108765 -0.05093655 -0.06003572
000020 44 47 9f bc d6 8b 7a bd 90 96 73 bd 40 2e 33 3b
       -0.019443162 -0.061168514 -0.05946976 0.00273408
000030 08 14 75 bc c8 4b e9 bc 28 d5 17 bc 04 f8 1a bd
       -0.014958389 -0.028478518 -0.009267129 -0.037834182
000040 b6 11 5e 3d b2 11 2e 3d 54 6e f0 3c 3e 8d 1f 3d
       0.05421611 0.042497344 0.029349484 0.03895306
000050 98 07 c4 3c 52 9f 17 3d cc 03 ea 3c 64 a9 96 bc
       0.023929402 0.037017174 0.028566264 -0.018391319
000060 02 33 2b 3d 1a 18 61 bd a2 b0 18 bd 0e 1b 5a 3d
       0.04179669 -0.054954626 -0.037277825 0.053248458
000070 c8 6c 74 3d e4 8e 6f 3d ea 7a 77 3d e0 a7 61 3d
       0.059674054 0.05848588 0.060419954 0.05509174
000080 ec 96 26 3d f8 59 ce bc 86 bc 3b 3d 1e dd 7d bd
       0.040671274 -0.025189385 0.045834087 -0.061978452
000090 a8 5c 4f bd 70 75 ac bc 60 e3 01 bd 42 10 24 3d
       -0.050625473 -0.021052092 -0.031710982 0.040054567
0000a0 60 35 f8 3c 7c 12 59 bd b8 e3 06 bd 9c 37 51 3d
       0.030298889 -0.052996144 -0.032932013 0.051078424
0000b0 dc d3 3c 3d 56 3e 10 3d 2a f1 68 3d 6e 7a 5e bd
       0.046100482 0.0352157 0.056870617 -0.054315977
0000c0 1e f9 28 bd f8 09 5e 3d 0a 11 6d 3d 08 dd 59 3d
       -0.0412532 0.054208726 0.057877578 0.053189307
0000d0 24 fc ad bc e8 63 94 bc 58 92 1e bd 06 15 42 bd
       -0.021238394 -0.018114045 -0.038713783 -0.04738333
0000e0 80 04 3f bd 2e 6f 4d bd 6c 83 ec bc b0 e7 21 3c
       -0.04663515 -0.050154857 -0.02887126 0.009881899
0000f0 52 f9 39 bd 80 a7 bc bc 76 2b 66 3d f2 3b 71 3d
       -0.045403786 -0.023029089 0.05619379 0.05889506
000100 f0 f8 83 bb 00 66 2e 3c a0 39 09 bb 0c 21 63 3d
       -0.0040274784 0.010644436 -0.0020938888 0.055451438
000110 7c 15 51 3d c0 1b b3 bb c0 9b c0 3c e0 c7 66 bd
       0.05104588 -0.0054659545 0.023511767 -0.05634296
000120 a0 81 39 3b 4c b5 ce 3c 16 a2 24 bd 1e 6f 5b 3d
       0.0028306022 0.025232933 -0.04019364 0.053572766
000130 9c c4 a7 3c 24 65 d0 3c 84 2c 49 3d 08 09 5a 3c
       0.020479493 0.025438853 0.04911472 0.013307817
000140 5a 59 1b bd 00 16 60 39 08 2d 83 bc d2 9c 26 bd
       -0.03792701 0.000213705 -0.016012684 -0.0406769
000150 b0 a6 d4 3b 9e 85 0f bd f0 46 6b bd a0 47 0e bb
       0.0064895973 -0.035039537 -0.0574407 -0.0021710172
000160 54 03 29 bd 80 08 54 3d 38 6e 06 bc 42 d0 75 3d
       -0.04126294 0.05176592 -0.008204989 0.060013063
000170 e4 a7 35 3d 38 8b e6 bc 14 25 4d bd ec b5 56 bd
       0.044349566 -0.028142557 -0.05008419 -0.052419588
000180 40 f9 b6 3c 36 92 05 bd 80 cf 33 3c fc 00 16 bd
       0.022335649 -0.03261014 0.010974765 -0.036622033
000190 30 5f dd bc 76 e3 3a 3d 00 dd ae ba 68 17 3f bd
       -0.027022928 0.04562708 -0.001334101 -0.04665318
0001a0 a4 68 93 3c d2 f0 7e bd bc 9b fd 3c 30 7d d6 3b
       0.017994232 -0.062241383 0.030958049 0.006545685
0001b0 de 8b 3f 3d c0 54 ac 3a ec c7 7d 3d 06 12 54 3d
       0.046764247 0.0013147816 0.06195824 0.051775
0001c0 66 e5 5f bd c6 40 3d 3d 26 92 3a bd a0 59 13 3b
       -0.05466213 0.04620435 -0.045549534 0.002248384
0001d0 28 7c 08 3d f4 43 c3 bc f8 67 68 3d 00 ea 50 bd
       0.03332153 -0.023836114 0.056739777 -0.05100441
0001e0 f0 76 68 3c 20 aa aa bc 02 af 5b bd f8 81 c7 bc
       0.014188513 -0.020833075 -0.053633697 -0.024353966
0001f0 b0 3a 15 bd 18 d4 e4 bc c0 a2 b7 3b 80 64 2d 3b
       -0.036432922 -0.027933165 0.005604118 0.0026457608
000200 38 1b c8 3c d8 4b 31 bc 18 2f 26 bc a0 89 22 3b
       0.024427041 -0.010821305 -0.010143064 0.002480127
000210 dc 23 8e 3c 80 94 e0 3a 70 20 f7 3c a0 c9 a3 bc
       0.017351083 0.00171341 0.030166835 -0.019993603
000220 00 cd b2 bc 00 ec 2f 3c c6 c2 70 bd 82 f5 4b bd
       -0.021826267 0.010737419 -0.0587795 -0.04979468
000230 50 e6 46 bc e2 78 36 3d 4c 02 b7 bc 00 c5 57 bb
       -0.012139872 0.044548877 -0.022339962 -0.0032923818
000240 80 bb 9c 3c d2 58 49 bd 34 90 98 3c 40 fd 8f 3c
       0.019132376 -0.04915697 0.018623449 0.017576814
000250 96 d9 7d bd 46 64 58 3d 2c a6 ee 3c 64 4a 12 3d
       -0.061975084 0.052830003 0.029131971 0.035715476
000260 60 96 9b bc 34 da 58 3d 18 f4 2c 3c 3c 39 b8 bc
       -0.018992603 0.05294247 0.010556243 -0.022488229
000270 dc 79 28 bd 60 03 6f bb d6 89 62 bd d0 8c 73 3d
       -0.04113184 -0.0036470518 -0.05530723 0.05946046
000280 30 4f ae 3b 98 ac 86 3c 4c d7 3e 3d 66 07 27 3d
       0.0053194985 0.016439721 0.04659204 0.04077854
000290 a0 5f c5 3c 80 34 65 bb cc 49 be bc 2e e5 09 bd
       0.02409345 -0.003497392 -0.023228548 -0.03366583
0002a0 6c 24 6c 3d 10 42 cc 3b a0 1f c4 3b 80 e2 36 bd
       0.057651922 0.006233461 0.0059852153 -0.0446496
0002b0 ce 83 40 3d d8 05 5c bd 90 b0 a0 3b 48 7a 4f 3c
       0.0470007 -0.05371651 0.0049038604 0.012663431
0002c0 c8 e6 25 bd 88 e9 cc bc 2e 86 06 bd ce 3f 09 bd
       -0.040503293 -0.0250137 -0.032842807 -0.033508115
0002d0 d8 cd 3b 3d c0 f5 93 3c c0 5d e6 bc 16 ef 31 bd
       0.045850605 0.018061519 -0.028120875 -0.0434409
0002e0 90 1b 91 3b 60 b0 60 3d 00 e7 fc ba c4 d1 8c 3c
       0.0044283345 0.054855704 -0.0019294918 0.017189868
0002f0 3a ee 42 3d 20 0e 7e bb cc 4c fa bc 3e a7 43 3d
       0.04759047 -0.0038765743 -0.030554198 0.047766916
000300 94 6a 27 bd 80 7b 45 bd 48 94 0a 3d 4c d4 2e bd
       -0.040873125 -0.048213482 0.03383282 -0.04268293
000310 12 ef 10 bd fc 86 6d 3d f4 75 28 3d 80 64 d1 3a
       -0.035384245 0.05799006 0.041128114 0.0015975386
000320 6a ff 51 3d 90 4d 71 3c 5a 0d 3f 3d d8 20 cb 3c
       0.051268972 0.014727965 0.046643592 0.024795935
000330 48 b2 44 3d 98 aa ae 3c d4 fd 39 3d 56 2d 3b bd
       0.048021585 0.02132158 0.045408085 -0.045697533
000340 94 0a f7 bc 40 d0 da 3b 60 e3 86 3b f0 73 bd 3b
       -0.030156411 0.0066776574 0.0041164607 0.005781643
000350 8c b6 28 bd e0 d7 ae 3c 7e 08 57 bd e0 40 1c 3d
       -0.041189715 0.021343172 -0.052498333 0.038147807
000360 cc cc 8b bc c6 93 09 3d 3a 83 55 3d 1c e1 69 bd
       -0.017065428 0.033588193 0.0521271 -0.057099447
000370 40 5c ba 3b a0 67 25 3b 00 34 35 3a d8 47 23 bd
       0.0056872666 0.0025238767 0.00069123507 -0.039863437
000380 60 95 19 bc 8e eb 16 3d 1c da 12 bd 08 f3 77 bd
       -0.009373993 0.036845736 -0.035852537 -0.060534507
000390 24 cb dd bc 34 59 37 3d 90 76 ee 3c 3e 62 02 bd
       -0.027074404 0.044762805 0.02910927 -0.031831972
0003a0 4c f3 77 bd 60 22 60 3b 5c b5 86 3c de 7d 15 3d
       -0.06053476 0.0034200177 0.0164439 0.03649699
0003b0 c6 4b 66 bd 7c af e9 3c 00 85 1f bd 90 47 19 bd
       -0.056224607 0.02852606 -0.038945198 -0.037421763
0003c0 b8 ec cd 3c 8a 8d 48 3d 24 c1 d1 bc 14 56 8a bc
       0.02513729 0.048963107 -0.025604792 -0.016886748
0003d0 e8 0c cb 3c f0 34 97 3b a0 d3 d4 bc d0 cd cb 3c
       0.024786428 0.004614465 -0.025979817 0.024878412
0003e0 e8 9e 73 3d 1a 50 71 bd b8 96 df bc c0 0c f0 bc
       0.059477717 -0.05891428 -0.027293548 -0.029302955
0003f0 f0 64 d4 3b 68 29 65 bd b0 49 6c bc d8 6c b7 bc
       0.0064817593 -0.05594769 -0.014421865 -0.022390768

bias f4 [256]
000000 70 5e b4 bc cc 06 ec 3c 74 6c 28 3d 8c 1c 59 bd
       -0.022017688 0.028811835 0.041119054 -0.05300574
000010 78 2d b5 bc 10 b5 05 bc 40 53 7f 3b c0 ee 41 bc
       -0.022116408 -0.008160844 0.0038959533 -0.011836708
000020 58 a1 26 3d 9e 47 2c 3d bc 91 6c bd a2 15 10 bd
       0.040681213 0.042060487 -0.05775617 -0.03517688
000030 16 af 15 bd 80 55 7b 3a 24 08 78 3d 86 70 12 3d
       -0.036543928 0.00095876306 0.06055464 0.035751842
000040 ba a5 7d bd 14 9a 26 bd c0 37 b0 bb ca 65 2e 3d
       -0.061925627 -0.040674284 -0.0053777397 0.042577542
000050 b8 44 00 3c 60 95 2a 3b 14 65 35 bd e2 60 26 3d
       0.007828884 0.0026028976 -0.04428585 0.04061974
000060 c0 09 56 3d 7c 82 ee bc e0 80 3f bb 50 1c 34 3c
       0.052255392 -0.029114954 -0.0029221103 0.010993078
000070 60 2d d2 bc 74 20 18 bd c0 88 16 bb 04 fb 0d 3d
       -0.025656402 -0.037140325 -0.0022969693 0.034663215
000080 8a de 06 3d 40 47 da 3b e8 c1 2e 3d 74 a8 2e 3d
       0.032927074 0.0066613257 0.042665392 0.04264112
000090 f8 76 2d bc 94 04 9f bc e0 03 75 3d ce 73 52 bd
       -0.010587446 -0.019411363 0.05981815 -0.05137997
0000a0 40 96 54 3b 22 37 0a 3d 30 73 70 bd 08 5e 55 3c
       0.0032438189 0.033743985 -0.0587036 0.013022907
0000b0 90 5d aa bb 84 34 8a bc 6a 79 14 3d d0 2d 4a 3c
       -0.005199142 -0.016870745 0.036248602 0.012340024
0000c0 d6 98 2d bd 38 f7 21 3d b0 92 45 bd f2 6f 7a bd
       -0.042382084 0.039542407 -0.048235595 -0.061141916
0000d0 d0 8f be bb c6 ef 36 bd c8 6f af 3c 80 70 07 bb
       -0.0058154836 -0.04466226 0.021415606 -0.002066642
0000e0 60 25 06 bd b0 32 50 bd fe a2 2d 3d 40 a7 9a 3b
       -0.032750487 -0.05082959 0.04239177 0.004719645
0000f0 88 35 1f bd 10 01 b1 3c f0 b3 d5 bb 50 c3 52 3d
       -0.03886941 0.021606952 -0.0065216944 0.051455796
000100 f0 d1 b2 3c 1c 75 47 bd f8 ec bc bc 98 6f 5e 3d
       0.021828622 -0.04869567 -0.023062214 0.054305643
000110 a4 26 50 bd ca 53 45 3d bc f1 62 bd 80 76 3a bd
       -0.0508181 0.04817561 -0.055406317 -0.045523167
000120 0a 0d 37 bd 38 0d 97 3c a8 d1 17 3c c4 25 cc bc
       -0.04469017 0.01843892 0.009266295 -0.024920352
000130 9c 78 04 3d 00 ea 11 bb 82 95 76 3d c4 2d 9a bc
       0.032341585 -0.002226472 0.060201176 -0.01882065
000140 fc e8 01 bd d6 ca 5f bd 80 d7 11 bc 88 92 b7 3c
       -0.03171633 -0.0546368 -0.008901477 0.022408739
000150 4a d1 77 bd 00 3b 10 3d 80 ab dc bc d0 f0 45 3c
       -0.060502328 0.035212517 -0.026937246 0.01208134
000160 30 d7 c1 bc 04 2f 86 3c c0 c5 ff 3b 20 c5 57 3c
       -0.02366218 0.01637984 0.007805556 0.013169557
000170 9c 30 1c bd b2 62 31 bd 88 11 1f 3d ac 6f 2e 3d
       -0.038132295 -0.043307014 0.03883508 0.042586967
000180 80 2b 6e ba 28 72 14 3d ee 2d 63 bd 94 12 9d bc
       -0.00090854615 0.03624168 -0.055463724 -0.019173898
000190 26 5d 42 3d 30 1b ac bc e4 38 f8 3c d4 8f bd 3c
       0.047452115 -0.021009058 0.030300565 0.023139872
0001a0 14 0c ca bc 08 c5 60 3d 42 a5 52 bd 2c 91 f7 bc
       -0.024663962 0.054875404 -0.051427133 -0.03022059
0001b0 68 5f 2b bc 7c c8 12 bd e0 5b 9d bb 44 dd 89 bc
       -0.010459758 -0.035835728 -0.004802212 -0.01682914
0001c0 cc f6 a9 bc 40 a8 bd 3c 32 8f 17 bd a8 2e 54 3c
       -0.020747565 0.023151517 -0.037001796 0.012950577
0001d0 1e 65 64 bd 58 fa 47 bc 68 8c 39 3d f4 86 1b bd
       -0.055760495 -0.012205683 0.045299917 -0.0379705
0001e0 fc 3d 8d 3c fe b9 63 bd 68 37 13 bd f8 82 04 bd
       0.01724147 -0.055597298 -0.03594151 -0.032351464
0001f0 f4 a2 40 3d 1c 29 f8 bc 50 76 77 3d ac c1 99 3c
       0.047030404 -0.03029304 0.060415566 0.018769108
000200 ac 32 66 bd 88 b5 27 bd ce 17 3c bd ae 6d 5c bd
       -0.05620067 -0.040944606 -0.04592114 -0.053815536
000210 ea c8 7f bd 76 00 74 3d 5a fd 02 3d 32 b6 53 3d
       -0.062447466 0.059570752 0.031979896 0.051687427
000220 68 aa 4f bd d4 7d 27 3d c6 01 06 3d 00 9e 39 3d
       -0.05069962 0.040891483 0.032716535 0.045316696
000230 88 79 13 bc 7c e7 8b bc 10 01 6a 3d a6 fb 1c bd
       -0.009001143 -0.017078154 0.05712992 -0.03832593
000240 f4 ef 7b bd 74 36 23 3d 42 88 44 bd 90 85 c1 bc
       -0.061508134 0.039846852 -0.047981508 -0.023623258
000250 60 87 b1 3b 80 54 ef ba b4 84 74 3d 44 b1 22 bd
       0.0054177493 -0.0018259436 0.059696868 -0.039719835
000260 22 f3 30 bd da 12 35 3d b0 80 ff 3b 7c 9a f7 bc
       -0.04320062 0.04420743 0.007797323 -0.030225031
000270 7a 98 78 3d e8 15 c9 bc 50 a6 e1 bb 5a 82 02 3d
       0.060692288 -0.024546579 -0.006886281 0.031862594
000280 ee 03 0f 3d f8 40 12 3c 06 db 25 bd 3e a5 71 3d
       0.034915857 0.008926623 -0.04049208 0.058995478
000290 00 44 9d bc b4 1e 8b bc 8c 7e 85 3c 8c 30 a1 3c
       -0.019197464 -0.016982414 0.016295694 0.01967647
0002a0 58 ff 88 3c d0 03 25 3c be cb 1f 3d 42 07 59 bd
       0.01672332 0.01007171 0.039012663 -0.052985437
0002b0 94 0c 57 3d 00 52 4f 3b 20 e8 f9 bb ce ef 0d 3d
       0.05250223 0.003163457 -0.0076265484 0.034652524
0002c0 5a d1 66 bd 54 f0 c5 3c 9c 41 47 3d dc bf 13 3d
       -0.056351997 0.024162449 0.048646554 0.036071643
0002d0 cc 7d a2 bc c0 e3 e8 bb 32 2a 60 3d 5e 85 47 3d
       -0.019835375 -0.007107228 0.05472774 0.048711173
0002e0 ec e4 41 3d 28 37 dd 3c 74 e3 b4 bc 68 58 83 3c
       0.047337458 0.02700384 -0.022081114 0.016033366
0002f0 2e c2 3d 3d a8 8f 27 bc 54 46 a1 bc a0 11 a5 bc
       0.046327762 -0.010227121 -0.019686855 -0.020150006
000300 28 cb fe bc 66 28 1f bd c0 1b 37 bb 40 34 d8 bb
       -0.031102732 -0.038856886 -0.0027940124 -0.0065980256
000310 32 20 46 3d 24 68 0b bd 56 25 68 bd 50 32 1b 3c
       0.048370548 -0.034034863 -0.05667623 0.009472445
000320 34 ff ab 3c 1e c6 64 3d 20 3e 7e bb c8 ce d9 3c
       0.020995714 0.055853 -0.0038794354 0.026587859
000330 36 25 65 3d 60 3e b8 3c 40 68 c5 bb 18 f9 50 3c
       0.05594369 0.02249068 -0.0060243905 0.012754701
000340 f6 47 52 3d 60 98 3d bc 10 fe 25 bd 58 23 e3 3c
       0.05133816 -0.011571974 -0.040525496 0.027726814
000350 e0 0d 62 3b 60 5b 03 bc 64 ff 81 bc 22 3d 57 bd
       0.0034493133 -0.008017391 -0.01586885 -0.052548535
000360 a6 e2 79 bd a8 df 61 bd c0 19 8b 3a b4 e9 4a bd
       -0.061007164 -0.055144936 0.0010612532 -0.049539283
000370 18 f2 19 3d 36 38 3a 3d e4 4a 55 3d f4 db 63 bd
       0.037584394 0.045463763 0.052073374 -0.055629686
000380 b6 3d 42 bd b0 e1 7c bc 56 a3 1e 3d b0 59 38 bd
       -0.047422133 -0.0154346675 0.038729988 -0.045007408
000390 50 6f b6 bb 28 5c 4e bc b6 f1 5c 3d 10 8c 7b bc
       -0.0055674687 -0.012595214 0.05394145 -0.015353218
0003a0 5a ae 32 bd 70 3c cc bc 6e d6 34 bd 08 5a 2d 3d
       -0.043623306 -0.024931163 -0.04414981 0.04232219
0003b0 ac 5e f4 3c b0 87 90 bb 58 a9 41 bd d0 c8 28 3c
       0.0298303 -0.0044107065 -0.04728064 0.010301784
0003c0 6e a1 51 3d c4 be c3 3c f0 6c 72 bc c0 39 a1 3a
       0.051179342 0.023894675 -0.014796481 0.0012300536
0003d0 60 8c 1e 3b 50 67 66 3d bc 0c 04 3d 20 77 ee bb
       0.0024192557 0.05625087 0.032238707 -0.0072773844
0003e0 d4 cf c7 bc 8c 97 a9 3c 10 31 b7 3b 78 2b 60 bd
       -0.024391092 0.020702146 0.0055905655 -0.054728955
0003f0 fc 88 6c bd 26 cc 2d bd 92 ff 16 bd cc 73 ec 3c
       -0.057747826 -0.04243102 -0.036864825 0.02886381

weight f4 [5, 256]
000000 40 77 18 3b ba 46 70 bd f8 49 9b 3c f8 66 3e bc
       0.0023264438 -0.0586612 0.01895617 -0.011621229
000010 00 47 a2 3b 0a bc 54 3d ca d7 61 bd a4 74 ef bc
       0.0049523115 0.05193714 -0.055137433 -0.029230423
000020 d8 99 3f bc 60 dd 0f bd 00 ef 40 bc a8 5b 7d 3c
       -0.011694394 -0.03512323 -0.011775732 0.015463747
000030 44 7d 94 3c 58 c1 40 3c 7c b3 26 bd a8 ed ad 3c
       0.018126138 0.011764847 -0.040698513 0.021231487
000040 40 3f 68 3b d2 c0 42 3d 48 a3 a3 bc 0e f0 10 bd
       0.003543809 0.04754717 -0.01997532 -0.035385184
000050 14 47 f9 bc 70 98 9b bb 88 a3 4e 3d 6a 6e 63 bd
       -0.0304294 -0.0047483966 0.050448924 -0.05552522
000060 70 b4 c2 3b 18 50 5f 3d 3a a8 77 bd 78 14 48 3c
       0.00594192 0.054519743 -0.060463168 0.012211911
000070 40 66 c6 ba 3c 3a 64 bd de 4c 3c 3d e0 b7 37 bd
       -0.0015136674 -0.0557196 0.045971744 -0.04485309
000080 40 20 53 bb 54 22 c9 bc 9a d6 33 bd 00 9c 74 bb
       -0.0032215267 -0.024552502 -0.043905832 -0.0037324429
000090 a4 b7 9e 3c 4a 69 1e bd 22 f7 10 3d 8c 16 92 3c
       0.019374676 -0.03867463 0.035391934 0.017833017
0000a0 28 e3 6b bc 08 4b 4a bc 74 07 97 3c 80 99 bc 3c
       -0.01439742 -0.01234699 0.018436171 0.023022413
0000b0 c0 92 64 3c 00 5f 5a 3d 44 68 41 3d 50 51 97 bb
       0.013951004 0.053313255 0.047218576 -0.0046178475
0000c0 de 91 5a 3d b0 bf c1 3b 7c f3 e9 bc 80 72 f8 3a
       0.053361766 0.0059127435 -0.028558485 0.0018955022
0000d0 d2 40 0c bd a8 ef b8 3c 14 7e b5 3c 94 2a 53 bd
       -0.034241505 0.022575215 0.022154845 -0.051554278
0000e0 7c 13 36 3d 8a c3 5c bd 7c 68 0f 3d d8 5c 3e bc
       0.044452175 -0.053897418 0.035011753 -0.011618815
0000f0 3e f0 0e bd 92 1d 4d 3d 28 cb 9d bc 48 e0 1b 3d
       -0.03489708 0.05007703 -0.019261912 0.03805569
000100 ec 4f 09 3d 3c b6 37 3d 84 0f f2 bc 40 ee c7 bc
       0.033523485 0.044851527 -0.029548414 -0.024405599
000110 d0 fb c3 3b dc 1f 33 bd 60 3d 98 3b a2 e5 16 3d
       0.005980946 -0.043731555 0.0046459883 0.03684009
000120 e8 88 07 3c f0 4c 48 3c 00 7e 32 bd 1a 51 29 bd
       0.008272387 0.012225375 -0.043577194 -0.04133711
000130 04 f2 f8 3c 8c f9 b6 bc 94 04 74 3d 4e 48 37 3d
       0.03038884 -0.02233579 0.05957468 0.04474669
000140 c4 d9 70 3d 50 c2 7e 3c 58 e3 99 bc 28 8f f3 3c
       0.058801427 0.015549257 -0.018785164 0.029731348
000150 f8 21 6e 3d a8 8d 4a 3d a2 56 6a bd 0c 67 f7 bc
       0.058137864 0.0494515 -0.057211526 -0.030200504
000160 60 ff 67 bd 7c ff 58 3d 12 53 18 bd 08 87 10 bc
       -0.05664003 0.052978024 -0.037188597 -0.008821256
000170 8c 4b 71 3d e0 d0 1b 3b e0 ed 5b 3b 30 83 8c bb
       0.058909938 0.0023775622 0.0033558533 -0.0042880997
000180 74 60 99 bc 1c 41 4e 3d 3c 90 95 bc 40 7e 2b bb
       -0.01872275 0.050355062 -0.018257253 -0.002616778
000190 80 5f da 3c 82 2e 58 3d 32 8b 29 bd 94 b8 dd bc
       0.026656866 0.05277873 -0.041392513 -0.027065553
0001a0 80 44 a1 bc 5c 74 e8 bc 7e c2 19 3d 00 4c c0 bc
       -0.019685984 -0.028375797 0.037538998 -0.02347374
0001b0 16 e8 01 3d 40 df 9f ba 14 2b 09 bd 80 1c 3d 3b
       0.031715475 -0.0012197271 -0.033488348 0.0028856099
0001c0 80 fb 01 3c 18 68 10 3c e8 4e 84 bc 7c 89 e2 bc
       0.007933497 0.00881388 -0.016150907 -0.027653448
0001d0 c0 09 2c bd 96 06 38 3d a0 ce 29 bd 0c b4 36 bd
       -0.042001486 0.044928156 -0.04145682 -0.0446053
0001e0 30 82 09 bc e8 eb df bc 70 db 33 bc dc 38 56 3d
       -0.0083928555 -0.027334169 -0.010977611 0.05230032
0001f0 40 b4 cb 3a 3a 49 32 bd 1c 53 9a bc 18 9d 76 3c
       0.001554139 -0.043526866 -0.018838458 0.0150521025
000200 38 92 22 bc 0c ed 1b bd 20 aa 69 3b bc 8c 7f bd
       -0.009922557 -0.038067862 0.003565438 -0.062390074
000210 14 98 cd bc 00 77 8a bb d2 b5 6d 3d 80 9d 78 3b
       -0.02509693 -0.0042256117 0.058034725 0.0037935674
000220 e0 2a 3c bc 80 76 9a bc 2c a4 d2 3c 9e e1 39 3d
       -0.011484832 -0.018855333 0.025713049 0.04538118
000230 a0 6c 57 3c 58 3f 96 3c 48 3f fd 3c 4e a3 0f bd
       0.013148457 0.018340752 0.030913964 -0.03506785
000240 20 52 5e 3b 6c 9d a6 bc 84 5e 38 bd 7c 8a 02 3d
       0.0033923462 -0.020338736 -0.045012012 0.03187035
000250 58 f3 72 3c d2 60 7a bd c0 14 3f bb 08 2f 07 3d
       0.0148285255 -0.06112749 -0.0029156655 0.033003837
000260 00 24 17 ba 18 d8 8e bc 94 c1 fb 3c cc cf d0 bc
       -0.0005765557 -0.017437026 0.030731954 -0.02548971
000270 1a 0e 0f bd 40 ec b3 ba d8 fd 38 bd 28 91 f2 3c
       -0.034925558 -0.0013727024 -0.04516396 0.029610232
000280 c2 52 6f bd e4 be d0 bc a8 ce b2 3c a2 fe 65 3d
       -0.058428533 -0.025481649 0.021827057 0.05615104
000290 4a 72 79 3d 50 ea 88 3b 08 6b 22 3c 3c 06 80 3c
       0.06090001 0.004178323 0.009913214 0.015627973
0002a0 08 48 97 bc 48 1b b1 3c 3c 72 4b 3d 4c a1 46 3d
       -0.018466964 0.021619454 0.04966949 0.04849367
0002b0 88 69 67 bd 00 00 0a 3a f0 ab 0f 3c 50 18 c7 bb
       -0.056497127 0.0005264282 0.00876902 -0.0060758963
0002c0 b0 c0 6a 3d 9a 0b 1c 3d ac 86 c5 bc 7e c6 00 3d
       0.057312667 0.038097 -0.024112068 0.031439297
0002d0 de d8 42 3d fe bb 2e 3d 5c 85 cf bc a0 05 eb 3c
       0.047570102 0.042659752 -0.025332145 0.028689206
0002e0 a0 11 19 bb 72 90 0b bd 44 93 21 bd 90 b2 3d 3c
       -0.0023356453 -0.0340733 -0.039447084 0.011578217
0002f0 80 9e 34 3d 0a 4f 1a bd d0 bc 23 bd 1c 57 47 3d
       0.04409647 -0.037673034 -0.039974988 0.04866706
000300 6c 0a b6 3c ba ba 65 bd b8 51 a3 bc ec e4 d7 3c
       0.022221766 -0.05608628 -0.019936427 0.026354276
000310 7c 1a c8 bc bc ff 10 3d 58 30 c0 bc 70 64 39 3c
       -0.024426691 0.035400137 -0.023460552 0.01131545
000320 34 74 2a bd ac ca 70 3d d8 ed 08 bc d0 11 f2 bb
       -0.041614726 0.058787033 -0.008357488 -0.0073873773
000330 c0 e0 8d ba b0 a8 7e bd 0c 81 91 bc 24 20 5f 3d
       -0.0010824427 -0.06217259 -0.01776173 0.05447401
000340 da d3 4c 3d 9c 99 ea bc 3c da 39 bd a2 ae 52 3d
       0.050006725 -0.0286377 -0.04537414 0.051436074
000350 8c 9e dd bc 94 24 32 3d a2 b5 57 3d 56 f3 69 bd
       -0.02705314 0.043491915 0.052663453 -0.05711683
000360 48 25 79 3d 3a ab 16 bd f2 b9 2a bd 2a e7 4b bd
       0.06082657 -0.036784388 -0.041681238 -0.049781002
000370 80 d5 13 3d 0a 99 4e 3d ae fa 07 bd 30 e7 4a 3d
       0.03609228 0.05043892 -0.03319805 0.049536884
000380 c0 d6 85 ba 66 f9 24 bd e8 b8 b1 bc c0 77 f4 bc
       -0.0010211095 -0.040276907 -0.021694615 -0.029842257
000390 6a 9c 48 3d c6 34 7f 3d 90 fe b9 3b 70 97 52 3d
       0.048977293 0.062306188 0.005676098 0.051413953
0003a0 c0 b7 72 bc 40 5c 78 bd 18 ea 1b bd 84 6f 8b 3c
       -0.014814317 -0.06063485 -0.038065046 0.017020948
0003b0 a2 97 7e 3d 20 83 17 bd 38 12 2a 3d 4c 5b 18 3d
       0.062156327 -0.036990285 0.04152128 0.037196442
0003c0 88 fb 8b bc 9e 92 22 3d d4 e7 95 3c dc 23 d4 3c
       -0.017087713 0.039690606 0.01829902 0.025896005
0003d0 26 1d 39 3d f0 ac 15 bd 48 10 35 bd 00 60 25 37
       0.045193814 -0.03654188 -0.04420498 9.857118e-06
0003e0 50 03 0e bd bc d4 65 3d 98 aa df bc d0 8b 2c 3c
       -0.034671128 0.056111082 -0.027303025 0.010531381
0003f0 4c 6c ed 3c ba 35 2a bd 08 2c 48 bc d4 ca 70 bd
       0.028982304 -0.041555144 -0.012217529 -0.058787182

bias f4 [5]
000000 98 80 f8 bc bc 2c 3a bd d0 10 49 bc f8 7f 21 3d
       -0.030334756 -0.04545282 -0.012272075 0.03942868
000010 78 8c 16 bd
       -0.036755055
