baseline_models/random-agent-0.pt (torch_old, 595861 bytes, 6 tensors)

weight f4 [256, 294]
0	0x3d5b14e2	0.053486712
1	0xbd3e330e	-0.04643541
2	0x3c31ae88	0.010844834
3	0x3d453800	0.04814911
4	0x3cff8af8	0.031194195
5	0x3c3ef598	0.011655234
6	0x3d4c3bf4	0.049861863
7	0xbd26750e	-0.040638976
8	0xbc20b868	-0.009809591
9	0xbc0df1c0	-0.008663595
10	0x3c0efda8	0.008727469
11	0x3ad92660	0.0016567223
12	0x3b56e100	0.003278792
13	0x3beed5c0	0.0072886646
14	0xbd1642a6	-0.036684655
15	0x3cab0054	0.02087418
16	0xbc218c9c	-0.009860184
17	0xbd4f76ec	-0.050650522
18	0x3d23842a	0.039920963
19	0xbc8cd4d0	-0.01719132
20	0x3c143058	0.009044729
21	0xbd241ad4	-0.040064648
22	0xbced319d	-0.028954322
23	0xbc7084a8	-0.014680065
24	0x3b996350	0.0046810284
25	0xbd69bc3d	-0.057064284
26	0x3ce02b44	0.02736438
27	0x3caa1040	0.020759702
28	0x3b0ac130	0.0021172278
29	0xbbabb7e0	-0.0052404255
30	0x3c359fc0	0.011085451
31	0x3c8b9418	0.01703839
32	0xbd3cbcca	-0.04607848
33	0xbd059b68	-0.03261891
34	0x3c835448	0.0160314
35	0xbc39bf90	-0.011337176
36	0x3c351ab8	0.0110537335
37	0x3d046c30	0.03232974
38	0x3d14d1d2	0.036332913
39	0xbd19eec0	-0.037581205
40	0x3cf80c98	0.030279443
41	0xbc96520e	-0.018349674
42	0xbd1c4ed4	-0.038161114
43	0xbca6d51e	-0.020365294
44	0xbd5071a0	-0.05088961
45	0x3c8506cc	0.016238593
46	0xbc793184	-0.015209559
47	0x3d11cc44	0.035595194
48	0xbc5ab6f8	-0.013349287
49	0x3cb7e098	0.022445962
50	0x3ce526c4	0.027972586
51	0xbd2be1e0	-0.041963458
52	0xbc8d3fa8	-0.017242268
53	0x3b8b1260	0.004244134
54	0xbd07f0ac	-0.033188507
55	0x3b4e46d0	0.0031475313
56	0x3d0abf38	0.033873767
57	0xbd12009c	-0.035645112
58	0xbc555ee4	-0.013023112
59	0xbc9e9bde	-0.019361433
60	0xbd054d15	-0.032544214
61	0xbba94cf0	-0.0051666424
62	0x3d1ec622	0.038763173
63	0x3b50a180	0.0031834543
64	0x3c8d7aa8	0.017270401
65	0xbcad8252	-0.021180306
66	0xbb127490	-0.0022347309
67	0x3d1e715e	0.038682334
68	0xbd2be8d8	-0.041970104
69	0x3904a700	0.00012650713
70	0x3d0739b8	0.03301403
71	0xbd47bb11	-0.048762385
72	0x3c341b98	0.010992907
73	0xbd3964bd	-0.045262087
74	0x3b8fb4b0	0.0043855533
75	0xbaaa9d60	-0.0013016872
76	0xbc326688	-0.010888703
77	0x3d1a5982	0.037683018
78	0x3ca31644	0.019908078
79	0x3d670852	0.05640442
80	0xbd060ed7	-0.032728996
81	0xbd5b79a2	-0.053582795
82	0x3cd30ae4	0.025762029
83	0x3d40605a	0.046966888
84	0xbcdb9604	-0.026804931
85	0x3cfe6e2c	0.031058393
86	0x3d0da22e	0.034578495
87	0x3c907340	0.01763308
88	0x3d09d832	0.033653446
89	0x3d5ca3d0	0.05386716
90	0x3d4d7d10	0.050168097
91	0xbd2362e2	-0.039889224
92	0xbc9dce18	-0.019263312
93	0xbd05068c	-0.032476947
94	0x3d2cf7a2	0.04222835
95	0x3d3c23fa	0.045932747
96	0xbbd91158	-0.006624382
97	0x3d413770	0.04717201
98	0xbcb99974	-0.02265618
99	0x3d0081e4	0.031373873
100	0x3ca532c0	0.020165801
101	0x3d443a60	0.047907233
102	0x3c31a360	0.010842174
103	0xbb9d08d8	-0.004792314
104	0x3d51a312	0.051180907
105	0xbbf303b8	-0.007416215
106	0x3cd44e64	0.025916286
107	0xbb3c58f0	-0.0028739534
108	0x3c8771a8	0.016533688
109	0x3d6a1376	0.057147466
110	0xbd0bf38b	-0.034167808
111	0x3d063494	0.032764986
112	0xbc506b68	-0.01272092
113	0x3d0bbc0a	0.034114875
114	0x3d3a7f22	0.0455314
115	0xbc167064	-0.009182069
116	0x3d5de29a	0.054171182
117	0xbce75f12	-0.028243575
118	0x3d14a1f4	0.036287263
119	0x3cd7d524	0.02634675
120	0x3c2ac9e0	0.010424107
121	0xbc55159c	-0.01300564
122	0xbb9243a8	-0.0044636317
123	0x3d447aca	0.047968663
124	0xbd111a8a	-0.0354257
125	0x3ca85f94	0.020553388
126	0xbbb36318	-0.0054744594
127	0xbcac2a6e	-0.021016326
128	0xbd555ddf	-0.052091476
129	0xbd216a8b	-0.039408248
130	0xbd4ff87a	-0.050774075
131	0x3d19d6c6	0.03755834
132	0x3d5878d4	0.052849606
133	0xbd213902	-0.039361008
134	0xbd1ec995	-0.038766462
135	0xbc31ded0	-0.010856345
136	0xbc210934	-0.009828854
137	0x3c5889d0	0.013216451
138	0x3c8129a0	0.015766919
139	0x3af8d400	0.0018984079
140	0x3c838260	0.016053379
141	0x3d201290	0.039080203
142	0xbd562531	-0.052281562
143	0x3cf94978	0.03043054
144	0xbc2fac14	-0.010722179
145	0xbaa136e0	-0.0012299679
146	0xbcc0f4b8	-0.023554191
147	0xbd00e044	-0.031463876
148	0x3c141078	0.00903713
149	0x3c554410	0.013016716
150	0xbd4a01a8	-0.049317986
151	0x3c5f54c0	0.013631046
152	0x3d0d3a56	0.03447946
153	0xbd6e1d93	-0.058133673
154	0xbd5fa0d2	-0.05459673
155	0xbc31c458	-0.010850035
156	0xbc7b7c44	-0.015349451
157	0x3caf22a0	0.021378815
158	0xbcfd430d	-0.030915761
159	0xbb2ddb40	-0.0026528388
160	0xbd6a4f03	-0.057204258
161	0x3d07bc6a	0.03313867
162	0xbb92b200	-0.0044767857
163	0x3cef3c24	0.029203482
164	0xbcf73aad	-0.030179346
165	0xbb14dd30	-0.0022714846
166	0x3c9ee6dc	0.019397192
167	0x3d17dbd0	0.037074864
168	0x3d21140a	0.03932575
169	0xbb367260	-0.002783917
170	0xbc02a6e8	-0.007974364
171	0xbca9ea4a	-0.0207416
172	0x3cbdaba4	0.023153134
173	0xbd0e7011	-0.034774844
174	0x3cf0ffd0	0.029418856
175	0xbd2a8650	-0.041631997
176	0x3c626a08	0.013819225
177	0xbd0ae53b	-0.033910017
178	0x3d566318	0.052340597
179	0xbbf01990	-0.007327266
180	0x3d351ce6	0.044217013
181	0xbd3f6b0b	-0.046732944
182	0xbbd37b80	-0.0064539313
183	0xbd360e4a	-0.04444722
184	0xbce787e1	-0.028263034
185	0x3c1e9878	0.009679906
186	0xbd04a7b6	-0.032386504
187	0xbce3a4d1	-0.027788552
188	0x3c868b90	0.01642397
189	0xbd5ba6af	-0.05362576
190	0x3d280ef4	0.041029885
191	0x3b4780f0	0.0030441843
192	0x3d65b61e	0.056081884
193	0x3c345430	0.0110064
194	0xbd04db1e	-0.03243553
195	0x3c75c878	0.015001409
196	0xbcc5b53a	-0.024134267
197	0x3cdbbba8	0.02682288
198	0x3d158a72	0.036508985
199	0xbcb09936	-0.021557432
200	0xbc9c47d6	-0.019077223
201	0x3d33967e	0.043844692
202	0x3c38a1b8	0.0112690255
203	0xbd466630	-0.048437297
204	0xbcd356fe	-0.025798317
205	0xbd24e71e	-0.040259473
206	0x3cccf644	0.025019772
207	0x3ccaad5c	0.024740867
208	0xbd6950c1	-0.05696178
209	0x3b55b680	0.003261
210	0x3c9ddefc	0.019271366
211	0x3cecc074	0.028900363
212	0xbd65d66c	-0.05611269
213	0x3cffbba0	0.031217396
214	0x3d06b698	0.03288898
215	0xbcc4e536	-0.024035078
216	0x3d397a18	0.045282453
217	0xbc1cbba8	-0.009566225
218	0xbd03374c	-0.032035157
219	0xbd17fc1e	-0.037105672
220	0xbcb82098	-0.02247648
221	0x3d6358c2	0.055504568
222	0xbcc7c6a6	-0.024386715
223	0xbb989238	-0.0046561025
224	0xbbcf8a10	-0.006333597
225	0xbd63d74f	-0.055625256
226	0x374eb000	1.2319535e-05
227	0x3c47b5f8	0.012189381
228	0x3d334f04	0.043776527
229	0xbbd7cd38	-0.0065857433
230	0x3d2960e2	0.04135216
231	0xbd529f38	-0.051421374
232	0xbd525258	-0.05134806
233	0x3d68b3d4	0.056812122
234	0x3cb86db8	0.022513255
235	0xbcb79682	-0.022410635
236	0xbd67c53f	-0.056584593
237	0xbcae2f66	-0.021262836
238	0xbc796524	-0.015221868
239	0xb9278900	-0.00015977398
240	0x3b36ef50	0.0027913637
241	0x3d3283e0	0.043582797
242	0x3ce997dc	0.028514795
243	0xbc88e098	-0.016708657
244	0x3d1c7324	0.038195744
245	0xbc213a94	-0.009840626
246	0x3cce9b60	0.025220573
247	0xbd3c7720	-0.046012044
248	0x3b8d58c0	0.0043135583
249	0x3d02290e	0.031777434
250	0xbd2c0d32	-0.04200477
251	0xbc801cf6	-0.01563881
252	0xbcdb67f0	-0.02678296
253	0xbd65e57a	-0.05612705
254	0x3b5c6e80	0.00336352
255	0xbc322428	-0.010872878

bias f4 [256]
0	0x3cf117e4	0.029430337
1	0x3d561f90	0.052276194
2	0xbd3e73a5	-0.046497006
3	0x3d3589d2	0.04432089
4	0xbd1a8e0e	-0.03773313
5	0x3cac57ac	0.021037899
6	0x3d2dc88a	0.042427577
7	0x3d0af11e	0.033921354
8	0x3ca05aa4	0.01957447
9	0xbd4cebe8	-0.050029665
10	0x3d50a2b0	0.0509364
11	0xbc9eb204	-0.019371994
12	0x3c13a470	0.009011373
13	0xbd3ca528	-0.046055943
14	0x3aece8a0	0.0018074699
15	0x3c105a60	0.00881061
16	0x3c011420	0.007878333
17	0xbd388b01	-0.04505444
18	0x3ca97b54	0.02068869
19	0xbc5d4980	-0.013506293
20	0xbd4c5edd	-0.049895156
21	0x3c91c228	0.017792776
22	0xbd343653	-0.04399712
23	0xbd642940	-0.0557034
24	0x3d00a15c	0.031403884
25	0xbbea42c0	-0.0071490705
26	0xbd3820da	-0.044953205
27	0x3cf9583c	0.030437581
28	0x3c87b264	0.016564555
29	0xbd01f232	-0.031725116
30	0xbd42cf0b	-0.047560733
31	0xbd13c6f1	-0.036078397
32	0xba805600	-0.0009791255
33	0x3ca86ecc	0.020560645
34	0xbbdc0590	-0.0067145303
35	0xbd1ce904	-0.03830816
36	0x3c7bfed0	0.015380576
37	0xbc689438	-0.014195494
38	0xbc4642a0	-0.012100846
39	0x3cd90060	0.026489437
40	0x3d445c28	0.04793945
41	0xbc991f68	-0.018691733
42	0x3c9993ec	0.018747292
43	0x3d53d19a	0.051713564
44	0xbd0d5d10	-0.03451258
45	0xbbc757c0	-0.0060834587
46	0x3cff1998	0.031140134
47	0xbd20ad95	-0.03922804
48	0x3cd46f78	0.025932059
49	0x3ce1c5f4	0.027560212
50	0xbd5842a9	-0.052797947
51	0xbd118bf0	-0.035533845
52	0x3d322c8e	0.043499522
53	0xbc279874	-0.010229219
54	0x3cc04128	0.023468569
55	0x3c34b348	0.011029072
56	0xbd66d081	-0.05635119
57	0x3d23e462	0.040012725
58	0x3cda9b58	0.026685402
59	0xbcbd4d82	-0.023108248
60	0xbd0bb3fc	-0.034107193
61	0xbcd50580	-0.0260036
62	0x3d32ef34	0.043685153
63	0xba452dc0	-0.0007521771
64	0xbd6def8d	-0.05808978
65	0xbc59ed60	-0.0133012235
66	0x3d642a62	0.055704482
67	0xbd18dd1a	-0.037320234
68	0xbd4baba1	-0.049724225
69	0xbd36a6ee	-0.04459279
70	0x3d168676	0.036749326
71	0xbd5e3b28	-0.054255635
72	0x3ce47770	0.027888983
73	0x3cef3df8	0.029204354
74	0x3d1ef77c	0.03881024
75	0x3d1f0f36	0.038832866
76	0xbca2d028	-0.019874647
77	0x3ca20da4	0.019781895
78	0xbd154158	-0.03643927
79	0x3d1f933e	0.03895878
80	0xbc8d9610	-0.01728347
81	0x3b773c80	0.003772527
82	0x3d49a33c	0.049227938
83	0xbcaa8f44	-0.020820267
84	0xbd08dae4	-0.033411875
85	0xbd12db98	-0.035853952
86	0xbd05f77a	-0.032706715
87	0xbd2e823f	-0.04260468
88	0xbd3ff994	-0.046868876
89	0xbd1207a8	-0.035651833
90	0xbc210f3c	-0.009830292
91	0xbd060787	-0.032722022
92	0xbd5c9edd	-0.05386244
93	0xbd5be314	-0.053683355
94	0x3ab95840	0.001414068
95	0x3d497910	0.04918772
96	0xbcd17922	-0.025570456
97	0x3b8692d8	0.0041068606
98	0xbc2b3a1c	-0.010450866
99	0x3c67f6b0	0.014157936
100	0xbc869edc	-0.016433172
101	0x3bf21fd0	0.0073890463
102	0xbd2d19e2	-0.042261012
103	0xbc1119b8	-0.0088562295
104	0xbd0b09c1	-0.03394485
105	0x3d356124	0.044282094
106	0x3d4d27c8	0.050086766
107	0x3ce28e1c	0.027655654
108	0x3cdebfd4	0.02719108
109	0x3d531d92	0.051541872
110	0xbcaa10fc	-0.020760052
111	0xbd42a12e	-0.047516994
112	0xbcbd5b98	-0.023114964
113	0xbc9372ba	-0.017999042
114	0x3cb54914	0.022129573
115	0x3c074fa0	0.00825873
116	0x3d108430	0.035282314
117	0x3cbcac58	0.023031399
118	0xbca4e6fc	-0.020129673
119	0x3d6aa68c	0.057287738
120	0xbd2fda2e	-0.04293268
121	0x3c0f1c50	0.008734778
122	0xbcafbe6c	-0.021453105
123	0x3d4425ae	0.047887497
124	0xbce1f146	-0.027580868
125	0xbcb21b76	-0.02174161
126	0x3d1d812e	0.038453273
127	0x3b30dfe0	0.0026988909
128	0xbd02d33a	-0.031939723
129	0x3d49245e	0.049106948
130	0xbbb5c408	-0.0055470504
131	0x3cd6f830	0.026241392
132	0xbb9414e0	-0.00451909
133	0x3d5ebd32	0.05437965
134	0x3d099d4e	0.033597283
135	0x3d05ebd4	0.032695606
136	0xbd181086	-0.037125133
137	0xbcd6e366	-0.026231479
138	0xbd4f9b0c	-0.050684974
139	0x3c2d4228	0.010574855
140	0x3d2b7688	0.041861087
141	0xbcb706a8	-0.022342041
142	0x3d08b3ea	0.033374704
143	0x3d3d29dc	0.0461825
144	0xbcfc6e74	-0.030814387
145	0x3c9a2a44	0.018818982
146	0xbd3b3c87	-0.04571202
147	0x3d2d521e	0.04231464
148	0x3c0e9e50	0.008704737
149	0xbd1a5013	-0.03767402
150	0xbd1a3236	-0.03764554
151	0xbd6a4fce	-0.057205014
152	0xbd2fce79	-0.042921517
153	0xbcf86486	-0.03032137
154	0x3d6587b4	0.05603762
155	0x3cc2caa8	0.023778275
156	0xbd337d80	-0.043820858
157	0x3d0aced0	0.033888638
158	0xba631900	-0.0008663088
159	0xbd1055cc	-0.035238072
160	0xbd26ac26	-0.040691517
161	0xbcade6b4	-0.021228172
162	0xbac8a7a0	-0.0015308745
163	0x3ca517ec	0.020153008
164	0xb98a8380	-0.00026419386
165	0xbb141230	-0.0022593848
166	0x3d3095c8	0.043111593
167	0x3d6459fe	0.055749886
168	0x3d2d1880	0.042259693
169	0xbbb8de40	-0.0056417286
170	0xbcba540a	-0.022745151
171	0x3c619d30	0.013770387
172	0xbd42b0b6	-0.047531806
173	0x3c8b730c	0.017022632
174	0x3d0b428e	0.03399902
175	0xbc2be1d8	-0.010490857
176	0x3c6c7188	0.014431365
177	0x3d09689e	0.033547036
178	0x3d17eddc	0.037092075
179	0x3ceb8288	0.028748766
180	0xbbde8230	-0.006790422
181	0xbbb79520	-0.005602494
182	0xbd18d42f	-0.03731173
183	0xbd07b350	-0.03312999
184	0x3d30da66	0.04317703
185	0x3d4aa2fa	0.049471833
186	0xbd0957a2	-0.03353084
187	0xbd161fe8	-0.036651522
188	0xbd1a3499	-0.037647817
189	0xbd3ed1e8	-0.0465869
190	0xbd6e00f4	-0.058106378
191	0x3c6456b0	0.013936684
192	0xbd41bd8c	-0.047299907
193	0xbd161e3c	-0.036649927
194	0x3bf25b60	0.0073961467
195	0xbc1a3894	-0.009412903
196	0xbcdef0b8	-0.027214393
197	0x3d23677e	0.03989362
198	0xbd25740c	-0.040393874
199	0x3d5ef6fc	0.05443476
200	0xbb91a308	-0.0044444837
201	0x3c5f10e0	0.013614863
202	0x3cd690b0	0.02619204
203	0x3c782838	0.015146308
204	0xbd537e1c	-0.05163394
205	0xbd1ae072	-0.037811704
206	0xbc226978	-0.009912841
207	0xbd22675e	-0.03964936
208	0x3d138296	0.03601321
209	0x3a58fb80	0.00082772225
210	0x3d1fe45e	0.039036147
211	0x3d4bd042	0.049759157
212	0x3bfc8330	0.0077060685
213	0x3d1a553a	0.037678935
214	0xbd698154	-0.057008103
215	0xbd51f2d2	-0.051256962
216	0x3d1e3ab2	0.038630195
217	0xbb754600	-0.0037425756
218	0xbaa77760	-0.0012776665
219	0x3d4defd2	0.05027754
220	0x3cf92cdc	0.030416898
221	0xbad4dc80	-0.001624003
222	0x3c978cd4	0.01849977
223	0xbbb06900	-0.0053836107
224	0xbd61212e	-0.054963283
225	0xbbf22648	-0.0073898174
226	0xbc43f1ac	-0.0119594745
227	0x3cff7800	0.03118515
228	0xbcde9622	-0.027171198
229	0xbacda680	-0.001568988
230	0x3cb9ad74	0.022665717
231	0x3ba5ef70	0.0050639436
232	0x3cd09d0c	0.02546551
233	0x3cba0a3c	0.022709958
234	0xbd55df71	-0.052215043
235	0x3d30d77e	0.04317426
236	0x3bc25320	0.0059303194
237	0x3c6187b0	0.013765261
238	0xbd3a97f4	-0.04555507
239	0xbd4f3d0c	-0.05059533
240	0xbc991b5a	-0.0186898
241	0x3d4dfb26	0.050288342
242	0xbc4cd8a8	-0.012502827
243	0xbd5a7848	-0.053337365
244	0xbc89616c	-0.016770087
245	0xbd0e5636	-0.034750186
246	0xbd1cec9e	-0.038311593
247	0x3cf0d670	0.029399127
248	0xbd2cb1da	-0.0421618
249	0xbc003d1c	-0.00782707
250	0x3d1d8a44	0.03846194
251	0xbd4f6c14	-0.05064018
252	0xbb6e8750	-0.003639657
253	0x3d0a0c38	0.03370306
254	0xbbdaa690	-0.006672688
255	0x3d4401a6	0.047853135

weight f4 [256, 256]
0	0x3c31afe0	0.0108451545
1	0x3d49dacc	0.049280927
2	0xbd6399ba	-0.055566527
3	0x3cf1dbd0	0.02952376
4	0x3ce9c3cc	0.028535746
5	0xbd30d244	-0.043169275
6	0x3b002c60	0.00195577
7	0xbbc711e0	-0.006075129
8	0xbd0ea30c	-0.034823462
9	0x3d58b9a2	0.05291141
10	0x3d07521e	0.033037297
11	0x3d7023ea	0.058628
12	0x3cb08608	0.021548286
13	0xbd2f3368	-0.042773634
14	0x3d4d6406	0.050144218
15	0xbcd032ec	-0.025414906
16	0x3d0b7e42	0.034055956
17	0x3d4bef80	0.049788952
18	0xbd37373e	-0.044730417
19	0xbc4fb250	-0.01267679
20	0x3d619d50	0.055081666
21	0x3bc93f10	0.006141551
22	0xbc6713e0	-0.01410386
23	0x3c91b29c	0.017785363
24	0x3c9d9240	0.019234776
25	0x3c0a87d8	0.008455239
26	0xbca786ac	-0.020449959
27	0xbc569290	-0.013096467
28	0x3d5f8d06	0.05457785
29	0xbcc5741c	-0.024103217
30	0x3caee8d4	0.021351255
31	0x3d5466ba	0.05185578
32	0x3c5f1de8	0.01361797
33	0x3c400e38	0.01172214
34	0x3bbd0150	0.0057679787
35	0x3d09fa02	0.03368569
36	0xbd505c32	-0.050869174
37	0xbc19ec40	-0.009394705
38	0xba4d0e00	-0.00078222156
39	0xbd4ebef8	-0.05047509
40	0x3d41659e	0.04721605
41	0x3c3f19b8	0.011663847
42	0x3c259ea8	0.010108627
43	0x3d6ae3e0	0.057346225
44	0xbd4d996c	-0.050195143
45	0x3b195200	0.0023394823
46	0xbc2f6ec8	-0.010707565
47	0x3d3f7720	0.046744466
48	0xbd378f20	-0.04481423
49	0x3d086dca	0.033307828
50	0x3c440668	0.011964418
51	0xbd14705a	-0.03623996
52	0xbca27bdc	-0.019834451
53	0x3ca47410	0.020074874
54	0xbd2d5a5c	-0.0423225
55	0xbd2d08dc	-0.042244777
56	0x3d18a22e	0.03726404
57	0xbd27cea8	-0.040968567
58	0x3aea1b40	0.0017860904
59	0xbc8fdd04	-0.017561443
60	0xbd5b3bfa	-0.053523995
61	0x3ca17c0c	0.01971247
62	0x3d5ef468	0.054432303
63	0xbcda2654	-0.026629604
64	0x3d7beff6	0.06150814
65	0xbd63694e	-0.05552035
66	0xbd769ad0	-0.060206234
67	0xbbdee660	-0.006802365
68	0xbca68014	-0.020324744
69	0xbc2be7b8	-0.010492258
70	0xbc1e6d18	-0.009669565
71	0x3c3c55a0	0.011495024
72	0x3d4bc44e	0.049747758
73	0xbc82a760	-0.015948951
74	0xbcd72a54	-0.0262653
75	0xbd2f0160	-0.04272592
76	0xbd3c1bda	-0.045925
77	0xbd665744	-0.056235567
78	0xbd786f80	-0.06065321
79	0xbd0c735e	-0.03428971
80	0xbd31440a	-0.043277778
81	0x3d2f6532	0.042821117
82	0x3d16c08c	0.03680472
83	0xbd3b0432	-0.045658298
84	0xbd5fcfdc	-0.05464159
85	0xbd3e6f56	-0.046492897
86	0x3d7fd470	0.062458456
87	0x3d760e14	0.06007202
88	0xbcba2404	-0.022722252
89	0xbc5e06e8	-0.013551451
90	0xbd67382e	-0.05645006
91	0x3bb9a4c0	0.0056653917
92	0xbd729692	-0.059225626
93	0xbc8ed2d8	-0.017434523
94	0x3d16900e	0.036758475
95	0x3d70832a	0.058718838
96	0x3d740ace	0.059580617
97	0xbcbfaeb8	-0.023398742
98	0x3cf8a1b8	0.030350551
99	0xbd601c6a	-0.054714598
100	0x3cf3781c	0.029720359
101	0x3d42769c	0.047476396
102	0x3d7aa44c	0.061191842
103	0x3d64f942	0.055901773
104	0xbc4e6a20	-0.012598544
105	0x3c9d80c4	0.01922644
106	0xbc8590d0	-0.016304404
107	0x3d323aae	0.043512993
108	0x3d00bd24	0.03143038
109	0xbceb5768	-0.028728202
110	0xbd39f2b6	-0.045397483
111	0x3d2a030e	0.04150682
112	0xbd5df84e	-0.05419188
113	0xbc0d5128	-0.008625306
114	0x3bfb7bb0	0.007674657
115	0xbcb7d834	-0.02244196
116	0x3ab62880	0.0013897568
117	0x3cfad68c	0.030619882
118	0xbcec3f44	-0.028838761
119	0xbd35f6e4	-0.044424906
120	0x3a816f40	0.0009875074
121	0x3d2c6b42	0.042094477
122	0xbcd1a134	-0.025589563
123	0xbd44dfee	-0.04806512
124	0xbbf2afa0	-0.00740619
125	0x3d3ffd6e	0.04687255
126	0xbca06de0	-0.019583642
127	0xbce113a8	-0.027475193
128	0xbb0718c0	-0.0020614117
129	0x3ccf43b8	0.025300846
130	0xbcfb8b54	-0.030706085
131	0xbc169fe0	-0.009193391
132	0xbd5d0776	-0.053962193
133	0xbd42a828	-0.047523648
134	0x3d1c5e42	0.03817583
135	0xbb8c1ed0	-0.004276134
136	0xbd6e8ffc	-0.058242783
137	0x3ca8c7d0	0.02060309
138	0xbae99cc0	-0.0017823204
139	0x3ca77a2c	0.020443998
140	0x3d039cc2	0.032131918
141	0x3d1cdb72	0.038295217
142	0x3c11f888	0.008909352
143	0xbd39f656	-0.04540094
144	0x3c01f190	0.007931128
145	0x3ce0fe2c	0.027464949
146	0xbc49aac0	-0.012308776
147	0xbc139268	-0.009007074
148	0x3d406d32	0.046979137
149	0xbd22fb54	-0.039790466
150	0xbcc209e4	-0.023686357
151	0x3d230500	0.03979969
152	0xbd532746	-0.051551126
153	0xbb41f120	-0.0029593185
154	0x3d206240	0.0391562
155	0xbba68a80	-0.0050824285
156	0xbd00a254	-0.03140481
157	0x3c3cbb00	0.011519194
158	0xbd0d9948	-0.03457001
159	0x3d63c038	0.055603236
160	0xbd057586	-0.032582782
161	0xbba091f0	-0.0049002096
162	0xbce36ea0	-0.027762711
163	0x3ceae510	0.028673679
164	0xbcd63bfc	-0.02615165
165	0xbcdc62a8	-0.026902512
166	0x3cb8f79c	0.022579007
167	0xbd6bd864	-0.057579413
168	0x3ca3cfac	0.019996487
169	0xbd05a6f6	-0.03262993
170	0xbc038b50	-0.00802882
171	0xbc1d4278	-0.009598367
172	0x3c57e630	0.01317744
173	0xbbedcd80	-0.0072571635
174	0x3cd06804	0.025440224
175	0xbd22646e	-0.03964656
176	0xbbc92800	-0.0061388016
177	0xbd20307e	-0.039108746
178	0xbd30b390	-0.043139994
179	0xbd6cceea	-0.057814516
180	0x3d225a50	0.03963691
181	0xbc0f8450	-0.008759573
182	0x3cca8108	0.02471973
183	0x3b9466e0	0.004528865
184	0xbd3b4b5e	-0.045726173
185	0x3cbfaeac	0.02339872
186	0x3d462992	0.04837949
187	0xbc6654f0	-0.014058337
188	0xbd0f7568	-0.035024077
189	0x3ce9afb0	0.028526157
190	0x3c0406b8	0.0080582425
191	0xbcc953a4	-0.024576016
192	0xbbf79a50	-0.0075562373
193	0xbcff0330	-0.03112945
194	0xbbd1b220	-0.006399408
195	0x3c982f7c	0.01857733
196	0x3c84d8f4	0.016216733
197	0xbd46cfe0	-0.04853809
198	0xbc9fd9e0	-0.01951307
199	0x3cbdda70	0.023175448
200	0x3cccac08	0.024984375
201	0x3caae528	0.020861223
202	0xbd3536d4	-0.04424174
203	0xbd24355e	-0.040089957
204	0xbd268332	-0.04065246
205	0x3bf7ab50	0.007558264
206	0xbd6ba5a8	-0.05753103
207	0x3b5b7ea0	0.0033492222
208	0xbd6573c2	-0.0560186
209	0x3d0c723e	0.034288637
210	0x3ca5c110	0.020233661
211	0x3c9ba1c4	0.018998034
212	0x3d0bea08	0.034158736
213	0x3d4f01a2	0.050538667
214	0xbb909780	-0.0044125915
215	0xbcf8df48	-0.030379906
216	0xbd7bd844	-0.061485544
217	0xbd3c3a3c	-0.045953974
218	0xbcef78b8	-0.029232368
219	0x3d72257e	0.059117787
220	0x3d1583b6	0.036502562
221	0x3d03bb84	0.03216125
222	0xbd18da12	-0.037317343
223	0x3bffd9e0	0.007807955
224	0xbd691cae	-0.056912117
225	0x3cb89934	0.02253399
226	0x3cce565c	0.025187664
227	0xbc108738	-0.008821301
228	0xbd757374	-0.059924558
229	0xbd0d6e6c	-0.034529135
230	0x3cb598d8	0.022167608
231	0x3d03a314	0.032137945
232	0x3c5db3a8	0.013531603
233	0xbc13bca8	-0.009017147
234	0x3d29d77e	0.041465275
235	0xbd44f816	-0.048088156
236	0xbaa74a00	-0.0012763143
237	0xbd733644	-0.059377924
238	0xbc4669a0	-0.012110144
239	0x3d16fbd0	0.03686124
240	0xbc07d8c8	-0.008291431
241	0xbd760dae	-0.06007164
242	0xbd7f0e44	-0.062269464
243	0x3c8810d4	0.016609587
244	0x3d5027e6	0.0508193
245	0xbd05b674	-0.032644704
246	0xbd639416	-0.055561148
247	0xbd2dbacc	-0.04241447
248	0x3d5194e8	0.0511674
249	0x3d1a08ba	0.03760598
250	0x3d1eab3c	0.03873752
251	0x3b0996e0	0.002099447
252	0x3cb0fb50	0.02160421
253	0xbc819010	-0.015815765
254	0x3cafec94	0.021475114
255	0x3d228080	0.03967333

bias f4 [256]
0	0x3d6ab02c	0.057296917
1	0xbd2b759e	-0.041860215
2	0xbba8f8a0	-0.0051565915
3	0xbbcc6170	-0.0062372014
4	0xbd3e86aa	-0.046515144
5	0xba616600	-0.0008598268
6	0xbd2f0ec6	-0.0427387
7	0x3d54f466	0.05199089
8	0x3c9d9d3c	0.019240014
9	0x3d62522a	0.05525414
10	0x3b5d0a60	0.0033728108
11	0xbc9f6354	-0.019456543
12	0x3d1a0534	0.03760262
13	0x3c6a12b0	0.014286682
14	0x3c5b3d78	0.0133813545
15	0x3bb017b0	0.0053739175
16	0xbc3d44c8	-0.011552043
17	0x3cb489a0	0.022038281
18	0xbd481e94	-0.048857287
19	0xbceddd5c	-0.029036216
20	0x3d00aab8	0.03141281
21	0x3b23ccc0	0.0024993867
22	0x3d3ddc56	0.046352707
23	0x3d3846a2	0.044989236
24	0xbb2311a0	-0.0024882331
25	0xbceed230	-0.02915296
26	0xbd0e0c62	-0.034679778
27	0x3cac1f94	0.021011151
28	0x3cf31a28	0.029675558
29	0xbce89464	-0.02839107
30	0xbcd03954	-0.025417961
31	0xbd4c856c	-0.04993193
32	0xbc088010	-0.008331314
33	0xbd614240	-0.05499482
34	0xbd424664	-0.04743041
35	0xbc8f7b1c	-0.017514758
36	0xbd269b3c	-0.040675387
37	0xbb894620	-0.0041892678
38	0x3c8bd13c	0.017067544
39	0x3d3900d0	0.04516679
40	0xbd1559e2	-0.036462672
41	0xbceb6048	-0.028732434
42	0x3d3313b0	0.043719947
43	0x3b256b40	0.0025240928
44	0xbd2d8562	-0.042363532
45	0x3d757f00	0.05993557
46	0xbb2c0900	-0.0026250482
47	0xbb7b26a0	-0.0038322583
48	0x3d43e422	0.047824986
49	0x3d7f5a68	0.062342077
50	0xbc48c118	-0.012253068
51	0x3d44cc54	0.048046425
52	0x3d17f752	0.037101097
53	0xbd2fd486	-0.042927288
54	0xbc9c82e4	-0.019105382
55	0xbd7a5860	-0.061119437
56	0xbc12ad50	-0.008952454
57	0xbb8d3b10	-0.0043100193
58	0xbb56c1e0	-0.0032769367
59	0xbcd193ac	-0.02558311
60	0x3d4c4f46	0.04988029
61	0x3a827380	0.0009952635
62	0xbb68d800	-0.0035529137
63	0x3d31d56a	0.043416418
64	0x3d6998c0	0.05703044
65	0x3d0c797c	0.034295544
66	0xbb53a040	-0.0032291561
67	0x3ca54a0c	0.02017691
68	0x3d0972b2	0.033556648
69	0x3d4a825a	0.04944072
70	0x3d145758	0.03621611
71	0xbcb12d10	-0.021627933
72	0xbcdf7cec	-0.027281247
73	0xbd718e1c	-0.058973417
74	0x3cd1caa0	0.025609314
75	0x3c084a10	0.008318439
76	0x3cc40a98	0.023930833
77	0x3d1af38c	0.03782992
78	0xbcd88bf0	-0.026433915
79	0x3d7cf10e	0.061753325
80	0xbc6ddad0	-0.014517501
81	0xbc9b8468	-0.018984035
82	0xbd5b1bd4	-0.053493336
83	0xbd12c9c2	-0.035836942
84	0x3d4f5c0e	0.0506249
85	0xbced8124	-0.028992243
86	0xbc412dc8	-0.0117907
87	0x3d583278	0.052782506
88	0xbd1092aa	-0.03529612
89	0xbccc029c	-0.024903588
90	0x3c4a6dd0	0.012355283
91	0xbccef460	-0.025263011
92	0xbbc100f0	-0.0058900043
93	0xbd72cd7a	-0.05927799
94	0x3d30664a	0.0430663
95	0x3c6405f0	0.013917431
96	0xbd484520	-0.048894048
97	0x3d4c58de	0.049889438
98	0x3c5ecc50	0.013598517
99	0xbc2ce128	-0.010551728
100	0xbac88b40	-0.0015300289
101	0xbd118f60	-0.035537124
102	0x3d3fcc7c	0.04682587
103	0xbb1d2940	-0.0023980886
104	0x3d388cb0	0.045056045
105	0x3d0a3fd6	0.033752285
106	0xbd18d510	-0.037312567
107	0xbcdb09e8	-0.026738122
108	0x3be1b7b0	0.0068883523
109	0x3d2ad6ca	0.041708745
110	0xbbf442b0	-0.007454239
111	0xbd2d8336	-0.04236146
112	0xbcb52540	-0.022112489
113	0xbd506f2c	-0.05088727
114	0x3d684364	0.056704894
115	0x3d5f39b2	0.054498382
116	0xbc945778	-0.018108115
117	0x3d7a83b2	0.06116075
118	0xbd518afe	-0.051157944
119	0xbcaad818	-0.020854995
120	0x3d29caa0	0.041453004
121	0xbce1d350	-0.027566582
122	0x3d54b278	0.051928014
123	0x3d691954	0.05690892
124	0xbc5d2450	-0.013497427
125	0xbce37238	-0.027764425
126	0xbd12f452	-0.035877533
127	0x3ae07f40	0.0017127767
128	0x3a4e1d00	0.00078625977
129	0xbd28741c	-0.041126356
130	0xbcce9388	-0.025216833
131	0xbd7ba072	-0.06143231
132	0x3c4e7078	0.012600057
133	0xbbb6a5c0	-0.005573958
134	0x3c145da0	0.009055525
135	0xbba720f0	-0.005100362
136	0x3d375ade	0.044764392
137	0xbd510dda	-0.0510386
138	0x3cb49558	0.022043869
139	0xbc1f0cb0	-0.009707615
140	0xbd4460ae	-0.047943763
141	0x3cae4e58	0.021277592
142	0x3c019858	0.007909857
143	0x3c84e6a8	0.016223267
144	0xbc8f9778	-0.01752828
145	0x3cca72f0	0.02471301
146	0xbbfcacf0	-0.0077110454
147	0x3d2cf652	0.042227097
148	0xbd491700	-0.0490942
149	0x3d6abc0a	0.057308234
150	0x3d0234b4	0.031788543
151	0x3cd3ea60	0.025868595
152	0xbca9a7fc	-0.020709984
153	0x3ca5b758	0.020229027
154	0xbd738fe4	-0.059463397
155	0xbd1bdf64	-0.03805484
156	0x3d23a07c	0.03994797
157	0xbc25f618	-0.010129474
158	0xbccbfcbc	-0.024900787
159	0x3bcc2380	0.006229818
160	0xbbefe250	-0.0073206797
161	0xbd3f5194	-0.04670866
162	0xbd48d2b4	-0.049029067
163	0xbd5f8992	-0.054574557
164	0xbd2eb63c	-0.04265426
165	0xbcfec114	-0.031097926
166	0xbc237ee8	-0.009978987
167	0x3a832a80	0.0010007173
168	0x3c8f0c00	0.017461777
169	0xbcfac894	-0.030613221
170	0x3ca178c8	0.019710913
171	0x3d482296	0.04886111
172	0x3d176ba4	0.03696789
173	0x3d61a91c	0.055092916
174	0x3d113fe4	0.03546132
175	0x3cac5308	0.021035686
176	0xbcb77418	-0.022394225
177	0x3d548fb8	0.051894873
178	0x3cb515d0	0.022105128
179	0x399b2300	0.0002958998
180	0x3d4b7dee	0.049680643
181	0x3cd2cf08	0.025733486
182	0x3d1bec32	0.03806705
183	0x3cdb3a18	0.0267611
184	0x3ae16980	0.0017197579
185	0xbd5911fa	-0.05299566
186	0x3d1c5c68	0.038174063
187	0x3b9f5cb0	0.004863344
188	0xbc865f58	-0.016402885
189	0xbd3c1ea8	-0.045927674
190	0x3d0f4e8e	0.034987025
191	0xbd78713e	-0.06065487
192	0xbd62c63e	-0.05536484
193	0xbaaa3c80	-0.0012988001
194	0xbd1d5d36	-0.03841897
195	0xbd318980	-0.04334402
196	0xbc99d644	-0.018778928
197	0xbd7abd20	-0.06121552
198	0xbce35050	-0.027748257
199	0x3cc245b4	0.023714878
200	0xbd2e4f06	-0.04255583
201	0x3d03af72	0.03214974
202	0xbb20ece0	-0.002455525
203	0x3cef8784	0.029239424
204	0xbcbc1f9c	-0.022964291
205	0x3d140210	0.03613478
206	0x3c8b6e78	0.017020449
207	0x3d16b210	0.036790907
208	0xbc8ba3e8	-0.01704593
209	0x3cfb4ff0	0.030677766
210	0xbd73b95c	-0.059502944
211	0x3c4ebba0	0.0126179755
212	0x3cc209dc	0.023686342
213	0x3be4ea80	0.0069859624
214	0xbd3e9b74	-0.04653497
215	0x3d22641c	0.039646253
216	0x3c919314	0.017770328
217	0xbcc98cec	-0.02460333
218	0x3cfa1a44	0.030530103
219	0x3d625c1a	0.055263616
220	0x3d65a6e6	0.05606737
221	0xbd44271e	-0.047888868
222	0xbd6f4b98	-0.0584217
223	0xbd09df9c	-0.033660516
224	0x3c0e2a08	0.008677013
225	0x3d3f5602	0.046712883
226	0x3d743350	0.059619248
227	0xbd7a8700	-0.061163902
228	0xbc132870	-0.008981809
229	0x3ab56540	0.0013839379
230	0x3cef3d74	0.029204108
231	0xbcb1669c	-0.021655373
232	0xbc999864	-0.018749423
233	0x3d4cc1f6	0.049989663
234	0x3d0825fa	0.033239342
235	0x3d30a05e	0.043121688
236	0xbcd3dd2c	-0.025862299
237	0xbcd21d58	-0.025648758
238	0xbc5b3568	-0.013379432
239	0xbd2b2ad0	-0.041788876
240	0xbd16a516	-0.036778532
241	0xbcd6cecc	-0.026221655
242	0x3c297530	0.010342881
243	0xbb7ccac0	-0.0038572997
244	0x3cfed8bc	0.031109206
245	0x3d0aabbe	0.033855192
246	0x3d63c7c0	0.05561042
247	0xbd6a80cc	-0.057251737
248	0xbaa9b140	-0.0012946501
249	0x3b6fbaa0	0.0036579743
250	0x3d0ad36c	0.033893034
251	0xbd2486c8	-0.0401676
252	0xbd5dec1e	-0.054180257
253	0xbd477fd2	-0.048705883
254	0xbc846c6c	-0.01616498
255	0xbd0f5b10	-0.034998953

weight f4 [5, 256]
0	0xbc8412e0	-0.016122282
1	0x3c2090e0	0.009800166
2	0xbc255608	-0.010091312
3	0xbd21e3d6	-0.039523922
4	0x3cacf044	0.021110661
5	0x3d1abe1e	0.037778966
6	0xbc346bd8	-0.01101204
7	0x3d0c61d0	0.03427297
8	0xbd15e70e	-0.036597304
9	0x3d322904	0.043496147
10	0x3cf64c98	0.03006582
11	0xbd19e396	-0.03757056
12	0xbb9d84c0	-0.004807085
13	0x3c663628	0.014050998
14	0x3d12d7b6	0.03585025
15	0x3ca05a64	0.019574352
16	0x3d6c1290	0.05763489
17	0xbbcb35c0	-0.006201476
18	0x3d200ed4	0.03907664
19	0x3d19852e	0.037480526
20	0x3d0fdcc4	0.035122648
21	0xbd1def84	-0.038558498
22	0x3d530ab6	0.051523887
23	0x3d44119a	0.04786835
24	0x3cf028ec	0.029316388
25	0x3b1c37a0	0.0023836866
26	0xbba71d60	-0.0050999373
27	0xbc8546c4	-0.016269095
28	0x3c4ee760	0.012628406
29	0xbd543a0a	-0.051813163
30	0x3bc46360	0.0059932917
31	0x3b9c2790	0.0047654584
32	0xbd1f2e32	-0.038862415
33	0xbd624388	-0.055240184
34	0x3c4b0060	0.012390226
35	0xbca32e28	-0.01991947
36	0xbc524000	-0.012832642
37	0xbc8d93b4	-0.017282344
38	0x3bf41d50	0.0074497834
39	0x3acef800	0.0015790462
40	0xbd59608a	-0.053070582
41	0x3d25abfe	0.040447228
42	0xbd531024	-0.051529065
43	0x3d1610e6	0.03663721
44	0xbd340db2	-0.043958373
45	0xbcfe5834	-0.031047918
46	0xbd1f2320	-0.038851857
47	0x3af351c0	0.0018563792
48	0x3d5a7fca	0.053344525
49	0xbcda6024	-0.026657172
50	0xbcab3a1c	-0.020901732
51	0x3c1c5ee0	0.009544104
52	0x3d43e1b0	0.047822654
53	0x3d6fb3c6	0.058521055
54	0xbd2f4216	-0.042787634
55	0x3d1a5be0	0.037685275
56	0x3d0d0ddc	0.034437045
57	0xbd072fd6	-0.033004604
58	0xbd4c6d36	-0.04990884
59	0xbba7dd00	-0.005122781
60	0xbbdeb730	-0.00679674
61	0xbc97541c	-0.018472724
62	0x3d73fa5c	0.059564933
63	0xbd2ec802	-0.04267121
64	0xbba4a820	-0.005024925
65	0x3cfc37d8	0.030788347
66	0xbba3d4d0	-0.0049997345
67	0x3d3f6a44	0.046732202
68	0xbd2c4bd8	-0.042064518
69	0xbd3006a4	-0.042975083
70	0x3b6492c0	0.003487751
71	0x3d7f3922	0.062310345
72	0x3cd87a44	0.026425488
73	0x3caad9dc	0.020855837
74	0xbd79c84c	-0.060982034
75	0x3d01f276	0.03172537
76	0x3d3025ce	0.043004803
77	0x3cfaf384	0.030633695
78	0x3d2cb5e0	0.042165637
79	0xbd2bacd6	-0.041912876
80	0x3b1f1ec0	0.0024279803
81	0xbcf7d0a8	-0.030250862
82	0xbbf2a4a0	-0.0074048787
83	0xbc6693c8	-0.01407332
84	0xbce90c84	-0.02844835
85	0xbd2c671e	-0.042090528
86	0xbbb32580	-0.005467117
87	0xbd6dcd58	-0.05805716
88	0x3d5a9c04	0.053371444
89	0x3ca156c8	0.0196947
90	0xbd72f608	-0.059316665
91	0xbbe994c0	-0.007128328
92	0xbc9a45d4	-0.018832125
93	0xbd3a93d0	-0.04555112
94	0x3cb4f618	0.022090003
95	0x3b8f0200	0.004364252
96	0xba31dc00	-0.0006784797
97	0xbc323cc8	-0.010878749
98	0xbcb55508	-0.022135273
99	0x3c220850	0.009889677
100	0xbd3befac	-0.045882866
101	0x3d0f14c0	0.034931898
102	0x3cb61868	0.022228435
103	0xbd0111e2	-0.031511195
104	0x3d36be66	0.04461517
105	0x3c859ce8	0.01631017
106	0xbcfa32ec	-0.03054186
107	0x3c2d8fd0	0.01059337
108	0xb9e86400	-0.00044324994
109	0xb9ee8700	-0.0004549548
110	0xbcfad2ac	-0.030618034
111	0xbd5ed370	-0.05440086
112	0x3d5b77f4	0.053581193
113	0xbd185a50	-0.037195504
114	0xbc5741a8	-0.013138212
115	0x3c73d500	0.014882326
116	0xbd6325ca	-0.05545596
117	0x3c9b2370	0.018937796
118	0x3c9772bc	0.018487327
119	0x3c841490	0.016123086
120	0xbcb5c238	-0.022187337
121	0x3d5b1088	0.053482562
122	0x3d59b25c	0.053148612
123	0xbccd52c4	-0.02506388
124	0xbd0716ec	-0.032980844
125	0xbd536f20	-0.05161965
126	0xbb02efe0	-0.0019979402
127	0xbd552f0e	-0.052046828
128	0x3c670238	0.01409965
129	0xbd23807e	-0.03991746
130	0xbd56764e	-0.052358918
131	0xbcc61794	-0.024181165
132	0xbd22b69a	-0.039724924
133	0xbcf9335c	-0.030419998
134	0x3d00118a	0.031266727
135	0x3d3e430c	0.04645066
136	0xbd6c3852	-0.0576709
137	0x3916f600	0.00014396757
138	0xbcd95bd0	-0.026533037
139	0x3d7a3170	0.061082304
140	0x3caf0f8c	0.021369718
141	0xba438e00	-0.00074598193
142	0xbcf63e2c	-0.030058943
143	0x3c5e0e78	0.013553254
144	0x3d5288de	0.051400058
145	0xbd1a00ec	-0.037598535
146	0x3b3f2540	0.002916649
147	0xbd244730	-0.040106952
148	0xbc5a8d80	-0.0133394
149	0x3d155c34	0.036464885
150	0xbd723b02	-0.059138305
151	0xbd7323c4	-0.05936028
152	0xbb0fa6a0	-0.0021919385
153	0xbd6f1816	-0.05837258
154	0xbd02117a	-0.03175495
155	0x3d566358	0.052340835
156	0xbd39d65c	-0.045370445
157	0xbd23aa76	-0.039957486
158	0x3d28b8f6	0.041192017
159	0xbc9e8edc	-0.01935523
160	0xbbe59340	-0.007006079
161	0xbd2a962e	-0.04164713
162	0x3c326a48	0.010889597
163	0x3c503ff0	0.012710556
164	0xbd6cb596	-0.05779036
165	0x3d640a14	0.055673674
166	0x3c8b85b8	0.017031536
167	0x3c791a08	0.01520396
168	0xbcbadfc8	-0.022811785
169	0x3d58e088	0.052948505
170	0x3aecc100	0.001806289
171	0xbc199670	-0.009374246
172	0xbd057448	-0.032581598
173	0xbd318700	-0.043341637
174	0x3d341700	0.043967247
175	0x3bfb3be0	0.0076670498
176	0x3d7690f6	0.06019684
177	0xbd7c0540	-0.061528444
178	0xbc305e70	-0.010764703
179	0xbd12b02e	-0.03581255
180	0xbc818168	-0.015808776
181	0x3b26a1c0	0.0025426
182	0x3d3dcd62	0.046338446
183	0xbbc99de0	-0.0061528534
184	0x3c698360	0.014252514
185	0xbd2f6266	-0.04281845
186	0xbd52bcb4	-0.051449493
187	0x3d69086e	0.056892805
188	0xbce32414	-0.027727164
189	0xbd3356e2	-0.04378403
190	0x3ca0cc58	0.019628689
191	0xbd79ca02	-0.060983665
192	0xbc881800	-0.016613007
193	0xbd737cce	-0.059445195
194	0x3d74fd1c	0.059811696
195	0xbd0a7b24	-0.033808842
196	0x3b54e240	0.0032483488
197	0xbd0176a8	-0.0316073
198	0xbcaa7694	-0.020808496
199	0x3d048c04	0.03236009
200	0xbbb5e240	-0.0055506527
201	0x3c9dcca8	0.019262627
202	0x3d3c9622	0.046041615
203	0xbc9b319c	-0.018944554
204	0xbcb8eac0	-0.022572875
205	0xbbfda630	-0.0077407584
206	0xbd578bc8	-0.05262354
207	0x3b3739c0	0.0027958006
208	0xbd3fff42	-0.046874292
209	0xbd37d1fc	-0.04487799
210	0xbcbb1838	-0.022838697
211	0x3d78def4	0.0607595
212	0xba7cbc80	-0.0009641126
213	0xbc3bbdb0	-0.011458799
214	0x3c23d7b0	0.010000154
215	0x3bd44920	0.0064784437
216	0xbd0eb7ea	-0.034843363
217	0x3c8ef8ec	0.01745268
218	0x3d196d7a	0.03745792
219	0xbd239376	-0.03993555
220	0xbd068b9e	-0.032847993
221	0xbc10cb98	-0.008837603
222	0x3d42c430	0.04755038
223	0xbcc6736c	-0.02422496
224	0x3cabe6cc	0.020984076
225	0x3d5a3178	0.053269833
226	0x3d041c82	0.03225375
227	0x3cb9893c	0.022648446
228	0xbd7403d2	-0.059573956
229	0xbcaadb3c	-0.020856492
230	0x3d076e48	0.033064157
231	0xbd525f12	-0.051360197
232	0xbce6b264	-0.028161235
233	0xbc5dfa28	-0.013548411
234	0xbbea0fb0	-0.0071429834
235	0xbd0109ac	-0.031503364
236	0xbd41b2f4	-0.047289804
237	0x3c841f6c	0.016128264
238	0xbc421410	-0.011845604
239	0x3ca9dcf0	0.020735234
240	0xbd27da36	-0.040979587
241	0x3d7c9316	0.06166371
242	0xbc9c51b8	-0.019081935
243	0xbd6d47aa	-0.057929672
244	0xbc9e7ba0	-0.019346058
245	0x3c47b890	0.012189999
246	0x3c263b68	0.0101459995
247	0xbd74ea56	-0.059793793
248	0xbd4cccd4	-0.050000027
249	0xbb38b880	-0.0028186142
250	0x3c997248	0.018731251
251	0x3d4d4916	0.05011853
252	0x3d350c66	0.044201277
253	0x3cdc0954	0.026859917
254	0x3d643520	0.055714726
255	0x3d4e3096	0.050339304

bias f4 [5]
0	0x3bca7e50	0.0061796084
1	0x3d3ff7f8	0.04686734
2	0x3d285e96	0.04110583
3	0xbd132a22	-0.035928853
4	0x3ca9b3fc	0.020715706
