baseline_models/random-agent-7.pt (torch_old, 595871 bytes, 6 tensors)

weight f4 [256, 294]
00000000: 7c3a ad3c bfe4 debc fa85 e0bc e2f7 f8bc
00000010: 14b1 db3c 669d 67bd 4401 3fbc 9c01 cd3c
00000020: b6ac 493d 7cc4 d83c a389 1bbd 85b5 54bd
00000030: 938e 52bd 8aa9 2fbd 3cf0 5dbc a8d1 6c3c
00000040: 80cf 183d b06d 733c 2c9a 23bd b8ec 513c
00000050: 9ce2 383d e4b2 5dbd 2079 a03b fc93 903c
00000060: a833 54bd e0bb 48bc 4081 333a 9c71 45bd
00000070: 984e 2fbc 047c e03c 4530 3fbd 006d 303b
00000080: 181c bd3c 2266 0ebd 8a76 42bd 8862 5e3c
00000090: 78b1 303d 1098 733c 98cb 373c fa91 1b3d
000000a0: 305b dd3c cc3f b73c 08d7 4ebd 4c34 1f3d
000000b0: 1464 3dbd 98b7 d8bb ec62 43bd 70ec a5bb
000000c0: 3421 023d 7b51 09bd fa7d 163d 1eb0 acbc
000000d0: fc13 813c 8a44 1fbd ca49 1e3d 240b 06bd
000000e0: 184d 803b 18c3 973c 276a 2fbd a6b4 5b3d
000000f0: f063 89bb fec4 abbc cc37 0a3d 2ea8 52bd
00000100: 70c5 253d 5a1c 143d 88c9 38bc daf8 49bd
00000110: 2096 903c 12b3 223d 60fa 33bc 60df 7cbc
00000120: d215 0c3d c0fb 683c 5012 443d da82 6abd
00000130: 803e 353a 5a9e 4e3d fcf2 cd3c 9839 b83c
00000140: abfc 4dbd 8c6c 1e3d 80f1 fd3c cec6 6ebd
00000150: c8ad 21bc 34ef f93c 7f3a 36bd 6499 f8bc
00000160: fae0 f7bc ecd9 c5bc 76f6 65bd 50d6 7fbc
00000170: 007d ab3b 2085 e03c f031 463c dbe3 48bd
00000180: 5eaf b5bc 38c7 88bb 3c3b b23c 49ea 37bd
00000190: c097 3c3a 40bb 633b 24d7 83bc d79a eebc
000001a0: 18e1 643d f468 2bbc 4005 a63c 4e25 b5bc
000001b0: d6d0 203d a837 7c3c 6852 77bc a899 193d
000001c0: e049 5fbc f0d3 2bbb 1008 c03b be41 383d
000001d0: e896 1d3c 50af 8dbc 24c0 a03c e833 943c
000001e0: 3455 ecbc 0654 353d 8dea 4ebd 9499 5f3d
000001f0: 88ec 483d b880 c5bc 0e35 38bd eaa6 233d
00000200: 6079 7f3c e526 6bbd 36f3 3f3d 20a6 df3c
00000210: d709 4fbd 8849 a7bb ca4b 01bd ba6c 243d
00000220: 41e0 50bd d04e 433c 8ad2 49bd 08c5 81bb
00000230: 5abd 373d f892 353c 6045 d1bb 5054 ef3c
00000240: 8c81 e93c b426 ca3c ca6f 2b3d 4267 aebc
00000250: 8662 d3bc 1474 c7bc 18c0 a1bb 445e 00bc
00000260: 70f6 2e3c 6e3f 643d c811 283d f856 cb3c
00000270: 64d6 2dbc a31f ffbc 00f7 f83b 3b15 f6bc
00000280: 8ff5 edbc e860 c4bb 90f4 a53b 8530 6ebd
00000290: 6098 693d 8874 19bd 4e0e 693d e4bf efbc
000002a0: 68cf a23c f02b 69bc eee0 533d 40b2 413c
000002b0: a3de 20bd 1e88 3f3d 00d1 fb39 30b7 223c
000002c0: 18fe 03bc 040b b4bc 4f25 43bd 9001 80bc
000002d0: 0409 53bc 4264 bebc 703d 953c 8cf1 cbbc
000002e0: 1200 bcbc cae0 1c3d 629a 1ebd 7d09 4abd
000002f0: 5121 1bbd b05a 86bb ca1e 1d3d 1a15 063d
00000300: 1c57 5e3d 1823 2d3d b226 2dbd 3833 f1bc
00000310: 54ce ea3c d05c 51bb c21d 5c3d 8830 4e3c
00000320: 716f 32bd e895 0e3d 20d2 633b b0c4 de3c
00000330: 2c6f 57bc f03b 3a3d 00be ed39 009f 16b9
00000340: 585f 25bc 223f 1c3d b4b9 96bc c0f2 d83c
00000350: b054 d1bc c07d 2bba 7a2f 463d 728d 093d
00000360: bba8 57bd ee50 273d 60cc 69bc 5a54 07bd
00000370: c4dd 233d 80f1 bc39 9aa0 abbc 73b9 3abd
00000380: a4d5 96bc 901c 1ebd e278 3d3d 07f7 62bd
00000390: 2a34 4bbd e11d 66bd 8ae1 a9bc 5016 de3b
000003a0: ac37 6dbd 7028 013c 128a eebc b027 06bc
000003b0: bc02 0b3d c035 983b 6649 04bd 3868 193d
000003c0: e037 943b b593 03bd 0f60 28bd d851 2b3c
000003d0: e0f6 aa3c 6ad9 0b3d 8209 0abd 2a56 023d
000003e0: f0ae 05bc 0823 5f3d 6030 52bc 37e6 3ebd
000003f0: 38fe efbb 5426 dd3c e863 3a3c 2c8e 88bc
0.021146052 -0.027208684 -0.027407635 -0.030391637 0.026817836 -0.05654659 -0.011658017 0.025025181
0.049236976 0.026460879 -0.037973057 -0.051930923 -0.0514055 -0.042886294 -0.013546046 0.014454283
0.037307262 0.0148576945 -0.03994195 0.012812786 0.045137987 -0.05412568 0.0048972517 0.01764869
-0.051807076 -0.012251824 0.0006847568 -0.04820405 -0.010699891 0.027402885 -0.046676893 0.0026920438
0.023084685 -0.03476537 -0.04747633 0.013573296 0.043137997 0.0148677975 0.011217974 0.03798101
0.02702102 0.022369288 -0.05049804 0.038868234 -0.04623802 -0.006613683 -0.04770176 -0.005063586
0.031769946 -0.03352497 0.036741234 -0.021080073 0.0157566 -0.038883723 0.03864459 -0.03272547
0.0039154403 0.018525645 -0.042825844 0.053639077 -0.0041928217 -0.020967957 0.03374462 -0.05142992
0.040471494 0.03615985 -0.011278518 -0.04930959 0.01764971 0.039721556 -0.010984987 -0.015434116
0.034200497 0.014220178 0.047869027 -0.057253696 0.0006913915 0.050443985 0.025140278 0.0224884
-0.05028979 0.038677737 0.030998945 -0.058295064 -0.009868093 0.030509569 -0.04448938 -0.03034658
-0.030258644 -0.024151765 -0.056143247 -0.015615061 0.005233407 0.027407229 0.012096867 -0.049045425
-0.022178348 -0.0041741394 0.02175676 -0.044901166 0.00071942434 0.003474906 -0.016093798 -0.029126568
0.05587873 -0.0104620345 0.020266175 -0.022112515 0.03926166 0.015394129 -0.015095331 0.037500054
-0.013628453 -0.0026218854 0.005860336 0.04498457 0.009618498 -0.01729551 0.01962287 0.018091157
-0.028849222 0.044269584 -0.050516654 0.054589823 0.0490537 -0.02410923 -0.044972472 0.039954104
0.015592903 -0.05741014 0.046862803 0.027300894 -0.050546493 -0.005105201 -0.03156642 0.040142752
-0.050995115 0.011920646 -0.04927305 -0.0039602555 0.044858314 0.011082403 -0.006386444 0.029215008
0.028504156 0.024676658 0.041854657 -0.021289472 -0.025803816 -0.024347343 -0.0049362294 -0.007834975
0.0106788725 0.055724554 0.041032583 0.024821743 -0.010610197 -0.031143015 0.007597804 -0.03003942
-0.029047756 -0.0059929974 0.0050645545 -0.05815174 0.05703008 -0.03746465 0.056898408 -0.029266305
0.01987429 -0.014231667 0.05172818 0.011822283 -0.039274823 0.04676067 0.00048030168 0.009931371
-0.008056186 -0.021977909 -0.047643002 -0.015625745 -0.012880567 -0.023241166 0.018217772 -0.024895452
-0.022949252 0.038300313 -0.03872145 -0.049325455 -0.03787357 -0.0041001663 0.03835944 0.032734968
0.054282293 0.042269796 -0.04227323 -0.029443368 0.028662838 -0.003194619 0.053739317 0.012584813
-0.04356331 0.03481093 0.0034762695 0.027193397 -0.013149064 0.045467317 0.00045345724 -0.00014364347
-0.0100935325 0.038146146 -0.018399097 0.02648294 -0.025553077 -0.00065418705 0.04838512 0.03358216
-0.05265115 0.040848665 -0.014269918 -0.03303943 0.040006414 0.00036038086 -0.020950604 -0.045587014
-0.018412419 -0.038601458 0.04625786 -0.055411365 -0.049610294 -0.05618084 -0.020737428 0.006777562
-0.05791442 0.007883176 -0.029118571 -0.008188173 0.033938155 0.0046450794 -0.03229656 0.037452906
0.0045232624 -0.032123286 -0.041107234 0.010456525 0.020869672 0.03414289 -0.033700474 0.031820454
-0.008159384 0.054476768 -0.012828916 -0.04660627 -0.0073240064 0.026995815 0.011376359 -0.016669355

bias f4 [256]
00000000: 8602 58bd a0b9 c3ba b0cc 3c3c aa96 633d
00000010: def2 90bc 9020 c93c c857 1e3c 881d a4bb
00000020: 6311 6abd c0fe cebb dee3 003d d849 d8bc
00000030: 78fa aa3c cfe1 e3bc 3c00 db3c c48d 7dbc
00000040: 001d 5b39 88f1 2ebc ac6e 073d 3478 0cbd
00000050: aecd 233d f900 ecbc 90c4 32bd 3846 b53c
00000060: f8f9 e7bb e289 2c3d d4f4 903c d880 e2bb
00000070: c01b 863c 3a9c 533d 40a8 053d 889a a3bc
00000080: 9234 1cbd 3022 2a3d ac90 a23c 22ba c0bc
00000090: b453 0ebd 6052 05bd b482 d33c 9262 57bd
000000a0: 5cd3 0a3d a8ab 6a3c b8c2 a7bb 00b8 6a3d
000000b0: a8da b9bc 0a88 423d 56c6 043d f4f1 d13c
000000c0: 1fb2 2fbd b8fe 243c d296 4f3d d09e cd3b
000000d0: 86ab 693d f896 e83c 6ab4 4fbd 9ae1 313d
000000e0: 20b0 66bc 0016 25bd e0b1 263d 0cbf f4bc
000000f0: 2724 60bd 9c35 0e3d b6a6 36bd c009 bd3b
00000100: 2eb5 d4bc fc7a c63c 0485 073d 684d f23c
00000110: e852 913c bca8 e33c 1607 f3bc ae17 5bbd
00000120: 1a78 b1bc fc2f 9abc 301d 54bd fc37 b63c
00000130: 7c98 40bd e03f 45bd a525 4cbd 9ebd dfbc
00000140: 8f9f 3cbd 60e6 debb d341 fdbc cd55 5dbd
00000150: a0ac 4b3b 05ff edbc 6ca9 98bc d0e8 963b
00000160: ec82 513d 10e6 083c 50b9 ed3b eacf 433d
00000170: 00ed 883c f63e 1d3d a826 8ebb e245 1c3d
00000180: d0cd 34bb 387d d13c 00ad 91b9 986b 773c
00000190: b086 e73b 9104 e4bc 203c dc3b 106e 443c
000001a0: 05da 02bd 80c8 af3c 80d7 51ba 9ecc 683d
000001b0: 9e60 013d 4d26 dfbc 86a1 07bd 4538 65bd
000001c0: 544b fb3c 9488 c0bc 760a 3cbd d6f8 0abd
000001d0: a10e 45bd 24ef 613d 84b2 1f3d 7ea7 1e3d
000001e0: 98a9 5e3d 4067 cb3c d475 5c3d c427 40bc
000001f0: 3825 24bd fe75 583d c87e 3abd 86d9 babc
00000200: 0427 353d 9ea0 103d c658 153d 466d 093d
00000210: 1ea0 87bc 965d 473d d02b d0bc 689a 913c
00000220: 8678 293d f8c1 133d 10d7 303d 5377 2bbd
00000230: a455 abbc bc90 cb3c d891 68bd 101b 7f3c
00000240: cc75 893c 09fd 6abd b44d 9dbc 0443 db3c
00000250: 8746 42bd a879 46bc 00ae ed3c 2c4e 4bbc
00000260: 641e 0bbd 84f4 a3bc 009d 5139 ee98 dcbc
00000270: 904d ce3b 54eb c5bc 68df 79bc 70d3 9e3b
00000280: 209d 223c b082 e1bb 96d5 2f3d cc8b 15bd
00000290: 18a0 86bb 569e febc c8a3 093d 4069 863c
000002a0: ecbb 3d3d 3a05 c9bc 00b4 91b8 58e0 0c3d
000002b0: 9069 c33b c834 94bb 008f 3b3c 68c5 f13c
000002c0: f0b8 9a3b 32ca 1a3d b4d3 2cbc 7257 d6bc
000002d0: 94e0 b03c 2044 58bd d046 e53c e4d0 633d
000002e0: 98b1 613c f054 a6bb b015 193c b6f5 273d
000002f0: 2260 fabc 407f 0d3c ea62 61bd 583e 2bbd
00000300: e86d 523d 0264 5bbd 2098 d23b da01 0b3d
00000310: 7834 d9bc 0403 2cbd 3cd8 f13c d899 ee3c
00000320: 685c cfbc 904f f73c 88fa e5bb 6282 5fbd
00000330: 9c12 c6bc a6ce 4bbd c804 fbbb 6e2f 043d
00000340: e481 953c ed20 17bd c079 d23a a059 e73a
00000350: 8212 a1bc 58eb d5bc 8266 11bd 084b b13c
00000360: 580d d9bb 50c7 eb3b 10fa dbbb 98b3 5e3c
00000370: fc4c 26bd 4aa1 14bd 10e9 ec3c e8e9 95bb
00000380: f051 68bb 2a82 023d 6c5e aabc 4857 543d
00000390: 34f4 31bd b8e0 d53c 9893 cfbb 968a 293d
000003a0: 7668 1ebd b41e fe3c 3e8b 083d 602e 453b
000003b0: 165a 513d 3755 fdbc 3848 303c 505f 20bd
000003c0: e056 073b 30b8 3ebc a8b0 513c a0a3 533d
000003d0: 568f dcbc 1645 c4bc cd11 1abd d149 debc
000003e0: 0065 1eba c001 35ba 82a7 51bd 7682 ddbc
000003f0: c0a9 6c3c 70a0 453b 5887 99bc f056 cf3c
-0.05273678 -0.001493264 0.011523411 0.055563606 -0.017693933 0.02455166 0.009664483 -0.005008403
-0.057145488 -0.0063169897 0.03146731 -0.026402399 0.020871386 -0.027817635 0.02673351 -0.015475694
0.00020896271 -0.010677703 0.03306453 -0.034294322 0.039991073 -0.028809058 -0.043644488 0.02212821
-0.007079359 0.042123683 0.017694868 -0.006912332 0.016370654 0.05166266 0.03263116 -0.019971147
-0.038136072 0.04153651 0.019844376 -0.023526255 -0.034747794 -0.032549262 0.02581916 -0.05258424
0.033892974 0.014323153 -0.005119648 0.057304382 -0.022687271 0.04749302 0.03241571 0.025628068
-0.04289448 0.010070495 0.050680943 0.0062750354 0.057048343 0.0283923 -0.050709166 0.04342804
-0.014080077 -0.040304184 0.04069698 -0.029876254 -0.054721978 0.034719095 -0.04459258 0.0057689846
-0.0259653 0.024228565 0.033085838 0.029577926 0.017739728 0.02779042 -0.029666465 -0.05348938
-0.021663714 -0.018821709 -0.051785648 0.022243492 -0.04702042 -0.04815662 -0.049840588 -0.027312096
-0.046050604 -0.006802365 -0.030915176 -0.054036904 0.0031078234 -0.029052267 -0.018635474 0.00460539
0.051150247 0.008355632 0.007254757 0.047805704 0.016714573 0.038390122 -0.0043381043 0.038152583
-0.0027588494 0.025572404 -0.0002778545 0.015101336 0.0070656165 -0.027834209 0.0067210346 0.011989132
-0.0319462 0.02145791 -0.0008004829 0.056835763 0.031586282 -0.027239943 -0.033113025 -0.055961866
0.030675568 -0.023502626 -0.045908414 -0.033928715 -0.048109654 0.055159703 0.038988605 0.03873395
0.054360956 0.024829507 0.053823307 -0.011728231 -0.040074557 0.0528469 -0.045531064 -0.022808801
0.04422666 0.035309426 0.036461614 0.033551477 -0.016555842 0.048673235 -0.025411516 0.017773822
0.041374706 0.036073655 0.04317385 -0.041861843 -0.02091486 0.024849288 -0.056779712 0.015570417
0.016779803 -0.05737022 -0.01920209 0.026765354 -0.04743054 -0.012113966 0.029013634 -0.012408774
-0.03396453 -0.020014055 0.0001999028 -0.026928391 0.0062958673 -0.024160065 -0.015251018 0.0048469827
0.009925157 -0.0068820342 0.0429283 -0.036510274 -0.00410844 -0.03108136 0.03360346 0.016407609
0.046321794 -0.024538625 -6.9476664e-05 0.03439364 0.0059635118 -0.0045228936 0.011447668 0.029513076
0.0047217533 0.037790485 -0.010548521 -0.026164744 0.021591462 -0.052799344 0.027987868 0.055619135
0.013775252 -0.0050760433 0.00934355 0.041005813 -0.030563418 0.008636296 -0.055025972 -0.041807503
0.051374346 -0.05356217 0.006426826 0.033937313 -0.026514277 -0.041995063 0.029522054 0.029126093
-0.025312617 0.030189306 -0.007018391 -0.054567702 -0.024178796 -0.049757622 -0.007660482 0.032271795
0.018250413 -0.036896635 0.0016058013 0.0017650612 -0.019662146 -0.026113197 -0.03549815 0.021642223
-0.006623905 0.0071953908 -0.0067131594 0.013592623 -0.04060076 -0.03628663 0.028919727 -0.004575003
-0.003544923 0.031862415 -0.020796977 0.05184105 -0.04344578 0.02610813 -0.006334733 0.04139193
-0.03867384 0.0310205 0.033335917 0.0030087456 0.051111303 -0.030924423 0.010759406 -0.039153397
0.0020651147 -0.011640593 0.012798466 0.051669717 -0.026923817 -0.023958724 -0.037614632 -0.027134808
-0.0006042272 -0.0006904863 -0.05118514 -0.027039748 0.014444768 0.0030155443 -0.018741295 0.02531001

weight f4 [256, 256]
00000000: b28f 7bbd c4a1 753d 80b2 c73c 3482 6d3d
00000010: bcd4 1ebd 209f 59bb 68c6 1d3d dcb8 6dbd
00000020: ea19 47bd bc9e 83bc 1060 6f3d 802a 213a
00000030: c04e 2fbb ceb0 0c3d ec98 32bd 587a 773d
00000040: 40b4 66bd 8ae7 03bd 70e3 a53b b441 f43c
00000050: 164c 03bd f01a 00bd 607f 043d a04a 2cbc
00000060: ea12 303d 18d3 23bd c077 4fbc 3e7b 573d
00000070: 5ad9 333d 28cc 32bc 5c12 12bd f284 6fbd
00000080: 68ec 05bc 1045 1d3d d8b3 4abd e0e4 6ebd
00000090: 6094 41bb 9a6c 0bbd 4815 293d 24b9 2f3d
000000a0: 9a1e 3abd 4cca d13c ae32 06bd 7448 27bd
000000b0: 4040 653c 800a 94ba 6a53 1e3d e0b6 54bb
000000c0: 8007 1d3c a608 0e3d e858 0abc 3434 87bc
000000d0: 3af2 223d 0064 873c 0c57 f4bc b802 35bc
000000e0: cc79 d93c 24a4 da3c 1894 cfbc b8e8 ab3c
000000f0: 9435 873c 107e bc3c 30c6 2d3d 0088 c83b
00000100: 2e71 54bd da5e 3a3d f6eb 133d f88b 2abd
00000110: f458 5ebd c43d 423d 90b2 f4bb 9e70 6e3d
00000120: 7c3d 57bd 9033 9dbb 44fc d53c a473 6fbd
00000130: 80a7 cabb daa7 403d a605 383d 8885 b0bc
00000140: c058 babb 6829 2b3c 1ce1 55bd d440 24bd
00000150: d003 c43c bc6e 133d 14e5 6b3d 002a cf3b
00000160: d895 44bc 009a 19bc 5ecf 0b3d 920a 7a3d
00000170: 288c 013c 7cec 14bd 3450 d5bc bad3 0fbd
00000180: f24a 3fbd 2478 c5bc 9e25 7b3d e437 cf3c
00000190: b01b 4abd 7263 593d cac2 683d 289d 5a3d
000001a0: 5440 4f3d b26e 7c3d 30ca 83bc 3080 eebc
000001b0: 90ed 9dbb 7af4 073d 805e 54ba d436 813c
000001c0: ea09 733d 8ccb 2f3d 9879 e0bc feea 2e3d
000001d0: 245b 9c3c a604 05bd 40fd b53b c4ba 083d
000001e0: beb0 3bbd 500c a2bc fcf4 40bd 88af 033c
000001f0: 005a c03a def4 003d e8f5 863c e0c0 3e3d
00000200: 726e 6cbd 6c2e db3c 6835 20bd 8008 78bc
00000210: d4bd 96bc 288a 213d 6ea7 363d 306b dfbc
00000220: b031 f53b b2e9 693d 3036 463c 203d 2a3b
00000230: 20ac d0bc f222 263d 340f 633d cc2e e03c
00000240: c295 43bd 0048 1cbd 4436 3a3d 1a61 623d
00000250: 8288 463d c85e a13c c411 993c 04f5 be3c
00000260: 0623 53bd 988d 5c3d b0e7 073c 4ace 0f3d
00000270: d0d5 cc3c bcde ddbc 90fd 83bc 0e7e 3abd
00000280: 9411 fb3c 4079 04bd 00aa fcbb 5e47 6bbd
00000290: 58d8 2fbc cc24 52bd 5e4a 0c3d 3e89 413d
000002a0: d0d3 38bd 76bb 5c3d 4c99 263d 441d 8fbc
000002b0: 4868 c2bc 9442 1a3d 1832 07bc b034 73bc
000002c0: 90e5 40bc 447a f5bc ec0b ebbc 54d2 4e3d
000002d0: b891 5fbd 8892 c93c 3c5c 30bd 1471 353d
000002e0: e07e e3bb 40dc a73a 78d1 153c 9a84 3a3d
000002f0: 3839 2f3d c8df f6bc cca8 7b3d 4030 fa3b
00000300: e04a e9bb 04dd e4bc e857 bcbc fc03 46bd
00000310: 38ea 03bd 005d 68bd b8a8 aa3c ae01 3bbd
00000320: c00b edbb 987c 693c 68fd 12bd 34e2 6d3d
00000330: 0c46 bf3c 5441 693d d811 a2bc 22ff 0f3d
00000340: ec8a b8bc 78ce 31bd ac0c 6fbd 7c81 c33c
00000350: c8cd 0abc a083 cfbc 847e aa3c 98c0 39bd
00000360: fcc7 e6bc 261c 313d 305c 533d 189d 87bc
00000370: f4ea f9bc d6c3 01bd ce79 713d 00f2 3c3d
00000380: 4ef7 213d 286e 5a3c 00cd 94ba 2cd7 5dbd
00000390: c262 173d 1e4e 4fbd ecf8 5abd b01a 42bc
000003a0: 56df 6bbd 8071 c1bb 6a89 243d 2ced 40bd
000003b0: e0a6 a3bc 6cce 5fbd a0b9 e9bc 54fa 95bc
000003c0: 6852 6ebd 706d 143c 6062 093c 5272 643d
000003d0: a837 febc e275 1abd cadf 5fbd 4872 88bc
000003e0: f4b8 cd3c 6064 103c c84f 733c 7c07 ec3c
000003f0: 8036 40ba 5465 97bc 0467 923c 0014 19ba
-0.061416335 0.059968725 0.024377108 0.0579855 -0.038777098 -0.0033206418 0.038519293 -0.058037624
-0.048608698 -0.016066901 0.05844122 0.00061479956 -0.002674982 0.0343483 -0.04360287 0.06041941
-0.056324244 -0.032203235 0.005062513 0.029816486 -0.032054983 -0.03127569 0.032348037 -0.010515839
0.042986788 -0.039996237 -0.012662828 0.052607767 0.043908454 -0.010912932 -0.03566204 -0.058476396
-0.008174039 0.03839594 -0.04948792 -0.05832374 -0.0029537901 -0.034039117 0.04128006 0.042901173
-0.04543934 0.025609158 -0.032763176 -0.04084058 0.013992369 -0.0011294633 0.03865377 -0.0032457635
0.009584308 0.034676217 -0.008444048 -0.016504385 0.039781787 0.016527176 -0.029826663 -0.0110480115
0.026547335 0.026689596 -0.025339171 0.020984992 0.01650504 0.02300933 0.042425334 0.006119728
-0.05186575 0.045500614 0.0361137 -0.04163739 -0.05428405 0.047422186 -0.0074675754 0.05821287
-0.05254887 -0.0047974065 0.026121266 -0.058459893 -0.0061845183 0.047035076 0.04492726 -0.021548048
-0.0056868494 0.010446884 -0.052216634 -0.040100887 0.0239276 0.035994276 0.057591513 0.0063221455
-0.011998616 -0.009375095 0.034133308 0.061045237 0.007906951 -0.03635834 -0.02603922 -0.035114028
-0.046702333 -0.02410514 0.06131517 0.025295205 -0.04934281 0.053073354 0.05682639 0.053372532
0.050598457 0.061629005 -0.016087621 -0.029113859 -0.0048195794 0.033192135 -0.000810124 0.015773214
0.059335627 0.042918727 -0.02740173 0.042704575 0.019086428 -0.032475136 0.0055538714 0.03338124
-0.04582285 -0.019781262 -0.047108635 0.008037455 0.001467526 0.031483524 0.01647468 0.04657066
-0.057722516 0.026755534 -0.039113432 -0.015138745 -0.018401064 0.039438397 0.044593267 -0.02727279
0.00748273 0.057107635 0.01209788 0.0025976375 -0.0254727 0.04056067 0.05543442 0.027366064
-0.047750242 -0.038154602 0.045461908 0.055268385 0.048470028 0.019698516 0.01868523 0.023310192
-0.051547073 0.05384597 0.008294985 0.035108842 0.025004297 -0.027083747 -0.016112119 -0.04553037
0.03064803 -0.032342196 -0.0077106953 -0.057441108 -0.010732733 -0.051304623 0.03425061 0.047250025
-0.045123875 0.053889714 0.04067354 -0.01747001 -0.023731366 0.03766115 -0.008251689 -0.014844105
-0.011773482 -0.029965527 -0.028692208 0.050493553 -0.054582328 0.024606004 -0.04305671 0.044297293
-0.006942615 0.0012806728 0.0091441795 0.045536615 0.042779177 -0.030136004 0.061440274 0.0076351464
-0.0071195215 -0.02793742 -0.022991136 -0.048343644 -0.03220579 -0.056729317 0.020832404 -0.0456559
-0.0072340667 0.014250897 -0.0358862 0.058077052 0.02334883 0.056947067 -0.0197839 0.035155423
-0.02252718 -0.043409795 -0.058361694 0.023865454 -0.008471914 -0.025331318 0.02081228 -0.045349687
-0.028171532 0.043239735 0.05160159 -0.0165544 -0.030507542 -0.031680904 0.058954053 0.046129227
0.03954249 0.013331927 -0.0011352599 -0.054160282 0.036959417 -0.050611608 -0.053460047 -0.011847183
-0.057586037 -0.005903423 0.04017011 -0.047101185 -0.019977033 -0.05464022 -0.028530896 -0.018307842
-0.058184057 0.009059295 0.008385271 0.055773087 -0.031032398 -0.037710078 -0.05465678 -0.016656056
0.025112607 0.008812994 0.014850564 0.028812163 -0.000733234 -0.018480934 0.017871387 -0.0005839467

bias f4 [256]
00000000: cced 0bbd e85f 0dbc f48d d9bc 908a 8e3c
00000010: 9605 7a3d a8b0 3ebd a025 e83b f8e5 93bc
00000020: f06c d4bc 6092 5fbd 7af2 7abd 2c1a 1abd
00000030: 30b2 19bc fe3c 6cbd c4be dcbc 6c8e 69bd
00000040: 2a7d 603d 504a 07bc c075 cc3c 86cb 71bd
00000050: 6022 49bb 0029 b739 0485 683d 7221 7bbd
00000060: a0b0 2c3d 209c 633b 1021 86bc a4ad e2bc
00000070: 4821 28bd 00ae 96b9 b8ec 0f3c 6057 aebb
00000080: 6c14 96bc a06f 613b f8f1 023d 968d 2d3d
00000090: 88b9 8cbc 806d 6f3a 00b0 053d 00b4 993a
000000a0: 1084 023d 3825 02bc e03f e63b f04c 2d3c
000000b0: 7874 72bc 6465 0b3d c425 bfbc 1e00 5dbd
000000c0: 0000 543c 8074 103a a005 f23b 688a 883c
000000d0: cc82 19bd 304e babc 54c6 7abd 405d 61bc
000000e0: 5034 053c 0284 2f3d 1069 d03b 8009 ccbc
000000f0: ee60 1cbd 0881 3dbd 3e03 263d 22cf 55bd
00000100: 18c4 2e3d 3688 513d 1632 783d 00bc 6cbb
00000110: c2b4 51bd 3031 c2bb 4c0d 973c e014 bebb
00000120: 6490 6a3d e005 813b 9004 e03c 20db 1dbd
00000130: 2006 d8bb 202a 3ebb 802a 083a 7e01 63bd
00000140: 88c7 70bd e45a eb3c 7214 473d 5c7d d93c
00000150: 001f c93b 2c06 f23c c2be 453d 3049 353c
00000160: c8ba 923c a855 67bd e0e5 97bc 1038 2dbd
00000170: 606d d5bb 74a9 c13c e07c d63c 10eb 2dbd
00000180: 5033 aa3c c627 723d 78fd 2e3d c4b3 463d
00000190: b80b 193c c0e6 d73c 8e24 5e3d 7041 863b
000001a0: a0d3 76bb 92cb 2f3d c0d7 a4bb a8ca 41bc
000001b0: 88c6 2c3c 00c2 4cbb b041 653c f8c5 583c
000001c0: ec3f c53c d0e0 923c a623 783d f210 423d
000001d0: 7837 b4bc a071 1e3b 080c 93bc 9c7b cfbc
000001e0: 788f 1abc c073 043b 00a4 6d3c 80c2 3f3b
000001f0: 76f6 3bbd 4893 6ebc 404a f3bc c8d7 09bd
00000200: 8636 77bd 90ac 0cbc ce7d 52bd d81a 043c
00000210: c05d 4abb c2f8 0dbd 8068 a9bc 6486 303d
00000220: 4acb 323d 02bc 773d e8a8 b0bc 9c4c f43c
00000230: 1cb6 5cbd dce0 3bbd 200a 7a3d 003a 7739
00000240: c8e6 febc 04c0 c9bc 449d 84bc 069e 573d
00000250: c897 973c 3289 51bd 908a 233c cadb 753d
00000260: a8ea f43c 7024 efbc 9425 23bd 46d6 2c3d
00000270: 3af8 26bd 3c9b a7bc 9c68 98bc 6071 14bc
00000280: 7054 623d 3cf9 41bd 387b 4cbd fa1a 663d
00000290: 4077 afba 2eef 00bd c051 b5bb 80d8 3a3d
000002a0: f82a 1c3d c6ce 793d 64e4 6f3d 9c31 eb3c
000002b0: 3049 193d f000 253d 7e23 23bd 526a 60bd
000002c0: 388b 0cbd dadc 2e3d b806 fd3c 284b c53c
000002d0: f6bb 4bbd 7486 f8bc 3a2a 37bd eab2 3cbd
000002e0: ecf6 6a3d f4dc 8e3c 341d c53c 5aa6 4abd
000002f0: 0e93 543d 88cf 13bd 9207 4cbd a8c3 43bc
00000300: ccbd e83c 8055 13bb 6001 013d e230 133d
00000310: 5864 75bc b04c f1bc 80be 3b3a 5091 c73b
00000320: 243a 0e3d a057 febc 1c8f 483d f002 17bd
00000330: 1e6e 11bd 0474 1ebd 4c6b 913c 885b 63bd
00000340: 103e 5fbc 9881 a23c d869 e53c e06e ac3b
00000350: caf1 24bd 3aff 193d 0eca 123d b07b 503c
00000360: 3c4b e53c 6019 d03b 5098 8cbc 08ec fabc
00000370: 2082 943c 6c9d 553d 58b8 a2bc 20b2 883c
00000380: 5832 8fbc f00d db3c 52dc 2fbd c44a 7c3d
00000390: 50a2 5bbc fcb6 95bc 2646 2b3d 92cf 2dbd
000003a0: c85e f8bc be33 64bd 0653 4b3d 88d1 11bc
000003b0: 5684 19bd e0c4 e7bc a812 60bd 584d 0ebc
000003c0: 402d 263b 1e6d 7dbd 902a d83c 9a71 72bd
000003d0: c29b 7abd 2086 88bc feff 133d d040 edbc
000003e0: dc99 803c 6470 c83c 60f9 76bb 0ebb 14bd
000003f0: 40ee 11bc e419 fb3c fc80 0bbd 6e27 053d
-0.034162328 -0.008628823 -0.026556946 0.017400056 0.061040483 -0.04655519 0.0070845634 -0.018053994
-0.025930852 -0.054582953 -0.0612664 -0.037622616 -0.009380862 -0.057675354 -0.026946433 -0.05702059
0.054806866 -0.008257464 0.024958491 -0.059031986 -0.0030690655 0.00034935027 0.05676748 -0.061311193
0.04216063 0.003473051 -0.016373187 -0.027670689 -0.041047364 -0.0002873987 0.0087844655 -0.0053204745
-0.018320285 0.003439881 0.03196904 0.042371355 -0.017178312 0.0009133443 0.03263855 0.0011726618
0.031864226 -0.007943444 0.0070266575 0.010577425 -0.014798276 0.03403224 -0.023333438 -0.05395519
0.012939453 0.0005510524 0.0073859245 0.01666756 -0.037478253 -0.02274236 -0.061224297 -0.013755143
0.008130148 0.0428505 0.0063601807 -0.024906874 -0.038178377 -0.046265632 0.040530436 -0.05219949
0.04266748 0.05115529 0.06059464 -0.00361228 -0.051197775 -0.0059262738 0.018438958 -0.0058008283
0.057266608 0.003937468 0.027345926 -0.038539052 -0.006592527 -0.0029016808 0.0005194321 -0.055421345
-0.058784038 0.028729863 0.048603483 0.026549034 0.0061377287 0.029543959 0.048277624 0.011064813
0.01791133 -0.056478173 -0.01854223 -0.042289793 -0.0065132827 0.023640372 0.026182592 -0.0424605
0.02077642 0.059119962 0.042722195 0.04851128 0.009341173 0.026355147 0.05423408 0.004097156
-0.003766276 0.04291875 -0.005030602 -0.011828102 0.01054538 -0.0031243563 0.013992712 0.013230793
0.024078332 0.017929465 0.060580872 0.04737944 -0.021999106 0.0024176612 -0.017950073 -0.025327496
-0.00943362 0.0020210594 0.014504433 0.0029260218 -0.04588934 -0.014561482 -0.029698491 -0.03365305
-0.060354732 -0.008586064 -0.051389508 0.008063041 -0.0030878633 -0.034661062 -0.020679712 0.043096915
0.043650903 0.060482033 -0.021564916 0.029821686 -0.05388461 -0.04586874 0.061044812 0.00023577362
-0.031115904 -0.024627693 -0.016188271 0.052640937 0.018504992 -0.05115623 0.009981766 0.06002406
0.02989705 -0.02919218 -0.03983076 0.042196535 -0.04076407 -0.020459764 -0.01860457 -0.009060234
0.055256307 -0.04735683 -0.049922198 0.05617807 -0.001338698 -0.0314781 -0.005533427 0.045616627
0.038126916 0.06098821 0.05856742 0.028710179 0.037423313 0.040284097 -0.03982877 -0.054788895
-0.034312457 0.04269109 0.030886993 0.024083689 -0.0497398 -0.03033755 -0.044718005 -0.046069063
0.05736439 0.017439343 0.024061777 -0.04947505 0.051898055 -0.03608659 -0.049811907 -0.011948504
0.028410815 -0.0022481382 0.031495452 0.03593529 -0.014977537 -0.029455513 0.00071618706 0.0060903206
0.034723416 -0.031047642 0.048964605 -0.036868036 -0.035505407 -0.03868486 0.017751358 -0.055507213
-0.013625637 0.019837186 0.028004572 0.005262241 -0.04026965 0.03759692 0.035837226 0.012724802
0.027989976 0.006350681 -0.017162472 -0.030630127 0.018128455 0.052152082 -0.019863293 0.0166865
-0.01748006 0.026740044 -0.042934723 0.06159474 -0.013405398 -0.01827573 0.041814946 -0.042434283
-0.030318633 -0.055713408 0.049639724 -0.008900054 -0.03747972 -0.02829212 -0.054705292 -0.008685432
0.002535656 -0.06187164 0.026387483 -0.05919037 -0.0611837 -0.016665518 0.036132805 -0.02896157
0.015698366 0.024467655 -0.003768526 -0.0363112 -0.008906901 0.030651994 -0.034058556 0.032508306

weight f4 [5, 256]
00000000: b684 153d 4485 d1bc ec15 8fbc 709b 73bd
00000010: 9411 963c 0007 cdba 0038 453c e00b d9bc
00000020: 1c25 72bd 10cb 563d f092 39bd 4066 cc3a
00000030: e4a1 24bd 00cb a1bc 80e2 66ba 2a10 4cbd
00000040: 0002 e73a 8ce3 13bd ec8e c4bc 9079 4cbd
00000050: 0c91 30bd 50de 06bd 38ad 4a3d 4c56 7a3d
00000060: ac9a 123d 4089 733c 7c4e 5cbd 0651 4cbd
00000070: fe7d 1e3d 6651 2fbd 047c 98bc 6090 d5bb
00000080: 909e 613c 5c36 323d 5858 083d 243a 043d
00000090: 1609 6ebd a0fe 3ebd a6d8 4fbd 8850 c7bc
000000a0: a8ed 5a3c 2827 59bd 36f9 003d 3c0a 203d
000000b0: 984f 04bc 4057 7f3c 2cfe 9abc 203d b43c
000000c0: d0ab 133d 6688 34bd 8208 003d 8033 95ba
000000d0: 0081 c7ba 78a9 10bc eccc 293d b60b 143d
000000e0: ac5b 0d3d c06f 1a3d daef 5f3d 0644 4b3d
000000f0: 7466 493d d065 22bc 98ce 7b3c a067 babc
00000100: c4e9 793d 3406 5d3d 5043 a4bb 300a 253c
00000110: 3475 14bd d00d 863c 08e9 45bc a6a0 6d3d
00000120: fc7b ab3c 78a3 97bc b0e7 c93b 1a92 14bd
00000130: b2be 2ebd 5883 413c b443 d7bc ac15 153d
00000140: b4a2 a3bc 609e 5a3d b0c2 25bd fcf0 1dbd
00000150: 429d 45bd e46e ec3c 4c49 64bd 40e8 d93c
00000160: 4099 143b 601e ffbc f418 fbbc 7a6b 723d
00000170: 163c 683d 4042 c83a 063f 5dbd 803a 23ba
00000180: 3c22 9bbc f4df 363d c82c 663c f842 513d
00000190: e01d aabc dcd9 693d 0493 abbc 1435 d63c
000001a0: a81f 9ebc 84a0 ff3c 366b 6a3d b654 713d
000001b0: 988d 563d 7a3f 41bd acb2 1e3d f67d 653d
000001c0: 1845 9abc 74a5 8cbc 9411 a1bc bee6 653d
000001d0: 8029 1b3c 8e01 5c3d 16c1 493d acf0 ccbc
000001e0: eeb7 15bd 8285 0fbd d49c e3bc c2c8 3bbd
000001f0: 98f7 e13c c0aa 343b f45a 89bc 3ab9 0c3d
00000200: e635 73bd 5005 a53c a403 423d 282b 8e3c
00000210: de85 54bd a419 483d 8e94 1f3d f4fc 773d
00000220: 6cb0 b6bc aa72 3f3d 6a34 1dbd 800a 713b
00000230: ee73 5f3d 7806 033d 20ac 363c 60ec 293b
00000240: c0bc 1ebd a0e8 023b f27c 19bd 5a9d 72bd
00000250: 8089 33bb 28e8 4abd 003b ce3b d6b3 6ebd
00000260: f6f3 053d 3846 d03c 7e18 2cbd e097 eb3b
00000270: cc3d abbc 02ab 61bd 84fa b4bc 544c c73c
00000280: a8b0 b8bc 5247 093d e05a b3bb 6061 1a3b
00000290: e4db d6bc e2d5 3fbd a008 0f3b 2c90 8a3c
000002a0: f255 14bd f092 543d 80e5 fa3a 2074 1bbd
000002b0: 1ef9 403d b85a efbc 002a d339 fc01 ab3c
000002c0: d433 42bd 3cb8 10bd 30c9 b03b fe88 00bd
000002d0: e03f 90bb d8ae 77bc 0020 97ba 10bc dc3c
000002e0: 2024 12bc c4be 2abd 2e10 083d 8064 04bd
000002f0: 10ce e7bb c4f8 52bd 8028 653a 2656 2fbd
00000300: e64f 093d d0d7 f73b 4081 ff3c 4cee 99bc
00000310: 9cc9 073d 60b9 5ebb a6ef 223d 96e0 053d
00000320: 60bb 0abb 4856 74bd e203 4e3d 40f5 8e3c
00000330: a062 d1bc 7e24 01bd d8d5 483c d4bf 13bd
00000340: 70e0 873b d83f 3d3c 0ed6 663d 7091 21bc
00000350: 1c29 fabc e862 e23c 08a1 acbc 289b 723d
00000360: f07f 7bbc d873 0ebc d268 1fbd 009d c3bc
00000370: dcfc 233d 54a7 79bd e8ef ba3c 0002 8dbb
00000380: 985a cbbc b8bc c4bc b03d 043c dc21 d03c
00000390: 602e 85bb b0fc 1dbc aeaa 20bd dade 6ebd
000003a0: a0c4 1dbc 4865 fa3c 98d3 1abd 5459 aa3c
000003b0: 24cb 1cbd 7044 3a3c b890 5f3c 4840 443d
000003c0: e825 9e3c b8eb f13c 88fb 72bd 6cce 43bd
000003d0: f86b 1b3c 70b4 7dbc c8f7 0c3d 509f 363d
000003e0: 00e0 083b b0e4 e73c ac3e 6d3d 9c31 ca3c
000003f0: 8850 4c3d 605f 7c3d 209d 76bd 40ed 7abb
0.036503516 -0.025576241 -0.017466508 -0.05947441 0.018318929 -0.0015642345 0.012037277 -0.02649492
-0.05911742 0.05243975 -0.045306146 0.0015594438 -0.040193453 -0.019750118 -0.0008807555 -0.049820103
0.0017624497 -0.036105677 -0.023993932 -0.04992062 -0.043107077 -0.032926857 0.0494816 0.061117455
0.035792038 0.014864266 -0.053785786 -0.049881957 0.038694374 -0.042802237 -0.018613823 -0.006517455
0.013770714 0.043508872 0.033287376 0.03228201 -0.058114134 -0.046629548 -0.05074372 -0.024330392
0.013362326 -0.053015858 0.031487666 0.03907226 -0.008075617 0.015584767 -0.018920027 0.022001803
0.036052525 -0.044075392 0.031258114 -0.0011383146 -0.001522094 -0.008829467 0.041455194 0.03614398
0.034511253 0.03770423 0.0546721 0.04962542 0.049169973 -0.009911969 0.01536908 -0.02275449
0.061013952 0.053960994 -0.005012907 0.01007323 -0.036244586 0.016364008 -0.012079485 0.058014534
0.020933144 -0.018510565 0.0061616525 -0.036272146 -0.04266233 0.0118111 -0.0262774 0.03639762
-0.019975044 0.053373694 -0.04046887 -0.0385599 -0.048245676 0.02886147 -0.055733964 0.026600003
0.0022674352 -0.031142414 -0.030651547 0.05918453 0.056697927 0.0015278533 -0.054015182 -0.0006226674
-0.018937223 0.044647172 0.014048763 0.051089257 -0.020766199 0.057092533 -0.020944126 0.026148356
-0.019302204 0.03120447 0.05723115 0.058918677 0.052381128 -0.047179677 0.038744614 0.05602833
-0.018831775 -0.017168738 -0.019661702 0.056128256 0.009470344 0.05371242 0.049256407 -0.025017105
-0.036552362 -0.035039432 -0.027784742 -0.045845754 0.027583882 0.0027567595 -0.016767003 0.034356333
-0.059377573 0.020144135 0.047366753 0.017354563 -0.05188548 0.048852578 0.038960032 0.06054397
-0.022300921 0.04674021 -0.038380064 0.003677994 0.05455392 0.03198859 0.011149436 0.0025928244
-0.038754225 0.001997508 -0.037472673 -0.059232093 -0.0027395189 -0.049537808 0.0062936544 -0.058276974
0.032703362 0.025424108 -0.042015545 0.007189736 -0.02090349 -0.055094726 -0.022092111 0.024328388
-0.022545174 0.033515282 -0.0054734796 0.0023556575 -0.026227899 -0.046834834 0.002182521 0.01691445
-0.036214776 0.051897943 0.0019141883 -0.037952542 0.047112577 -0.029218063 0.0004027635 0.02087497
-0.04741271 -0.03533195 0.005395077 -0.031380646 -0.0044021457 -0.01511737 -0.0011529922 0.026945144
-0.008919746 -0.041685835 0.033218555 -0.032322407 -0.007074125 -0.051506773 0.00087416917 -0.042806767
0.033523463 0.0075635687 0.03118956 -0.018790387 0.033151254 -0.0033985004 0.039779328 0.032684885
-0.0021168813 -0.059652597 0.05029667 0.017450929 -0.025559723 -0.031528942 0.012258016 -0.036071613
0.004146628 0.011550866 0.056356482 -0.009861335 -0.03053718 0.027635053 -0.02107288 0.05923
-0.015350327 -0.0086946115 -0.038918324 -0.023878574 0.040036067 -0.060950592 0.022819474 -0.004303217
-0.024823472 -0.02401577 0.008071348 0.02540677 -0.004064366 -0.009642765 -0.039225273 -0.058317997
-0.009629399 0.030565873 -0.037799448 0.020794548 -0.038279667 0.011368856 0.0136453435 0.047912866
0.019305184 0.029531345 -0.05932191 -0.04780428 0.009486191 -0.015484914 0.03441599 0.044585526
0.0020885468 0.028307289 0.057921097 0.024681859 0.049881488 0.061614394 -0.06020844 -0.0038288385

bias f4 [5]
00000000: b065 0d3c a0d1 8bbc 1a3e 323d 2488 4a3d
00000010: 509e e13b
0.008630201 -0.01706773 0.043516256 0.04944624 0.0068853274
